Trained_Models_CLODC/10/ConvAutoencoder_200.pth (torch, 494319 bytes, 17 tensors)

encoder.0.weight f4 [4, 8, 3]
0.22649655 -0.12527435 0.034590717 0.09876062 -0.060395714 0.09067048 0.109316826 -0.069384485
-0.04886406 0.005612612 -0.014296586 0.06061939 0.0016113031 0.100654304 -0.09395259 -0.11129452
0.06938758 -0.06501547 -0.021197332 0.08145591 -0.33404636 -0.0066364706 0.26873738 -0.20508122
-0.3217276 0.237304 -0.07583047 -0.26024 0.34494513 -0.09980299 -0.074892044 0.31850478
-0.024565501 -0.30588388 0.34492296 -0.13686986 -0.12428959 0.026341155 -0.14568304 -0.07121691
0.26427454 -0.19903602 -0.052978117 0.16435477 -0.11386913 0.024066849 0.24640791 0.101258874
-0.0524078 0.035068493 0.014733641 0.025295315 -0.082336694 0.056612972 -0.057517257 0.07182799
0.060763933 -0.041746177 -0.10937903 -0.04510856 0.03887462 -0.043764282 0.005694861 0.13682474
-0.18865213 0.15105596 0.18964814 -0.11412567 0.09141587 0.0136153735 -0.10214679 0.008360978
-0.10722945 0.04043568 0.11231319 0.13553207 0.14464448 0.20476279 -0.0333398 0.2941179
0.11902814 0.085417874 0.09908217 0.17085652 0.08003698 0.071325585 -0.04572208 0.09998685
0.21360846 0.042629275 0.0621355 0.19129053 0.16166602 0.052416954 0.2242745 3.084138e-05
00000000: b6ee 673e eb47 00be ffae 0d3d 0243 ca3d
00000010: 7f61 77bd 72b1 b93d 80e1 df3d 7419 8ebd
00000020: ae25 48bd 00ea b73b 3a3c 6abc 0a4c 783d
00000030: 5c32 d33a d823 ce3d 376a c0bd 62ee e3bd
00000040: 131b 8e3d d526 85bd 07a6 adbc 5bd2 a63d
00000050: 2008 abbe c076 d9bb f297 893e d000 52be
00000060: 7bb9 a4be d2ff 723e 014d 9bbd 2d3e 85be
00000070: a69c b03e 8365 ccbd 0061 99bd 0f13 a33e
00000080: 973d c9bc d09c 9cbe be99 b03e 9d27 0cbe
00000090: 8a8b febd 68c9 d73c ef2d 15be 2cda 91bd
000000a0: fe4e 873e 19d0 4bbe 95ff 58bd 9e4c 283e
000000b0: 3834 e9bd d727 c53c 5b52 7c3e d060 cf3d
000000c0: 90a9 56bd fba3 0f3d 5f65 713c 1f38 cf3c
000000d0: 24a0 a8bd 01e3 673d 3797 6bbd 8e1a 933d
000000e0: 9ae3 783d 0afe 2abd 1d02 e0bd c1c3 38bd
000000f0: fe3a 1f3d 2d42 33bd f59b ba3b c91b 0c3e
00000100: 062e 41be 6aae 1a3e 1f33 423e b8ba e9bd
00000110: 3e38 bb3d 0413 5f3c 5632 d1bd 7cfc 083c
00000120: 1d9b dbbd e29f 253d 7504 e63d ebc8 0a3e
00000130: af1d 143e 56ad 513e 508f 08bd 9f96 963e
00000140: 07c5 f33d 91ef ae3d 98eb ca3d 03f5 2e3e
00000150: 6eea a33d 2613 923d 1347 3bbd e8c5 cc3d
00000160: 2dbc 5a3e 099c 2e3d cb81 7e3d aae1 433e
00000170: c78b 253e 29b3 563d 37a8 653e ae5b 0138

encoder.0.bias f4 [4]
-0.2397914 -0.040522005 0.33207932 -0.03414607
00000000: e08b 75be 67fa 25bd 4d06 aa3e c0dc 0bbd

encoder.2.weight f4 [1, 4, 3]
-0.08896065 -0.3483318 -0.07971265 -1.6780636 0.17927046 -0.15042368 -0.10734354 0.1685437
-0.2251355 0.012320566 -0.01302302 0.43254507
00000000: 0031 b6bd 8c58 b2be 6340 a3bd caca d6bf
00000010: ad92 373e aa08 1abe eed6 dbbd b896 2c3e
00000020: ec89 66be 33dc 493c 815e 55bc 8c76 dd3e

decoder.0.weight f4 [1, 4, 3]
0.102279894 0.031007627 -1.020483 -0.52178955 0.6478361 0.3055819 1.6150423 0.74265766
-1.3623133 1.0663255 -0.10063224 0.049896818
00000000: 1f78 d13d b503 fe3c 309f 82bf 0094 05bf
00000010: 96d8 253f 3b75 9c3e b5b9 ce3f d01e 3e3f
00000020: 4860 aebf 5b7d 883f 4718 cebd 9b60 4c3d

decoder.0.bias f4 [4]
0.98076886 1.4412394 0.30429137 1.0981114
00000000: ab13 7b3f 887a b83f 14cc 9b3e ea8e 8c3f

decoder.2.weight f4 [4, 8, 3]
0.18568581 0.16696602 -0.11109619 0.43312544 0.048933383 -0.22892317 0.62066704 -0.04117663
-0.3598137 0.7456983 -0.154438 -0.40696305 0.19316563 0.13009512 -0.11052951 0.43387613
0.03203658 -0.24112518 0.67036146 -0.08090566 -0.38898584 0.80215645 -0.23346286 -0.42905033
-0.10635416 0.085224174 -0.34797245 -0.32306007 0.1691349 -0.63664037 -0.4886857 0.27195767
-0.8088467 -0.61400807 0.43340388 -0.88077 -0.13683896 0.06932323 -0.33635348 -0.34600228
0.14703566 -0.6226708 -0.5385002 0.35895082 -0.79308885 -0.64716583 0.45648268 -0.90706915
0.071689524 -0.2466845 0.23504308 0.2519485 -0.36449122 0.2322659 0.44593135 -0.46389085
0.1642633 0.58597225 -0.48717347 0.05580648 0.089424424 -0.20225324 0.20687243 0.2606853
-0.34020442 0.22465453 0.46082613 -0.4609969 0.11614015 0.61314714 -0.5122537 -0.010109523
0.06873483 -0.27904055 0.44830668 0.16228026 -0.4903421 0.899212 0.20254254 -0.6202652
1.2350715 0.23469117 -0.6521704 1.3908912 0.09256531 -0.26732865 0.44334152 0.1848801
-0.47197387 0.8957691 0.21783537 -0.5442931 1.2519363 0.21974394 -0.6315394 1.4595888
00000000: 6c24 3e3e 24f9 2a3e 6686 e3bd 9ec2 dd3e
00000010: 5f6e 483d d66a 6abe 09e4 1e3f d3a8 28bd
00000020: 8039 b8be 15e6 3e3f ff24 1ebe 765d d0be
00000030: 36cd 453e a837 053e 4c5d e2bd 0325 de3e
00000040: ca38 033d 85e9 76be cf9c 2b3f deb1 a5bd
00000050: 2729 c7be 205a 4d3f e310 6fbe 7cac dbbe
00000060: 36d0 d9bd 038a ae3d 7229 b2be 2168 a5be
00000070: b331 2d3e ddfa 22bf 0335 fabe 093e 8b3e
00000080: 9410 4fbf a22f 1dbf 1de7 dd3e 257a 61bf
00000090: 831f 0cbe 56f9 8d3d 8636 acbe 3627 b1be
000000a0: 8490 163e 5b67 1fbf 26db 09bf 67c8 b73e
000000b0: df07 4bbf a9ac 25bf 19b8 e93e af35 68bf
000000c0: f5d1 923d dd9a 7cbe 22af 703e 65ff 803e
000000d0: 989e babe 1dd7 6d3e 1d51 e43e 1a83 edbe
000000e0: a334 283e 4702 163f cd6e f9be 5695 643d
000000f0: 2724 b73d 791b 4fbe 5ed6 533e 8b78 853e
00000100: 462f aebe d60b 663e 67f1 eb3e c907 ecbe
00000110: e3da ed3d 36f7 1c3f 0f23 03bf 6aa2 25bc
00000120: d9c4 8c3d 67de 8ebe 7488 e53e cc2c 263e
00000130: 1f0e fbbe c232 663f 5067 4f3e b3c9 1ebf
00000140: d316 9e3f e252 703e a4f4 26bf b908 b23f
00000150: e292 bd3d 4ddf 88be a9fd e23e 3551 3d3e
00000160: 8fa6 f1be 2051 653f 3c10 5f3e cb56 0bbf
00000170: 733f a03f 8e04 613e 91ac 21bf ced3 ba3f

decoder.2.bias f4 [8]
0.017806228 0.22002335 0.30398533 0.20856999 0.048289664 0.24034773 0.13249141 0.24232134
00000000: 5ede 913c cd4d 613e f7a3 9b3e 5f93 553e
00000010: 62cb 453d b71d 763e d4ab 073e 1623 783e

mapping.weight f4 [400, 199]
8.067105e-06 3.3374947e-06 4.1699723e-06 3.6892022e-06 4.4624203e-06 4.5899087e-06 4.4113795e-06 5.070328e-06
4.4038834e-06 4.1360486e-06 4.8349357e-06 5.3169642e-06 5.132686e-06 5.4890756e-06 4.830709e-06 4.365139e-06
5.0723725e-06 5.241343e-06 5.3984163e-06 5.411896e-06 4.9902405e-06 4.8652532e-06 5.2283644e-06 5.5557202e-06
5.4008624e-06 5.8855917e-06 5.2301407e-06 4.8667143e-06 5.4656684e-06 5.623528e-06 5.597616e-06 5.9392337e-06
5.298958e-06 4.886482e-06 5.4190214e-06 6.011912e-06 5.8797823e-06 5.8213573e-06 5.3169665e-06 5.2070272e-06
5.723675e-06 5.817947e-06 5.5349255e-06 5.9390964e-06 5.305378e-06 5.0471717e-06 5.6968356e-06 5.901813e-06
5.641958e-06 5.82421e-06 5.594358e-06 5.1646016e-06 5.645067e-06 5.7832603e-06 5.737541e-06 6.115555e-06
5.4633783e-06 5.1818865e-06 5.5656137e-06 5.7290877e-06 5.6604017e-06 6.0130396e-06 5.53138e-06 5.510252e-06
5.8956202e-06 5.8125906e-06 5.8042997e-06 5.9255585e-06 5.8138776e-06 5.7735133e-06 5.6735867e-06 5.802822e-06
6.2038885e-06 6.5635763e-06 5.7907682e-06 5.551519e-06 5.687373e-06 5.806389e-06 6.3283073e-06 6.4308315e-06
5.8065425e-06 5.651513e-06 5.7263696e-06 5.849483e-06 6.20242e-06 6.3027674e-06 5.828462e-06 5.8557494e-06
5.9479926e-06 5.748515e-06 6.3709635e-06 6.3749303e-06 5.864978e-06 5.8683772e-06 5.9526674e-06 5.3509934e-06
6.175048e-06 6.690692e-06 5.676017e-06 5.689509e-06 6.0231882e-06 5.85684e-06 6.0444104e-06 6.4991505e-06
5.693297e-06 5.657339e-06 6.193721e-06 5.5018377e-06 6.129913e-06 6.48864e-06 5.651542e-06 5.575547e-06
5.9365752e-06 5.8389846e-06 6.14587e-06 6.6601924e-06 5.3881854e-06 5.802881e-06 6.1943488e-06 5.9149615e-06
6.00699e-06 6.4382652e-06 5.6437984e-06 5.8755663e-06 6.3000066e-06 5.7760717e-06 5.8534556e-06 6.44671e-06
5.3934245e-06 5.8527153e-06 6.087476e-06 5.6912713e-06 6.0283955e-06 6.287858e-06 5.6598974e-06 5.8215073e-06
6.3315238e-06 5.6322765e-06 5.8996575e-06 6.3469583e-06 5.8784335e-06 5.7839857e-06 6.0925363e-06 5.692378e-06
6.1156475e-06 6.401621e-06 5.527663e-06 5.8216247e-06 6.1600363e-06 5.697916e-06 5.868605e-06 6.2225795e-06
5.7817524e-06 5.5716687e-06 5.929773e-06 5.742569e-06 6.0186853e-06 6.3096477e-06 5.4451834e-06 5.601722e-06
5.9264585e-06 5.617927e-06 5.589095e-06 6.090406e-06 5.613067e-06 5.4960606e-06 5.7553307e-06 5.5228866e-06
5.7286643e-06 5.6620947e-06 5.6042504e-06 5.3060753e-06 5.2833884e-06 5.431968e-06 5.4089423e-06 5.675201e-06
5.470069e-06 5.3061235e-06 5.0937033e-06 5.2800588e-06 5.2781884e-06 5.7590173e-06 5.4599464e-06 5.049337e-06
4.988068e-06 5.3487706e-06 5.2555984e-06 5.4018406e-06 5.1287816e-06 4.869873e-06 4.44196e-06 4.61864e-06
4.5371285e-06 4.4492194e-06 4.3124187e-06 1.5415791e-06 3.4211098e-06 7.225531e-06 2.6166547e-06 -8.910966e-06
-3.6716772e-06 -4.64434e-06 -4.0804666e-06 -4.916013e-06 -5.069094e-06 -4.8089896e-06 -5.549019e-06 -4.869305e-06
-4.6040122e-06 -5.311476e-06 -5.861525e-06 -5.6539757e-06 -6.0890443e-06 -5.344892e-06 -4.7920844e-06 -5.6033987e-06
-5.7292323e-06 -5.9627314e-06 -5.927766e-06 -5.5319624e-06 -5.375575e-06 -5.7455236e-06 -6.130459e-06 -5.984211e-06
-6.5073486e-06 -5.784078e-06 -5.3513304e-06 -6.057921e-06 -6.181893e-06 -6.195178e-06 -6.53886e-06 -5.843059e-06
-5.40083e-06 -6.0111147e-06 -6.6162665e-06 -6.5022105e-06 -6.4123733e-06 -5.877861e-06 -5.7629027e-06 -6.318106e-06
-6.38418e-06 -6.089531e-06 -6.550861e-06 -5.858013e-06 -5.563239e-06 -6.2846016e-06 -6.4673027e-06 -6.247898e-06
-6.385955e-06 -6.2376416e-06 -5.654537e-06 -6.2606982e-06 -6.357787e-06 -6.3254147e-06 -6.7336573e-06 -6.0127345e-06
00000000: f457 0737 b9f9 5f36 caeb 8b36 0394 7736
00000010: e6bb 9536 0403 9a36 7605 9436 c921 aa36
00000020: 12c5 9336 63c8 8a36 c83b a236 6068 b236
00000030: 7039 ac36 cd2e b836 7917 a236 4278 9236
00000040: 5933 aa36 cbde af36 0b24 b536 d597 b536
00000050: d771 a736 3540 a336 4f6f af36 466b ba36
00000060: 0e39 b536 d97c c536 917e af36 c24c a336
00000070: bc65 b736 bdb1 bc36 28d3 bb36 a149 c736
00000080: b4cd b136 90f6 a336 0ad5 b536 eeb9 c936
00000090: f24a c536 1455 c336 6568 b236 06b8 ae36
000000a0: fe0d c036 c937 c336 a6b8 b936 7348 c736
000000b0: da04 b236 e05a a936 7227 bf36 3008 c636
000000c0: 0d50 bd36 956d c336 2bb7 bb36 974b ad36
000000d0: c26a bd36 d40d c236 1a85 c036 3834 cd36
000000e0: 1052 b736 11e0 ad36 42c0 ba36 7d3c c036
000000f0: 7bee bd36 9ec3 c936 319a b936 b4e4 b836
00000100: fed2 c536 c609 c336 8ec2 c236 29d4 c636
00000110: d414 c336 1aba c136 bd5f be36 ddb5 c236
00000120: ff2a d036 b13c dc36 524e c236 2f47 ba36
00000130: 29d6 be36 80d4 c236 bf57 d436 6cc8 d736
00000140: d2d5 c236 21a2 bd36 2425 c036 ad46 c436
00000150: 621e d036 5c7c d336 1b92 c336 817c c436
00000160: de94 c736 5ee3 c036 29c6 d536 3ce8 d536
00000170: c7cb c436 fae8 c436 06bd c736 af8c b336
00000180: 4233 cf36 9b80 e036 9d74 be36 83e8 be36
00000190: cb1a ca36 df85 c436 17d1 ca36 4713 da36
000001a0: 0d09 bf36 2cd4 bd36 a9d3 cf36 6d9c b836
000001b0: 8daf cd36 feb8 d936 60a2 bd36 9615 bb36
000001c0: cb32 c736 7fec c336 9f38 ce36 9e7a df36
000001d0: 29cc b436 5eb6 c236 0dd9 cf36 2279 c636
000001e0: a78f c936 4708 d836 dc5f bd36 bb26 c536
000001f0: a564 d336 14d0 c136 cd68 c436 d150 d836
00000200: 2af9 b436 7162 c436 0543 cc36 a6f7 be36
00000210: 8647 ca36 4afc d236 26ea bd36 5e56 c336
00000220: 6073 d436 e3fc bc36 acf5 c536 f5f7 d436
00000230: 5c3f c536 0f14 c236 7d6e cc36 2801 bf36
00000240: 0335 cd36 81cd d636 437a b936 6057 c336
00000250: 4fb2 ce36 ba30 bf36 efea c436 8dcb d036
00000260: e000 c236 45f4 ba36 5df8 c636 4bb0 c036
00000270: 1df4 c936 76b7 d336 c5b5 b636 6df6 bb36
00000280: e4db c636 a081 bc36 f689 bb36 305c cc36
00000290: e157 bc36 cd6a b836 ea1d c136 3c51 b936
000002a0: da38 c036 06fd bd36 250c bc36 d70a b236
000002b0: f647 b136 4044 b636 767e b536 9b6d be36
000002c0: 898b b736 410b b236 94ea aa36 5c2b b136
000002d0: 4b1b b136 953d c136 9534 b736 796d a936
000002e0: 2e5f a736 9779 b336 3f59 b036 7541 b536
000002f0: e617 ac36 e467 a336 250c 9536 d1f9 9a36
00000300: a33d 9836 814a 9536 65b3 9036 41e8 ce35
00000310: 3896 6536 d772 f236 c999 2f36 4f80 15b7
00000320: ef66 76b6 94d6 9bb6 f1ea 88b6 3bf4 a4b6
00000330: 3017 aab6 e85c a1b6 b631 bab6 0363 a3b6
00000340: 2a7c 9ab6 3b39 b2b6 1eae c4b6 48b7 bdb6
00000350: 7e50 ccb6 4658 b3b6 b1cb a0b6 d404 bcb6
00000360: bb3d c0b6 7913 c8b6 1fe7 c6b6 329f b9b6
00000370: d65f b4b6 acc9 c0b6 3eb4 cdb6 fbcb c8b6
00000380: b359 dab6 da14 c2b6 948f b3b6 2545 cbb6
00000390: 0e6e cfb6 2ce0 cfb6 6168 dbb6 7f0f c4b6
000003a0: c738 b5b6 15b3 c9b6 4c01 deb6 902d dab6
000003b0: de29 d7b6 713a c5b6 f55e c1b6 1e00 d4b6
000003c0: b037 d6b6 ac54 ccb6 78cf dbb6 f38f c4b6
000003d0: dcab bab6 51e0 d2b6 b501 d9b6 09a5 d1b6
000003e0: f046 d6b6 ef4c d1b6 1abc bdb6 fd12 d2b6
000003f0: f954 d5b6 e63e d4b6 adf1 e1b6 ffc0 c9b6

mapping.bias f4 [400]
0.22715856 -0.2509049 0.18075588 -0.41722637 0.1494995 0.3939447 0.32061782 -0.13635232
0.026673771 0.0994677 -0.0016765976 -0.40524256 -0.08379346 0.08797176 -0.384734 -0.03154951
0.20373636 0.85234296 -0.6645617 -0.39226156 0.5179326 0.4779121 -0.26589084 -0.16367832
0.5668818 0.24091388 0.39745238 -0.42204085 0.14913158 0.47611168 -0.08315327 -0.52441597
-0.19095898 -0.3249621 0.30422497 0.21097627 0.33166453 -0.11642407 -0.15922004 0.49859193
0.03193936 -0.28162628 0.018780965 -0.0363281 0.50133646 -0.3423153 0.025873829 -0.32131442
0.23771377 -0.3790868 0.21231541 0.128143 0.48732492 -0.48809916 -0.06035732 0.59335506
0.20224568 -0.11479091 -0.15120776 0.39776596 -0.09138753 -0.2145069 -0.41529253 0.2513298
-0.10395757 -0.50746036 0.050331388 -0.3946617 0.10282867 -0.55510646 -0.331975 0.15283485
0.11067339 0.524801 -0.0059963265 0.5080143 -0.7347806 -0.69133437 0.07057073 -0.20002396
-0.048372928 -0.1448831 0.13777971 -0.28921193 -0.099453114 -0.19049509 -0.45936257 0.2473543
0.24175066 -0.23346324 -0.3101919 -0.50552064 0.007116726 -0.4432912 0.3245891 0.24938577
-0.5094336 -0.27878487 -0.6165698 -0.0868216 0.26628867 0.19649217 0.33749023 -0.64452606
0.21034408 -0.039713733 0.07622233 0.52388275 -0.3020152 0.29799932 0.19544055 -0.041171826
0.1800738 -0.30448744 0.21994379 0.028110992 0.03460411 -0.048082523 0.057196964 0.29440895
-0.29442143 -0.3771725 0.040087953 0.61203355 -0.14028214 -0.29990977 -0.26916158 -0.29532504
0.17366035 -0.6679745 -0.2830918 0.019271636 -0.094631694 -0.5368878 -0.55051935 -0.025296621
0.14070925 0.2033476 -0.5018425 -0.10043461 -0.62967813 -0.39184797 0.27841893 -0.07630967
-0.37232164 -0.656614 0.28307143 0.2958486 0.38169324 -0.14942637 0.35218388 -0.4216683
0.64467007 -0.2835336 -0.34886017 0.17646338 -0.033009443 0.63289267 -0.18133608 -0.30733082
0.26601914 0.23626825 -0.3038507 0.2481834 -0.4644632 0.58481216 0.08457387 -0.044824794
-0.6012269 0.24151252 -0.37825823 0.3970994 -0.088774696 0.05390959 -0.6876987 -0.30361807
-0.32374647 0.28556976 -0.22935478 0.32143253 -0.4201451 0.527752 -0.17060828 -0.35154933
0.015909689 0.085392684 -0.4692691 -0.058649853 -0.06509898 0.18135223 -0.270883 0.31236976
-0.2523336 -0.3458201 0.3538406 -0.020888612 -0.60083467 0.7399309 -0.17896816 0.02933736
-0.17038383 -0.38559145 -0.03807053 -0.37950265 -0.16270798 -0.65897274 0.16740362 -0.29644278
-0.37235805 -0.16510426 0.47774962 -0.5198309 -0.145353 -0.2653245 0.013213534 0.062145572
-0.066127256 0.585644 0.5526537 0.38168943 0.20724341 -0.10376768 -0.33023673 -0.0054934165
-0.36489716 0.65857804 0.48332256 -0.3169056 -0.27728397 -0.17868063 0.43951786 0.05330747
-0.39859474 -0.24055791 0.3756449 0.46393278 0.039851036 -0.0903702 0.5097514 -0.10535329
0.55672795 -0.51615524 -0.16206428 0.64426374 0.7181705 -0.543864 -0.47645798 0.19114536
-0.19407643 0.15019558 0.69274616 -0.07582084 0.06035133 0.379877 -0.055312864 0.07638205
00000000: 419c 683e 9b76 80be 1218 393e b29e d5be
00000010: 6616 193e 1fb3 c93e 0528 a43e f19f 0bbe
00000020: f482 da3c b9b5 cb3d 48c1 dbba f47b cfbe
00000030: e89b abbd 8a2a b43d dbfb c4be 0f3a 01bd
00000040: 44a0 503e 2633 5a3f b720 2abf 82d6 c8be
00000050: 3b97 043f e5b0 f43e d822 88be 4a9b 27be
00000060: 2a1f 113f 21b2 763e e17e cb3e bd15 d8be
00000070: f3b5 183e e9c4 f33e 434c aabd 2040 06bf
00000080: c08a 43be 6f61 a6be 60c3 9b3e 2a0a 583e
00000090: efcf a93e be6f eebd 940a 23be 7147 ff3e
000000a0: d9d2 023d 5231 90be 8ada 993c c6cc 14bd
000000b0: 9657 003f f343 afbe 5af5 d33c 5383 a4be
000000c0: 3d6b 733e aa17 c2be 3669 593e eb37 033e
000000d0: a782 f93e 22e8 f9be 3d39 77bd 1ee6 173f
000000e0: 7e19 4f3e 7f17 ebbd 35d6 1abe fba7 cb3e
000000f0: 6329 bbbd b2a7 5bbe 39a1 d4be 4dae 803e
00000100: b5e7 d4bd ece8 01bf 4928 4e3d 1911 cabe
00000110: d697 d23d 751b 0ebf a1f8 a9be bd80 1c3e
00000120: bba8 e23d 5c59 063f d57c c4bb 3a0d 023f
00000130: 951a 3cbf 4afb 30bf 6387 903d 15d3 4cbe
00000140: b122 46bd 3c5c 14be 2016 0d3e 9613 94be
00000150: 13ae cbbd 2511 43be 9231 ebbe 724a 7d3e
00000160: 7c8d 773e fd10 6fbe 79d1 9ebe cd69 01bf
00000170: 6d33 e93b 10f7 e2be 8b30 a63e fc5e 7f3e
00000180: 3e6a 02bf e4bc 8ebe 85d7 1dbf 86cf b1bd
00000190: fd56 883e 3e35 493e 85cb ac3e a9ff 24bf
000001a0: 7064 573e deaa 22bd 741a 9c3d 2e1d 063f
000001b0: bca1 9abe 5e93 983e 9121 483e caa3 28bd
000001c0: 4465 383e c7e5 9bbe f238 613e 0649 e63c
000001d0: 0abd 0d3d 2ef2 44bd 5d47 6a3d c5bc 963e
000001e0: 68be 96be c11c c1be 4433 243d 3bae 1c3f
000001f0: 1fa6 0fbe c68d 99be 8ccf 89be d834 97be
00000200: 05d4 313e 6000 2bbf 69f1 90be 8ddf 9d3c
00000210: 43ce c1bd 7b71 09bf d6ee 0cbf dc3a cfbc
00000220: 1616 103e 5a3a 503e c078 00bf a9b0 cdbd
00000230: 9632 21bf 4ca0 c8be ed8c 8e3e 3f48 9cbd
00000240: f1a0 bebe db17 28bf bdee 903e 7879 973e
00000250: 4c6d c33e 3a03 19be 7251 b43e e8e4 d7be
00000260: 1909 253f 512b 91be cd9d b2be d1b2 343e
00000270: e934 07bd 4105 223f 2ab0 39be 775a 9dbe
00000280: a933 883e 4ef0 713e 5292 9bbe ca23 7e3e
00000290: 1fce edbe 40b6 153f 1135 ad3d 349a 37bd
000002a0: 02ea 19bf 0f4f 773e 10ab c1be 9d50 cb3e
000002b0: 82cf b5bd 4dd0 5c3d 060d 30bf d473 9bbe
000002c0: 19c2 a5be 3336 923e fbdb 6abe ce92 a43e
000002d0: 421d d7be c11a 073f f0b3 2ebe 46fe b3be
000002e0: 0955 823c 5ce2 ae3d 0a44 f0be d43a 70bd
000002f0: 9d52 85bd 66b4 393e 2db1 8abe eeee 9f3e
00000300: df31 81be 550f b1be 982a b53e 981e abbc
00000310: 4dd0 19bf 1d6c 3d3f 6e43 37be e754 f03c
00000320: 1979 2ebe 3e6c c5be d8ef 1bbd 2c4e c2be
00000330: ec9c 26be 70b2 28bf db6b 2b3e 59c7 97be
00000340: b7a5 bebe 1711 29be 999b f43e a313 05bf
00000350: 6bd7 14be 9dd8 87be 947d 583c 5b8c 7e3d
00000360: ba6d 87bd c4ec 153f b67a 0d3f cc6c c33e
00000370: 9e37 543e 2684 d4bd ca14 a9be 1e02 b4bb
00000380: cdd3 babe 9298 283f 0e76 f73e 7341 a2be
00000390: 2af8 8dbe 0ef8 36be 7c08 e13e ef58 5a3d
000003a0: 9c14 ccbe d054 76be 8754 c03e 9988 ed3e
000003b0: d73a 233d 0314 b9bd 117f 023f 77c3 d7bd
000003c0: b985 0e3f c022 04bf 2ef4 25be 78ee 243f
000003d0: 06da 373f ac3a 0bbf 4df2 f3be 9cbb 433e
000003e0: f9bb 46be dfcc 193e d057 313f f547 9bbd
000003f0: f532 773d 3d7f c23e be8f 62bd 316e 9c3d

predictor.0.weight f4 [104, 199]
-0.24075754 0.061456695 0.005262654 -0.02842329 -0.13903098 -0.1228087 0.060797084 -0.1951092
0.0005451825 0.080040276 -0.0185393 0.031770963 0.018977111 -0.16260634 0.059558854 0.025481246
0.0738449 -0.022663677 -0.1386526 -0.03036447 -0.07462277 -0.006158119 0.20915624 -0.14356065
-0.1890512 0.033123616 -0.09436145 -0.10147684 0.053430032 -0.071845636 0.009888174 0.0038717135
0.1070341 0.023196114 -0.16647914 -0.07422117 0.02603003 0.0693473 0.01865412 0.011960596
0.13051647 0.10253952 0.14843705 0.06778368 -0.055029236 0.07856965 0.026534397 -0.050960448
-0.08666643 -0.118986905 -0.176396 0.08688444 0.10572204 0.07858777 -0.035442844 -0.1253721
-0.017199073 0.12142129 0.07711234 0.072619066 -0.047129918 0.07353519 0.16266505 -0.012572624
0.011777879 0.042589244 -0.11796663 -0.111546725 -0.2115808 0.012452984 0.09522827 0.091856085
-0.031174289 -0.08950615 -0.021760888 -0.1041884 0.075055026 0.13536753 0.018911304 0.10383254
0.074925944 -0.14322223 -0.008975786 0.018036913 -0.12798782 -0.05008522 0.15831243 0.12046818
0.15693046 0.13451202 -0.032655537 -0.09490656 -0.033299014 -0.038100567 -0.09715964 0.03860167
-0.08691072 -0.07858889 0.012496655 -0.11167284 0.0023628636 0.011190823 -0.019657351 0.03449496
-0.031058598 0.0023763378 -0.037550926 0.08706199 -0.057949305 -0.02889924 -0.09627015 -0.07261142
0.09998755 0.145106 -0.15104258 -0.08065986 -0.019126195 0.044836108 0.014408581 0.050933618
0.19989894 0.065581955 -0.06594918 -0.054837026 0.1354877 0.18467501 -0.056744248 0.17624947
0.0442646 -0.04118157 0.004613519 -0.024943892 0.07639714 -0.03912455 0.021040473 -0.11818935
-0.13556518 0.067699604 -0.034571324 -0.015145021 -0.09306951 -0.041347537 -0.030200789 -0.18411553
-0.13451108 -0.05614679 -0.087283775 0.024795054 -0.032301363 -0.10126452 0.20812638 0.12543374
0.06321214 0.08705527 -0.020791417 0.30967993 -0.04274047 -0.14920232 0.25683025 0.022489445
-0.08127263 -0.058538422 -0.17762022 0.045976322 0.0215511 -0.111373045 -0.09629815 -0.07840736
-0.15685003 -0.03496955 0.05247766 -0.10189848 0.06719608 -0.06304733 -0.008838682 -0.09308901
-0.16635665 0.06053021 -0.11823152 -0.08946534 0.13692467 -0.110574365 0.011467265 0.039273426
0.036963798 0.07028837 0.015706887 -0.18488637 0.043622177 0.0595962 -0.08295119 -0.024427237
0.060998306 -0.103845716 -0.13278505 0.032144167 0.15983771 -0.18788025 -0.22979519 0.068338424
-0.040147576 0.061792307 0.08663254 0.013009888 0.005433673 0.0465636 0.053403225 0.07336132
0.053867742 -0.0034179247 0.0018921682 -0.041350856 0.0015750453 -0.027348911 0.00964649 -0.021637455
-0.013153024 0.08768823 -0.01995368 0.099499576 -0.021532835 -0.014540162 0.019298289 -0.018061398
0.08493018 -0.043472704 -0.013296232 0.014933988 -0.035941936 0.04127458 0.045093335 0.03634359
0.010978413 0.05960873 0.023016123 0.06118817 -0.04091792 -0.02471009 -0.027968405 0.025698874
-0.113826506 0.03042013 0.03499177 0.06439484 0.024030363 -0.033353917 -0.042615503 0.08299539
-0.05094846 0.0026347945 0.04082028 0.08550538 0.020190388 0.071287945 -0.09245478 -0.040450793
00000000: 2589 76be 04ba 7b3d 5772 ac3b f6d7 e8bc
00000010: 235e 0ebe 2183 fbbd 5d06 793d b5ca 47be
00000020: 94ea 0e3a 28ec a33d bbdf 97bc 4522 023d
00000030: e375 9b3c 4782 26be fcf3 733d 0cbe d03c
00000040: ff3b 973d 2da9 b9bc f2fa 0dbe e9be f8bc
00000050: d3d3 98bd 0cca c9bb 0e2d 563e 9001 13be
00000060: a396 41be a1ac 073d 9340 c1bd 17d3 cfbd
00000070: 73d9 5a3d ce23 93bd 0202 223c 93bc 7d3b
00000080: b234 db3d c705 be3c 8279 2abe 4501 98bd
00000090: ee3c d53c f505 8e3d 86d0 983c 60f6 433c
000000a0: 1ca6 053e 3d00 d23d e2ff 173e 2cd2 8a3d
000000b0: 5666 61bd 20e9 a03d aa5e d93c e7bb 50bd
000000c0: 2b7e b1bd 68af f3bd 27a1 34be 78f0 b13d
000000d0: cc84 d83d a0f2 a03d 842c 11bd 8b61 00be
000000e0: 12e5 8cbc baab f83d 13ed 9d3d 4eb9 943d
000000f0: 4d0b 41bd 9e99 963d ab91 263e 68fd 4dbc
00000100: 01f8 403c 0f72 2e3d 7d98 f1bd 9c72 e4bd
00000110: a3a8 58be 9a07 4c3c 0a07 c33d 0b1f bc3d
00000120: 3961 ffbc 004f b7bd e443 b2bc ba60 d5bd
00000130: 73b6 993d c99d 0a3e e1eb 9a3c 28a6 d43d
00000140: c672 993d d9a8 12be 2d0f 13bc 26c2 933c
00000150: 3d0f 03be 2926 4dbd a71c 223e 05b8 f63d
00000160: 61b2 203e 85bd 093e d0c1 05bd 5f5e c2bd
00000170: 8c64 08bd 570f 1cbd a2fb c6bd c91c 1e3d
00000180: 3ffe b1bd 36f3 a0bd c5be 4c3c bbb4 e4bd
00000190: 46da 1a3b b759 373c 7408 a1bc 964a 0d3d
000001a0: 9a6e febc 55bc 1b3b 00cf 19bd 8e4d b23d
000001b0: 405c 6dbd 19be ecbc 4929 c5bd 4cb5 94bd
000001c0: 46c6 cc3d ab96 143e e8aa 1abe ff30 a5bd
000001d0: 8aae 9cbc 11a6 373d f811 6c3c c59f 503d
000001e0: 4fb2 4c3e d54f 863d 5d10 87bd ca9c 60bd
000001f0: 4abd 0a3e 721b 3d3e a86c 68bd be7a 343e
00000200: cc4e 353d 02ae 28bd 012d 973b 2257 ccbc
00000210: 1b76 9c3d 1041 20bd 125d ac3c 420d f2bd
00000220: 99d1 0abe 17a6 8a3d a99a 0dbd d222 78bc
00000230: 3a9b bebd 095c 29bd a567 f7bc c888 3cbe
00000240: 46bd 09be 2dfa 65bd d6c1 b2bd ff1e cb3c
00000250: 6f4e 04bd c663 cfbd 151f 553e b471 003e
00000260: 5e75 813d 094a b23d c352 aabc 5e8e 9e3e
00000270: a210 2fbd 7ec8 18be 417f 833e c93b b83c
00000280: 4472 a6bd fcc5 6fbd 13e2 35be ab51 3c3d
00000290: ef8b b03c 8d17 e4bd f737 c5bd 0a94 a0bd
000002a0: 4b9d 20be 3b3c 0fbd d1f2 563d 26b0 d0bd
000002b0: 199e 893d f51e 81bd 1fd0 10bc 73a5 bebd
000002c0: 6659 2abe 87ee 773d 5e23 f2bd 9b39 b7bd
000002d0: fb35 0c3e d074 e2bd 32e1 3b3c 2cdd 203d
000002e0: 5a67 173d 59f3 8f3d bbab 803c da52 3dbe
000002f0: 2bad 323d 251b 743d 50e2 a9bd a11b c8bc
00000300: 5cd9 793d 10ad d4bd cef8 07be 9aa9 033d
00000310: 7fac 233e ae63 40be 6e4f 6bbe 04f5 8b3d
00000320: c971 24bd ee19 7d3d 676c b13d 6d27 553c
00000330: f40c b23b 79b9 3e3d 57bd 5a3d 763e 963d
00000340: 6ca4 5c3d 43ff 5fbb a102 f83a 845f 29bd
00000350: c071 ce3a d30a e0bc 500c 1e3c 0841 b1bc
00000360: c87f 57bc e395 b33d e675 a3bc 6fc6 cb3d
00000370: a165 b0bc dc39 6ebc 7217 9e3c 7ff5 93bc
00000380: e0ef ad3d 6f10 32bd 70d8 59bc b0ad 743c
00000390: da37 13bd 890f 293d cab3 383d 04dd 143d
000003a0: cdde 333c 4928 743d 4f8c bc3c 72a0 7a3d
000003b0: 8d99 27bd d16c cabc ff1d e5bc 7286 d23c
000003c0: df1d e9bd a333 f93c 8853 0f3d 71e1 833d
000003d0: 53db c43c 1e9e 08bd 988d 2ebd 7df9 a93d
000003e0: 55af 50bd 84ac 2c3b 2a33 273d 721d af3d
000003f0: 5066 a53c 6aff 913d ef58 bdbd bbaf 25bd

predictor.0.bias f4 [104]
-0.09202695 0.0058074067 -0.0005560729 -0.063649535 0.03605921 -0.010779001 0.06756922 0.24478683
0.047756735 0.016702022 0.011008382 0.0847087 -0.045493457 0.007614069 0.0063110846 0.21416762
0.04854941 -0.057307173 -0.14090422 0.092608 -0.020471618 -0.02212107 0.059747133 0.053221446
-0.08490757 0.21286665 -0.083265945 -0.020686915 0.035647456 0.03324987 0.07724711 0.07892745
0.038552433 0.060194828 0.0025066833 0.09433712 -0.0038923037 -0.030667478 -0.038201265 -0.076193415
-0.13616677 0.00957191 0.030529205 0.028101277 -0.0746367 0.033681553 0.045460816 0.015366948
0.045160256 0.013635041 0.0004504258 -0.10363448 0.060243286 0.05139196 0.010880521 0.053487536
0.05228022 0.064559326 -0.015455872 0.02802397 0.025171047 0.11316052 -0.015340158 -0.084359646
0.095236 0.03749898 0.031232005 0.21915129 0.113331184 0.15092407 0.08879352 0.078160316
-0.08641356 0.022952065 -0.041253015 0.05416746 -0.05796151 -0.03074877 -0.029120155 0.11978081
-0.0051631094 -0.043339644 -0.06923145 0.033008516 -0.09652193 -0.08882585 -0.019329928 0.030351546
0.038083423 -0.031751387 -0.053114463 0.02261504 0.09107758 0.00072420813 0.029376766 0.008286226
-0.04808519 0.08571881 -0.033264898 -0.045510247 -0.037557278 0.0098535605 -0.018427514 -0.058178846
00000000: a078 bcbd 0f4c be3b 6cc5 11ba b05a 82bd
00000010: d2b2 133d 689a 30bc bb61 8a3d 66a9 7a3e
00000020: 919c 433d aed2 883c 805c 343c c17b ad3d
00000030: 5957 3abd 717f f93b 37cd ce3b c24e 5b3e
00000040: bfdb 463d edba 6abd 3249 10be 43a9 bd3d
00000050: 18b4 a7bc 3f37 b5bc 69b9 743d bbfe 593d
00000060: 05e4 adbd b7f9 593e 5687 aabd 9b77 a9bc
00000070: 1103 123d 0431 083d bc33 9e3d b7a4 a13d
00000080: 28e9 1d3d da8e 763d 2b47 243b d233 c13d
00000090: 0516 7fbb 5d3a fbbc ee78 1cbd 4b0b 9cbd
000000a0: 4d6f 0bbe 80d3 1c3c 6218 fa3c a634 e63c
000000b0: 20db 98bd abf5 093d 1f35 3a3d a7c5 7b3c
000000c0: f6f9 383d 8265 5f3c 2127 ec39 503e d4bd
000000d0: aac1 763d 6080 523d 3644 323c bf15 5b3d
000000e0: c923 563d ae37 843d a03a 7dbc 8692 e53c
000000f0: 8333 ce3c b4c0 e73d 4955 7bbc c0c4 acbd
00000100: 180b c33d 8898 193d 43da ff3c 3269 603e
00000110: 2e1a e83d d78b 1a3e 61d9 b53d 8412 a03d
00000120: 98f9 b0bd f805 bc3c ecf8 28bd b3de 5d3d
00000130: 0c69 6dbd d8e4 fbbc 648d eebc a44f f53d
00000140: 4d2f a9bb e984 31bd 38c9 8dbd f033 073d
00000150: 4aad c5bd 54ea b5bd cc59 9ebc cea3 f83c
00000160: 5dfd 1b3d be0d 02bd 8d8e 59bd 2d43 b93c
00000170: e286 ba3d c9d8 3d3a 8ba7 f03c f3c2 073c
00000180: faf4 44bd 588d af3d c640 08bd f468 3abd
00000190: a9d5 19bd d470 213c 4cf5 96bc f14c 6ebd

predictor.2.weight f4 [8, 104]
0.09197844 -0.11949833 -0.0825558 -0.20423004 0.15061605 -0.096693076 -0.07471976 0.22284406
0.15933558 0.09352401 -0.08128617 -0.077958755 0.21960618 0.02856905 0.05457704 0.1915523
-0.12810288 -0.10580934 0.13646173 0.046912916 -0.13844892 0.0737697 -0.07542786 -0.07780814
-0.17979608 0.21063745 0.19314952 0.12068201 -0.054545518 0.002987745 0.097865894 -0.071178764
0.13075651 -0.091961496 0.081099615 0.0718674 0.042265743 -0.16668938 -0.13218907 -0.08195661
0.15031989 0.12052183 -0.10935123 -0.104037404 0.31063426 -0.033320818 -0.01897081 -0.11398031
-0.00710462 -0.115569115 -0.021929111 0.17754668 0.049330972 0.07002845 0.32075366 0.23811732
-0.057032667 -0.09015578 -0.07732375 0.065660976 -0.050922155 0.058102667 0.040914755 -0.22527958
-0.15620917 -0.005460883 -0.101331525 -0.21000946 0.10264805 0.08124604 0.11553004 0.13783437
-0.16956647 0.03592355 -0.095198 -0.04713042 0.2843752 0.25072145 -0.2298245 -0.3147696
-0.044033196 0.075733356 0.21263678 0.14430217 0.4284602 -0.058461003 -0.0786094 -0.0633516
-0.04409624 0.24954367 0.03197574 -0.07595156 -0.022583105 0.030993387 -0.02562017 0.35055712
0.100075714 0.12430037 -0.47637343 0.0698541 0.14953047 0.08738491 0.06421585 -0.027157463
0.2737135 -0.21894655 -0.15867472 -0.3460378 0.25984728 -0.14730883 -0.14557296 0.34340456
0.09049932 0.1813512 -0.15009797 -0.13341884 0.38981038 0.10568612 0.19147335 0.36679628
-0.17629851 -0.2724111 0.3115822 0.13067706 -0.16506103 0.16941269 -0.11966428 -0.1651687
-0.3873859 0.37890193 0.26322988 0.2474993 -0.1087812 -0.06400786 0.1968363 -0.14671744
0.24856338 -0.161834 0.17280261 0.11607653 0.15385482 -0.042665515 -0.19519053 -0.26722047
0.26131174 -0.007795567 -0.15001047 -0.12284857 0.7053071 -0.09242804 -0.070693344 -0.17809646
-0.076962255 -0.16786294 -0.149497 0.42954275 0.16372983 0.19411804 0.5242858 0.32444975
-0.1266638 -0.17032434 -0.12761182 0.18491623 -0.1277664 0.055431146 0.19538556 -0.4712689
-0.3249908 -0.066701695 -0.18502723 -0.053073738 0.10084447 0.17473693 0.14191496 0.004382902
-0.36365885 0.16159439 -0.2681975 -0.12970978 0.2465979 0.5831893 -0.46409273 -0.37454778
-0.08690349 0.23525082 0.35467592 0.210808 0.53977364 -0.28377992 0.00877298 -0.12847035
-0.1131036 0.29120916 0.15181409 -0.14806081 0.023097666 0.12972608 -0.1491938 0.6279195
0.20980957 0.23143895 -0.9968242 0.16594729 0.3357443 0.21421976 0.20212539 -0.124641314
0.4013386 -0.2890463 -0.18577957 -0.48117203 0.3567438 -0.16987735 -0.07356409 0.373246
-0.03973056 0.20149697 -0.20821302 -0.17166255 0.4084796 0.20804499 0.32250306 0.4279449
-0.19115165 -0.32684675 0.41517806 0.16757175 -0.1835019 0.24630164 -0.15075879 -0.21847144
-0.5177971 0.4916555 0.29431647 0.34958768 -0.14902414 -0.16925423 0.25641266 -0.14229006
0.2992506 -0.16592231 0.22737 0.16306348 0.239054 0.20128359 -0.21488254 -0.48083395
0.34185424 -0.114296064 -0.1630519 -0.12685631 1.0256143 -0.17034736 -0.14241888 -0.24088879
00000000: 315f bc3d 8abb f4bd 0413 a9bd ae21 51be
00000010: 183b 1a3e 0507 c6bd ac06 99bd 3c31 643e
00000020: de28 233e 8489 bf3d 5d79 a6bd d7a8 9fbd
00000030: 71e0 603e a409 ea3c 2d8c 5f3d 4926 443e
00000040: 672d 03be 91b2 d8bd a0bc 0b3e c227 403d
00000050: 8ec5 0dbe 9214 973d ec79 9abd e059 9fbd
00000060: 771c 38be 58b1 573e fdc8 453e 2128 f73d
00000070: 1f6b 5fbd 0bce 433b ea6d c83d 2cc6 91bd
00000080: 09e5 053e 4f56 bcbd 8e17 a63d 372f 933d
00000090: d81e 2d3d 9fb0 2abe 925c 07be ded8 a7bd
000000a0: 75ed 193e 26d4 f63d 8af3 dfbd 9011 d5bd
000000b0: 740b 9f3e 697b 08bd ac68 9bbc 826e e9bd
000000c0: dfcd e8bb 80af ecbd aea4 b3bc ccce 353e
000000d0: 460f 4a3d 136b 8f3d d339 a43e 07d5 733e
000000e0: 169b 69bd 98a3 b8bd ea5b 9ebd 4379 863d
000000f0: c093 50bd 10fd 6d3d 3b96 273d b1af 66be
00000100: 4cf5 1fbe 35f1 b2bb e786 cfbd b80c 57be
00000110: 2439 d23d 5364 a63d 039b ec3d 7424 0d3e
00000120: d5a2 2dbe 9324 133d 2bf7 c2bd d40b 41bd
00000130: a099 913e 905e 803e 1d57 6bbe 7b29 a1be
00000140: 275c 34bd 171a 9b3d 75bd 593e f3c3 133e
00000150: 235f db3e ce74 6fbd f7fd a0bd 7cbe 81bd
00000160: 429e 34bd 6088 7f3e fef8 023d 7e8c 9bbd
00000170: 3400 b9bc d8e5 fd3c 64e1 d1bc 397c b33e
00000180: 7ff4 cc3d 3191 fe3d 38e7 f3be ab0f 8f3d
00000190: 841e 193e dcf6 b23d 9983 833d 5479 debc
000001a0: 2d24 8c3e 8633 60be a07b 22be de2b b1be
000001b0: b40a 853e 20d8 16be 1411 15be b9d2 af3e
000001c0: b557 b93d 21b4 393e 48b3 19be f39e 08be
000001d0: 3a95 c73e f771 d83d 9711 443e b9cc bb3e
000001e0: 9987 34be 7879 8bbe b487 9f3e 35d0 053e
000001f0: c205 29be 857a 2d3e 8c12 f5bd fc21 29be
00000200: 7257 c6be 6fff c13e 11c6 863e 7570 7d3e
00000210: aec8 debd 8e16 83bd 748f 493e 193d 16be
00000220: 6687 7e3e d0b7 25be 2bf3 303e 88b9 ed3d
00000230: 1e8c 1d3e 09c2 2ebd 07e0 47be 1fd1 88be
00000240: a7ca 853e f571 ffbb 589c 19be 0898 fbbd
00000250: 028f 343f ea4a bdbd acc7 90bd eb5e 36be
00000260: 639e 9dbd 43e4 2bbe be15 19be 07ed db3e
00000270: cba8 273e e1c6 463e 9837 063f 471e a63e
00000280: 28b4 01be 8169 2ebe acac 02be ae5a 3d3e
00000290: 32d5 02be c50b 633d 2713 483e 284a f1be
000002a0: 3265 a6be e69a 88bd c777 3dbe d963 59bd
000002b0: 8c87 ce3d 3dee 323e 2852 113e 729e 8f3b
000002c0: 7e31 babe 0079 253e 2f51 89be a4d2 04be
000002d0: 2984 7c3e e54b 153f 909d edbe bac4 bfbe
000002e0: 75fa b1bd 97e5 703e 1598 b53e 0dde 573e
000002f0: 9b2e 0a3f 9a4b 91be 8cbc 0f3c bb8d 03be
00000300: dca2 e7bd 5e19 953e 2775 1b3e 419d 17be
00000310: 5137 bd3c ead6 043e 42c6 18be 55bf 203f
00000320: 52d8 563e 55fe 6c3e df2f 7fbf 16ee 293e
00000330: ade6 ab3e 6d5c 5b3e f5f9 4e3e f243 ffbd
00000340: 417c cd3e e0fd 93be 003d 3ebe 2e5c f6be
00000350: 20a7 b63e 54f4 2dbe c5a8 96bd 1a1a bf3e
00000360: 83bc 22bd 3955 4e3e cb35 55be 4fc8 2fbe
00000370: 3d24 d13e bf09 553e 1f1f a53e 981b db3e
00000380: 42bd 43be 7558 a7be 3892 d43e ee97 2b3e
00000390: ece7 3bbe 7f36 7c3e 8360 1abe fab6 5fbe
000003a0: 5a8e 04bf 45ba fb3e a6b0 963e 28fd b23e
000003b0: c999 18be fb50 2dbe 8548 833e 7cb4 11be
000003c0: 6037 993e 8ae7 29be aed3 683e 1dfa 263e
000003d0: 92ca 743e 491d 4e3e 2b0a 5cbe de2f f6be
000003e0: 8507 af3e 0e14 eabd 14f7 26be 9fe6 01be
000003f0: 5447 833f 8a6f 2ebe 41d6 11be 8dab 76be

predictor.2.bias f4 [8]
0.04078949 0.07393771 0.0047668843 0.040933594 0.04790917 0.042290784 0.012295183 0.006370725
00000000: e112 273d a76c 973d 8633 9c3b fca9 273d
00000010: 683c 443d 1a39 2d3d bc71 493c 84c1 d03b

classifier.0.weight f4 [101, 199]
0.17514384 0.09733899 -0.20076324 -0.1363673 -0.059054423 -0.032693893 -0.2010126 -0.23094873
-0.14945602 0.07597335 0.058435407 -0.05044849 0.07499627 -0.2652485 0.059600182 -0.116493456
0.077742025 0.021546459 0.025741804 0.0024294208 -0.027045406 -0.1595852 0.14978085 -0.09289254
0.088544376 -0.2640864 -0.028185707 -0.22882567 0.05857793 -0.025138 -0.17135319 -0.13939281
-0.30495727 0.07330619 0.115949914 0.0742673 -0.067583054 -0.2342056 -0.049783032 -0.22733897
-0.058906753 -0.068841785 -0.044784293 -0.21150392 0.119367674 -0.20776431 -0.018730326 0.17375919
-0.24956432 0.2776928 -0.24530864 0.034101106 -0.060848515 -0.13476156 -0.10723102 -0.096916415
-0.014559515 0.15098435 -0.25449643 0.08243382 -0.33016387 -0.18745157 -0.41754395 0.16438289
-0.16570343 0.044847414 -0.2524323 -0.3038397 -0.11050498 0.042681098 -0.04768397 0.23474915
0.016095497 -0.26431268 0.17515202 -0.15553613 0.017087441 -0.029900495 -0.031135982 0.05516906
-0.10610408 -0.26306653 -0.032200012 0.08930318 0.008562919 0.13107803 -0.2504465 -0.012662893
0.08165549 -0.03424532 0.23891343 0.076513 -0.23354955 0.14891471 -0.43347853 -0.04084829
-0.31612295 0.0331122 -0.030304665 0.2976904 -0.19525157 -0.056429125 -0.23260315 -0.06108481
-0.019876437 -0.0073958873 0.031451177 0.03665455 -0.23082972 0.18312293 -0.2058413 0.06086414
0.08377536 -0.048287705 0.025761096 0.021245407 -0.16358575 -0.26410648 -0.24110729 0.10799923
-0.154384 0.1354796 -0.23636198 0.059808496 -0.43085688 -0.069696374 -0.17266133 0.0110265585
0.0893494 0.1355752 -0.22216885 0.14212441 -0.25607 -0.20952195 0.04205156 -0.2996847
-0.083515175 0.00233611 -0.1494 -0.10457774 -0.19568977 -0.19183134 0.025529524 -0.10805693
-0.13869809 0.019404499 -0.299608 -0.24986681 -0.09895214 -0.060377955 0.15211064 -0.13655123
0.12227648 -0.14054073 0.19441369 -0.012572349 -0.008424986 -0.12942557 0.0583613 -0.04496532
0.10077588 -0.310268 0.19176362 -0.001653781 0.072255276 -0.37698394 -0.16178028 -0.024911901
0.03688216 -0.08203746 0.17374182 -0.29285103 -0.24814454 -0.044618364 0.077750415 -0.21703902
0.012806528 -0.1966624 -0.35812363 0.20148776 -0.16383237 0.048606195 0.08625091 0.1468466
-0.69179255 0.3695624 -0.30864927 0.029375136 -0.13312234 -0.0946364 -0.23068003 -0.20580564
-0.22439796 -0.042972866 -0.054241315 0.1391239 0.080768146 0.023109864 0.06939743 0.2324368
0.45225242 -0.5717719 0.15329696 -0.39482543 0.14426684 -0.085884124 0.10402198 0.0955535
-0.12160153 -0.31723037 -0.086823456 -0.22091888 0.08913611 -0.01767088 0.0994821 -0.05933939
-0.059239224 -0.12547849 -0.011174369 -0.106393956 0.18411869 -0.008585319 -0.15343922 -0.08091304
-0.09587573 -0.17983872 0.26845628 0.03846058 -0.018774724 0.18079805 -0.15235995 0.07547432
-0.059423313 0.032307465 -0.20358093 0.115110174 -0.18753298 0.11653044 -0.1054217 -0.056250058
0.1468863 -0.17928487 -0.1507319 0.04207052 -0.32054508 -0.047882296 0.07499612 -0.027794845
-0.050704215 0.025721122 0.09443574 -0.020657925 0.0054448172 0.097792216 -0.037614528 -0.16324443
00000000: e858 333e aa59 c73d e194 4dbe dfa3 0bbe
00000010: 0de3 71bd 08ea 05bd 3fd6 4dbe d37d 6cbe
00000020: 000b 19be ea97 9b3d f759 6f3d 13a3 4ebd
00000030: a597 993d a7ce 87be 521f 743d 1f94 eebd
00000040: 3637 9f3d 3382 b03c 7ae0 d23c eb36 1f3b
00000050: 548e ddbc 4d6a 23be 2760 193e 723e bebd
00000060: c156 b53d 5536 87be b6e5 e6bc 4751 6abe
00000070: 69ef 6f3d 35ee cdbc 3677 2fbe fdbc 0ebe
00000080: 5c23 9cbe 8e21 963d 2677 ed3d 7419 983d
00000090: fc68 8abd 98d3 6fbe 4be9 4bbd 8ccb 68be
000000a0: 3548 71bd ecfc 8cbd bc6f 37bd 7c94 58be
000000b0: 0a77 f43d 2bc0 54be 5770 99bc eeed 313e
000000c0: ca8d 7fbe c02d 8e3e 3032 7bbe 9aad 0b3d
000000d0: 4b3c 79bd effe 09be f09b dbbd 1d7c c6bd
000000e0: 088b 6ebc a49b 1a3e 5b4d 82be 10d3 a83d
000000f0: 3d0b a9be 4ef3 3fbe 52c8 d5be fd53 283e
00000100: 29ae 29be ecb1 373d ce3e 81be e190 9bbe
00000110: 6f50 e2bd 60d2 2e3d 4450 43bd 1562 703e
00000120: b4da 833c fe53 87be 0d5b 333e dd44 1fbe
00000130: f6fa 8b3c e2f1 f4bc e310 ffbc f4f8 613d
00000140: 194d d9bd a8b0 86be 29e4 03bd 96e4 b63d
00000150: 7c4b 0c3c 5239 063e 863a 80be 0678 4fbc
00000160: fe3a a73d d244 0cbd b9a5 743e d9b2 9c3d
00000170: 9d27 6fbe 197d 183e e6f0 ddbe 8950 27bd
00000180: deda a1be a9a0 073d 7d41 f8bc e06a 983e
00000190: 07f0 47be 3a22 67bd 852f 6ebe 1134 7abd
000001a0: e9d3 a2bc 3359 f2bb f3d2 003d 1523 163d
000001b0: a05e 6cbe 9484 3b3e 10c8 52be ad4c 793d
000001c0: 6a92 ab3d 54c9 45bd ef08 d33c d90a ae3c
000001d0: 0683 27be f738 87be d4e4 76be b32e dd3d
000001e0: d716 1ebe 2abb 0a3e e008 72be c1f9 743d
000001f0: 4699 dcbe f9bc 8ebd 22ce 30be bda8 343c
00000200: d1fc b63d 3ad4 0a3e 3b80 63be 1089 113e
00000210: 9b1b 83be ec8c 56be 423e 2c3d 4670 99be
00000220: 010a abbd 6c19 193b 50fc 18be db2c d6bd
00000230: e662 48be 6f6f 44be 4b23 d13c f44c ddbd
00000240: df06 0ebe 2ff6 9e3c 3866 99be 16dd 7fbe
00000250: 6ba7 cabd e04e 77bd e4c2 1b3e 16d4 0bbe
00000260: 176c fa3d e9e9 0fbe 6214 473e 41fc 4dbc
00000270: f408 0abc 2388 04be 420c 6f3d 8e2d 38bd
00000280: 9663 ce3d 73db 9ebe af5d 443e afc3 d8ba
00000290: 93fa 933d 0a04 c1be bba9 25be 0b14 ccbc
000002a0: bf11 173d 4103 a8bd 60e9 313e 92f0 95be
000002b0: 9a19 7ebe bfc1 36bd 9c3b 9f3d 7a3f 5ebe
000002c0: 79d2 513c de61 49be fb5b b7be cf52 4e3e
000002d0: acc3 27be 4a17 473d 51a4 b03d f55e 163e
000002e0: 5119 31bf 4837 bd3e 4707 9ebe 20a4 f03c
000002f0: 3951 08be bbd0 c1bd 6337 6cbe b7be 52be
00000300: 94c8 65be 5104 30bd 242c 5ebd 7f76 0e3e
00000310: c569 a53d e650 bd3c 3d20 8e3d ea03 6e3e
00000320: a18d e73e a55f 12bf e1f9 1c3e 8f26 cabe
00000330: b0ba 133e 04e4 afbd 7a09 d53d 8eb1 c33d
00000340: 390a f9bd 056c a2be 7fd0 b1bd 8f38 62be
00000350: fe8c b63d 85c2 90bc 45bd cb3d dc0d 73bd
00000360: d4a4 72bd 6f7d 00be b314 37bc 13e5 d9bd
00000370: 9c89 3c3e 70a9 0cbc 2c1f 1dbe bcb5 a5bd
00000380: 7f5a c4bd a427 38be 1a73 893e d788 1d3d
00000390: 73cd 99bc 2023 393e 3f04 1cbe 4892 9a3d
000003a0: dc65 73bd d554 043d 8577 50be e2be eb3d
000003b0: a508 40be 83a7 ee3d 55e7 d7bd 7666 66bd
000003c0: 5d69 163e 7496 37be 7759 1abe 2352 2c3d
000003d0: 7c1e a4be 3a20 44bd 9197 993d 04b2 e3bc
000003e0: 39af 4fbd 1ab5 d23c 8667 c13d cf3a a9bc
000003f0: 706a b23b 4947 c83d b111 1abd 8c29 27be

classifier.0.bias f4 [101]
0.73731756 0.8466275 -0.66074175 -0.7647229 -0.7965927 0.73808354 -0.76920235 -0.63044816
-0.6689606 0.78963 0.732565 -0.62829816 -0.69383997 -0.7423717 -0.760377 -0.6721565
-0.6432976 -0.69727534 0.9196708 -0.6865452 0.8443723 0.8671506 -0.72815484 0.82204014
-0.6977384 0.7950394 0.6152737 0.8894123 -0.6735485 -0.8186607 -0.67769283 0.87993354
0.7792237 -0.76634955 -0.7646573 -0.67422134 0.7945004 -0.81265444 0.8823728 -0.6128025
-0.72491735 -0.5730746 -0.63303494 0.83883613 0.92296 -0.61259466 -0.7382009 -0.7651785
-0.6286476 -0.682295 0.78605473 0.9565447 0.817198 0.93785965 -0.7734034 -0.7530835
-0.7355639 -0.77310085 0.8835679 -0.7307644 0.87305033 1.0213946 0.75185424 0.66616255
0.77237165 0.81056327 0.7825523 0.7532199 0.8517457 0.8333004 -0.6138008 -0.71855044
-0.7987788 -0.7462176 0.6359976 0.70034426 -0.81296813 -0.7351566 -0.7605868 0.78264844
0.81377506 0.86245465 0.7511848 0.9903314 -0.7268515 -0.5809172 0.9502345 -0.77199155
-0.67397577 0.8287485 0.8561003 -0.79866207 0.7130056 0.8300067 -0.71347225 -0.69293296
0.9189825 0.8407673 0.83827496 -0.685816 0.6319448
00000000: d8c0 3c3f 94bc 583f 5f26 29bf e1c4 43bf
00000010: 80ed 4bbf 0bf3 3c3f 72ea 44bf 0d65 21bf
00000020: 0041 2bbf 3125 4a3f 6189 3b3f 26d8 20bf
00000030: 7f9f 31bf 120c 3ebf 11a8 42bf 7312 2cbf
00000040: 27af 24bf a380 32bf 8c6f 6b3f 6dc1 2fbf
00000050: c828 583f 95fd 5d3f 5b68 3abf 3971 523f
00000060: fc9e 32bf b487 4b3f 9482 1d3f 86b0 633f
00000070: ad6d 2cbf bf93 51bf 477d 2dbf 5343 613f
00000080: 347b 473f 7c2f 44bf 95c0 43bf c599 2cbf
00000090: 6164 4b3f 1f0a 50bf 2fe3 613f a0e0 1cbf
000000a0: 2f94 39bf 04b5 12bf 940e 22bf f7bd 563f
000000b0: 1b47 6c3f 01d3 1cbf bcfa 3cbf bde2 43bf
000000c0: 0def 20bf e3aa 2ebf e23a 493f 1de0 743f
000000d0: e333 513f 9217 703f c4fd 45bf 15ca 40bf
000000e0: ea4d 3cbf f0e9 45bf 8231 623f 6013 3bbf
000000f0: 3a80 5f3f 0fbd 823f 8579 403f a189 2a3f
00000100: 26ba 453f 1381 4f3f 5955 483f 05d3 403f
00000110: 020c 5a3f 2d53 553f 0d22 1dbf ecf2 37bf
00000120: c47c 4cbf 1e08 3fbf bdd0 223f c349 333f
00000130: ae1e 50bf 3933 3cbf d1b5 42bf a65b 483f
00000140: 9053 503f d4c9 5c3f a64d 403f 5c86 7d3f
00000150: f112 3abf fdb6 14bf 9142 733f 3da1 45bf
00000160: ad89 2cbf dd28 543f 6429 5b3f 1e75 4cbf
00000170: 8987 363f 527b 543f 1ea6 36bf 0e64 31bf
00000180: 7042 6b3f 873c 573f 3099 563f a391 2fbf
00000190: 22c7 213f

classifier.2.weight f4 [2, 101]
0.9186107 0.96472085 -1.4652516 -1.5707502 -1.9235356 0.8744607 -1.3551626 -1.0002265
-1.657394 0.715442 1.1266605 -1.0223826 -1.6785837 -1.9928232 -1.141445 -1.2145905
-1.0828854 -1.7799675 0.6786814 -1.1523654 0.6722193 0.9342982 -1.4202226 0.86337674
-1.3595201 1.0038286 0.93516797 0.92121184 -1.8947344 -1.6059958 -1.45619 1.1086053
0.56799144 -1.8774449 -1.8019058 -1.3875834 0.7465674 -1.3319424 1.0338211 -1.2597781
-1.1440574 -1.1152246 -0.90227973 0.7586049 0.9126512 -2.1134865 -1.4111731 -1.5509369
-1.5327047 -1.353895 0.77244574 0.98288435 0.8197153 0.79014796 -1.1199071 -1.437672
-1.2698456 -2.03284 0.7623698 -1.413147 1.0190365 1.0913229 0.83944196 0.9770074
0.91735005 0.83675945 1.0202793 1.0087253 0.8497087 0.7734192 -1.4997742 -1.7064428
-1.4649619 -1.7530507 1.0363826 0.803974 -1.9838536 -1.3690088 -1.6744064 1.0671905
0.75535685 0.93301 0.8579667 1.033601 -1.4174855 -1.241906 1.1116 -1.4600942
-1.22087 0.81595296 0.8563562 -1.4513962 0.81512123 0.7742079 -1.0624341 -1.5511819
0.72854286 1.0501122 0.57186514 -1.1007532 0.81191295 -0.8092858 -0.9689868 1.4749376
1.535489 1.8268383 -0.9391809 1.2305795 1.1524726 1.6516875 -0.66116256 -1.0323564
1.099368 1.6791152 2.117324 1.2131861 1.3139495 1.1673459 1.6715697 -0.5884074
1.3132104 -0.8305948 -0.861111 1.3682051 -0.84603333 1.4870887 -0.99807024 -1.0211568
-0.9419917 1.877663 1.7297525 1.4397286 -1.036633 -0.71084327 1.8896577 1.8907001
1.3800246 -0.85448486 1.3572296 -0.8606427 1.2134205 1.1401824 1.1319457 0.9934451
-0.9017949 -0.77919686 1.9734249 1.5176054 1.5537884 1.4216791 1.3265574 -0.77966815
-0.9647293 -0.92158514 -0.9444651 1.1225867 1.3723941 1.3579494 2.0293274 -0.72990596
1.4149508 -1.0491618 -1.0822388 -0.7640322 -1.0270746 -0.9112354 -0.84692323 -0.97539705
-0.92860764 -0.79829866 -0.86929154 1.4936819 1.6642531 1.5974073 1.7987106 -1.1085695
-0.73526347 2.1062415 1.3139215 1.7966175 -0.912413 -0.83738536 -0.8375915 -0.84243375
-1.0012337 1.43798 1.2339199 -1.0846188 1.4746977 1.2588158 -0.8860788 -0.8552853
1.4138608 -0.9472101 -0.81565493 1.0281373 1.5893582 -0.85754144 -1.0422581 -0.6267614
1.0310501 -0.7444851
00000000: 122a 6b3f f2f7 763f 5d8d bbbf 580e c9bf
00000010: 6a36 f6bf a8dc 5f3f f875 adbf 6c07 80bf
00000020: 7d25 d4bf 3527 373f 6936 903f 6fdd 82bf
00000030: d5db d6bf d514 ffbf df1a 92bf b477 9bbf
00000040: fd9b 8abf fad5 e3bf 10be 2d3f b680 93bf
00000050: 9016 2c3f 2b2e 6f3f dbc9 b5bf 4206 5d3f
00000060: c104 aebf 757d 803f 2b67 6f3f 8ad4 6b3f
00000070: a886 f2bf 4591 cdbf 6f64 babf c7e6 8d3f
00000080: e367 113f 1d50 f0bf d9a4 e6bf 559c b1bf
00000090: 0b1f 3f3f 177d aabf 4054 843f 6940 a1bf
000000a0: 7970 92bf aebf 8ebf cefb 66bf ee33 423f
000000b0: 82a3 693f 5d43 07c0 52a1 b4bf 1a85 c6bf
000000c0: ab2f c4bf 6e4c adbf 01bf 453f 4f9e 7b3f
000000d0: ddd8 513f 2347 4a3f 1e59 8fbf a305 b8bf
000000e0: 4d8a a2bf 0d1a 02c0 ab2a 433f 00e2 b4bf
000000f0: ca6f 823f 78b0 8b3f abe5 563f 281d 7a3f
00000100: 74d7 6a3f de35 563f 8398 823f e91d 813f
00000110: 8286 593f cdfe 453f 9af8 bfbf b86c dabf
00000120: df83 bbbf f763 e0bf 2fa8 843f 3dd1 4d3f
00000130: eaee fdbf ae3b afbf f352 d6bf b399 883f
00000140: 115f 413f bed9 6e3f b5a3 5b3f 0a4d 843f
00000150: 2a70 b5bf c7f6 9ebf e948 8e3f 5ee4 babf
00000160: 7845 9cbf 4be2 503f 293a 5b3f 5ac7 b9bf
00000170: c9ab 503f 7d32 463f d7fd 87bf 218d c6bf
00000180: c981 3a3f 146a 863f c165 123f 7be5 8cbf
00000190: 87d9 4f3f 5b2d 4fbf 850f 78bf c1ca bc3f
000001a0: e78a c43f d6d5 e93f 296e 70bf a183 9d3f
000001b0: 3984 933f 7f6a d33f f341 29bf 4124 84bf
000001c0: 17b8 8c3f 3fed d63f 3d82 0740 af49 9b3f
000001d0: 7f2f a83f 976b 953f fff5 d53f dea1 16bf
000001e0: 4717 a83f dca1 54bf c571 5cbf 5821 af3f
000001f0: a495 58bf ec58 be3f 8881 7fbf 44b5 82bf
00000200: 5e26 71bf 4357 f03f 8868 dd3f 0749 b83f
00000210: 64b0 84bf d3f9 35bf 4ee0 f13f 7602 f23f
00000220: a5a4 b03f 85bf 5abf b3b9 ad3f 1453 5cbf
00000230: 5d51 9b3f 7ff1 913f 99e3 903f 6b52 7e3f
00000240: 08dc 66bf 7279 47bf 3099 fc3f e540 c23f
00000250: 8ae2 c63f 95f9 b53f a2cc a93f 5598 47bf
00000260: 80f8 76bf 01ed 6bbf 77c8 71bf ecb0 8f3f
00000270: 9caa af3f 49d1 ad3f 80e0 0140 1edb 3abf
00000280: 1c1d b53f ef4a 86bf cd86 8abf 9d97 43bf
00000290: 2e77 83bf b946 69bf f6cf 58bf 9fb3 79bf
000002a0: 3bb9 6dbf 4d5d 4cbf e489 5ebf f830 bf3f
000002b0: 3f06 d53f d877 cc3f 263c e63f 9be5 8dbf
000002c0: 3a3a 3cbf a9cc 0640 942e a83f 90f7 e53f
000002d0: e693 69bf e35e 56bf 666c 56bf bda9 57bf
000002e0: 6d28 80bf bb0f b83f 16f1 9d3f cad4 8abf
000002f0: e5c2 bc3f e020 a13f 0fd6 62bf faf3 5abf
00000300: 64f9 b43f 5c7c 72bf c3ce 50bf 019a 833f
00000310: 1770 cb3f d687 5bbf b768 85bf 6f73 20bf
00000320: 73f9 833f 9396 3ebf

classifier.2.bias f4 [2]
0.6357912 -0.75772464
00000000: 36c3 223f 3efa 41bf
