Trained_Models_CLODC/0/ConvAutoencoder_200.pth (torch, 494751 bytes, 17 tensors)

encoder.0.weight f4 [4, 8, 3]
000000 9c fd 5c be 36 72 d0 3d 4b 16 62 3d 9a 88 a4 3d
       -0.2158112 0.10178034 0.05519704 0.08033867
000010 29 c1 0d be b5 d3 25 bd 92 e8 0a 3d 47 f7 c9 3d
       -0.13843216 -0.040485103 0.033913203 0.098616175
000020 bb 0a 1a 3d a0 23 d9 bc a3 aa 6e bd 0b 12 0c bd
       0.03760789 -0.026506245 -0.0582682 -0.034196895
000030 a4 59 e6 3d ca cd 60 be a4 ba 64 3e 4e ef 0b 3e
       0.11247566 -0.21953502 0.22336823 0.13665506
000040 13 e7 10 3d 87 52 0a 3d 29 45 a0 3d ea 83 e4 bd
       0.03537662 0.03377011 0.07825691 -0.11157973
000050 15 70 e4 bc 78 7f 03 be d9 73 7b bd f0 ba 78 3e
       -0.027885476 -0.12841594 -0.061389778 0.24290061
000060 06 04 00 be 0b 87 31 bd 36 cf 04 be bc 78 6f 3d
       -0.12501535 -0.043341678 -0.1296967 0.05846475
000070 db 20 80 3d 97 ef 86 bd 64 80 8e bd 9d 0f 43 3e
       0.06256267 -0.06588667 -0.06958082 0.19048925
000080 08 0c 1d be 8f 29 dc bc a8 ec 38 3b ce 9a 72 3d
       -0.15336621 -0.026875285 0.002821723 0.059229665
000090 a5 ba dd 3d 24 e0 c6 3c 9b 2f 12 3e 26 7a 2a 3e
       0.10826615 0.0242768 0.14275973 0.16648158
0000a0 1d cf 52 3e 4a 1d 84 bd a3 70 34 3e 8f a3 59 3d
       0.2058682 -0.06450899 0.17621092 0.053134497
0000b0 3f e0 3d bc 1c fd 50 ba 93 17 5f 3e 1a 5b 63 be
       -0.011589109 -0.00079722865 0.21786337 -0.22202721
0000c0 62 dd 28 3d 18 e0 20 bc 1c 71 45 3e 17 05 01 3e
       0.041226752 -0.009819053 0.19281429 0.12599598
0000d0 fd db 71 be 31 fd ea bd fd bd 1f 3e c8 88 f1 bd
       -0.23619075 -0.11474074 0.15599819 -0.11793667
0000e0 92 d0 ee 3d d9 64 b4 3c 91 ec fa bd 82 af df 3e
       0.116608754 0.022020744 -0.12252153 0.4368859
0000f0 d1 4b f4 bd 7b 83 21 be 04 55 ce 3d a6 cd da bd
       -0.11928523 -0.15772812 0.10074809 -0.106837556
000100 59 34 f1 bb 43 6a f8 3d 31 5d 09 be 70 e6 36 be
       -0.0073609767 0.12129643 -0.13414456 -0.17861342
000110 2a 0b 8c ba 97 53 b6 3d 65 82 43 be 26 f3 11 3e
       -0.001068448 0.08902662 -0.1909271 0.1425291
000120 dc f9 dc 3d 2f 74 20 3e 86 b5 ca 3d ec f0 e6 bc
       0.107898444 0.1566932 0.09897904 -0.028191052
000130 27 22 10 be 52 0b a9 bd 25 15 e0 bd d1 6f 2f be
       -0.14075528 -0.08254112 -0.10941533 -0.17132498
000140 d0 50 36 3e d6 a2 3a b8 2a 98 91 be a9 0c e6 3c
       0.17804265 -4.449751e-05 -0.28436404 0.028082209
000150 2c 09 36 3d c8 b0 05 be 17 96 ab 3d f1 bc 11 be
       0.04444234 -0.13055718 0.08378237 -0.14232232
000160 4f f5 ba 3d 38 b7 8e bd df 4b 1f 3e 87 a6 ae 3d
       0.0912882 -0.0696854 0.15556286 0.08527856
000170 55 e9 5d 3e 42 c6 27 bd 04 bf 22 3d 0c 8e d9 bd
       0.2167104 -0.040960558 0.039732948 -0.106227964

encoder.0.bias f4 [4]
000000 fb 38 d8 bd 8d cd 03 be cd 39 ae be a4 59 24 be
       -0.10557743 -0.1287138 -0.34028473 -0.1604982

encoder.2.weight f4 [1, 4, 3]
000000 47 c0 4b 3e 21 d4 87 be 87 14 7f 3e b2 fb 65 bd
       0.19897567 -0.2652903 0.24910174 -0.05614824
000010 d1 8c 9a 3e 6c ae f7 bd 5e 60 d6 bd 1d 29 6a bf
       0.3018556 -0.12093815 -0.10467599 -0.91468984
000020 49 f7 5b be de db f4 bc f8 53 9f be 72 85 d1 3d
       -0.2148105 -0.029889997 -0.3111875 0.10230531

decoder.0.weight f4 [1, 4, 3]
000000 4a d9 a7 3e 25 2a 3b bf dc 20 19 3f c8 d9 95 3e
       0.32782966 -0.7311118 0.59815764 0.29267716
000010 32 16 bd be f7 19 d5 3e 94 30 2f 3e 65 40 38 3f
       -0.36930996 0.41621372 0.17108375 0.7197326
000020 0d 4b 57 bf 6c 60 8c 3e d3 b2 f5 be f2 a0 27 3f
       -0.84098893 0.27417314 -0.47987995 0.6547996

decoder.0.bias f4 [4]
000000 55 3c 15 3f 58 9e c8 3e bf 90 3a 3f 0d dd fc 3e
       0.58295184 0.39183307 0.72877115 0.49387398

decoder.2.weight f4 [4, 8, 3]
000000 33 94 a1 3c 34 6c 08 be 0d 63 ae 3e 95 66 0e 3e
       0.019723987 -0.13322526 0.34059945 0.1390632
000010 e2 09 d9 be 4a 17 a3 3e be e0 ad 3d ac 73 8b be
       -0.42390352 0.31853706 0.08490132 -0.27236688
000020 ea 8f d9 3e 71 94 c5 3d 03 e5 01 bf 31 e2 c2 3e
       0.4249261 0.096474536 -0.5074007 0.38063195
000030 f6 9f c7 3d 7d 55 92 bb 67 a6 57 3d de aa a4 3e
       0.09747307 -0.0044657574 0.052648928 0.3216161
000040 93 7b 73 be fd 53 ab 3e ca d1 f9 3d db 76 9b be
       -0.23777609 0.33462515 0.12198217 -0.30364117
000050 73 d0 c4 3e ae 48 bc 3e a8 22 0f bf 1f 11 78 3e
       0.38440284 0.367742 -0.55912256 0.24225281
000060 d5 da 94 3e 33 4f cc bd 1e e4 8f 3d 33 7c af 3e
       0.29073206 -0.099760436 0.07025932 0.34274444
000070 b9 f0 4a be 85 e3 c5 3e 91 48 af 3e bb fa df be
       -0.19818391 0.38650146 0.3423505 -0.4374598
000080 cb 9c db 3e 72 9d a8 3e 4b 87 21 bf 83 08 b4 3e
       0.4289306 0.3293262 -0.63097066 0.35162744
000090 d1 e6 6d 3e b9 81 14 be bb 49 52 3e 18 db 3b 3e
       0.2323258 -0.1450261 0.20535938 0.18345296
0000a0 bf d3 c6 be c7 17 c3 3e 2f 4c eb 3e 98 ee 7a be
       -0.38833424 0.38104078 0.4595656 -0.24505079
0000b0 0f 06 af 3e df 7c 62 3e 46 9f ca be cf 3d f4 3e
       0.3418431 0.22117947 -0.3957464 0.47703406
0000c0 cb 9c 82 be 4f 3d 0f 3e a4 5f a8 be f1 75 ce be
       -0.2551025 0.13988231 -0.32885468 -0.40324357
0000d0 4f 1d ec 3e bc 26 ed be ed d0 ff be bc ea 31 3f
       0.4611611 -0.46318614 -0.49964085 0.694988
0000e0 01 26 19 bf df 67 10 bf 11 21 0c 3f 81 76 24 bf
       -0.59823614 -0.56408495 0.54737955 -0.6424332
0000f0 97 f3 5d be 9c ea 29 3e bd 93 94 be 79 1b ce be
       -0.21674953 0.16593403 -0.29018965 -0.40255335
000100 a8 f3 e0 3e 38 65 f1 be eb 96 07 bf e9 32 16 3f
       0.43935895 -0.47147536 -0.5296466 0.5867143
000110 17 7e 20 bf ab 05 13 bf e6 23 4b 3f a2 1b 1f bf
       -0.626924 -0.57430524 0.7935165 -0.6215154
000120 4b 9a 94 3d 56 08 fc bc d0 5f b2 3d 14 08 9d 3d
       0.072559915 -0.030765694 0.08709681 0.076675564
000130 47 e1 a5 bd ed 9b 16 3e e2 45 8e 3e 2d 0b 97 be
       -0.08099609 0.14707918 0.2778769 -0.29500714
000140 55 2c 7c 3e e4 7b b6 3e 72 4b e3 be 66 e6 05 3f
       0.24626286 0.35641396 -0.44393498 0.52304685
000150 c9 a2 4b bc 39 e6 96 be 21 e1 8a 3e 60 52 ce 39
       -0.012428948 -0.2947252 0.27124885 0.00039352756
000160 d5 83 23 be 32 87 12 3e 8c 67 40 3e 24 dc ce be
       -0.15968259 0.14309385 0.187895 -0.4040233
000170 dd dd ca 3e c5 93 0a 3e d5 f8 a0 be 9a 38 04 3f
       0.39622393 0.13532932 -0.31439844 0.5164887

decoder.2.bias f4 [8]
000000 06 ac 9d 3c 38 00 36 bc 94 bc ca bd ca 8f 84 3e
       0.019247066 -0.011108451 -0.0989925 0.25890952
000010 0d 97 81 3d 2f ab 0e 3c 80 f5 a1 bc e2 5b e8 bc
       0.06327639 0.008707806 -0.019770384 -0.028364126

mapping.weight f4 [400, 199]
000000 a8 01 75 39 36 4f 67 b9 b7 c0 90 3a 82 cd 9e 3b
       0.00023365638 -0.00022059385 0.0011043762 0.004846276
000010 13 cf 3b 3b 5a 85 8e ba 81 14 2f ba ab 5a 33 3b
       0.0028657361 -0.0010873482 -0.00066787755 0.0027367275
000020 87 16 95 3b c3 7e 68 3a 2a 07 52 bb 1c 2c dd 3a
       0.0045498046 0.00088689866 -0.0032047727 0.0016874108
000030 27 2c af 3b 9c c4 b9 b9 a4 d4 bd ba 5e bb 06 3b
       0.0053458395 -0.00035432435 -0.0014482928 0.0020558457
000040 9a ce c5 b9 8f 43 e8 3a db f2 0a 3c 88 b5 14 3b
       -0.00037728698 0.0017720329 0.008480753 0.002269121
000050 f9 af bc bb 29 8e a4 3a cb c3 35 3c ec 5c 21 3c
       -0.0057582823 0.0012554574 0.011094044 0.009848814
000060 af 93 70 3b aa 94 f8 3a 9b a7 4a 3b 27 2d a3 3b
       0.003670912 0.0018965204 0.0030922655 0.004979748
000070 a3 34 c2 3b be 63 80 3a f1 a3 4f bb 6a 5e 84 3b
       0.005926685 0.000979535 -0.003168341 0.0040395753
000080 0c 80 19 3c b2 0e 3a bb 5a 2f 41 bc d6 9e c0 39
       0.009368908 -0.0028390107 -0.011791075 0.00036739436
000090 61 5b e7 3b 3c 1f 97 b9 30 c1 ca b9 83 d7 10 bb
       0.0070604538 -0.00028824236 -0.00038672378 -0.0022101111
0000a0 cc fa e5 bb 89 35 42 bb 15 77 25 ba 76 d5 ef 3b
       -0.0070184227 -0.002963396 -0.0006311995 0.0073191477
0000b0 1c a9 4a 3c a7 c2 39 ba 73 0d 8a ba 98 d5 ad 3b
       0.01236942 -0.00070861954 -0.0010532573 0.0053050034
0000c0 9c 2d 01 3c 1b 47 72 3c f8 49 d9 bb 40 d7 81 bc
       0.007884409 0.014787461 -0.006631132 -0.01584971
0000d0 69 e6 44 3c 77 0e 25 bc a1 88 2a bd c5 5c 49 bc
       0.012017825 -0.0100742495 -0.041634206 -0.012290184
0000e0 b5 5f 02 3b 5e d6 26 bb ea df 12 3c 21 14 70 bb
       0.0019893472 -0.0025457363 0.008964518 -0.0036633092
0000f0 af 90 fc bb d3 ef 11 3c 11 f2 b7 3a b7 32 95 3c
       -0.0077076773 0.008907276 0.0014033933 0.01821266
000100 7e e0 35 3d 11 82 d2 3c 37 4b a1 3c 79 5c b9 3c
       0.044403546 0.025696786 0.019689186 0.022627102
000110 04 f6 88 3b 6d 2f 1e 3b 55 a2 34 3c 0b 00 59 3c
       0.004179718 0.0024137155 0.011025031 0.013244639
000120 b5 53 3f 3c 4e 46 07 3c a4 93 4e 3c 6f ec aa 3b
       0.011677672 0.008256508 0.012608442 0.0052161734
000130 e3 1b 16 bc bf 5e 84 ba 77 eb e9 3b 4d 7b 9f b8
       -0.009161922 -0.0010099037 0.0071386653 -7.6046774e-05
000140 49 76 b7 bb 2c d0 94 bb d9 3a 8b 3b 3f b1 ce 3b
       -0.0055988175 -0.0045414176 0.0042489585 0.0063077505
000150 c6 a2 0d bc b8 8d 24 bc b2 ce 26 3c 38 7b 73 3c
       -0.008644765 -0.010043554 0.010181116 0.014860921
000160 f7 cf 05 ba 63 e5 6f bb 37 8d 93 3b 1c 37 6a 3b
       -0.00051045365 -0.003660523 0.004502918 0.0035738414
000170 28 fd 6f b9 3d d8 65 3b 2a 56 ec 3b 6e f3 26 3b
       -0.00022887124 0.0035071515 0.00721242 0.0025474685
000180 6f 29 4c bb 99 7f 43 3a 07 f2 dd 3b be 77 8c 3b
       -0.0031152626 0.0007457673 0.0067732367 0.0042867353
000190 46 e3 e3 ba 6c e3 eb b9 07 25 f0 3b 32 2e dd 3b
       -0.0017386458 -0.00044992135 0.0073286328 0.0067498917
0001a0 64 a9 0f bb 62 05 24 bb 46 49 6d 3b 00 42 69 3b
       -0.0021921033 -0.0025027622 0.0036207004 0.0035592318
0001b0 b3 bf bb 3a c3 18 0b b6 f1 64 80 bb 81 05 3c bb
       0.0014324099 -2.0727027e-06 -0.003918283 -0.0028689804
0001c0 14 1d bf 38 32 37 88 bb ca 57 a8 bb bb 3e c6 bb
       9.113006e-05 -0.0041569704 -0.0051374184 -0.0060499585
0001d0 57 3f 70 bc 6d e5 e3 bb 0c c4 86 3c ea b8 36 3c
       -0.014663539 -0.00695484 0.016450904 0.011152485
0001e0 4d bb b7 bc d6 d2 9d bc d2 8b 70 3c 39 af 92 3b
       -0.02242818 -0.019265573 0.014681773 0.0044764546
0001f0 94 6e 3b bc 85 80 1d 3c 4c 45 29 3b 50 8b 2f bc
       -0.011439938 0.009613161 0.0025828658 -0.010714367
000200 48 59 37 3c 40 7c 28 3c fd 6b ce bb ab da 9a 3b
       0.01119072 0.01028353 -0.0062994943 0.0047257743
000210 e2 94 1f 3c cf da d9 bb 48 17 31 bc f7 2e d6 3b
       0.009740086 -0.0066483985 -0.010808773 0.0065363604
000220 b2 89 7e 3c a7 4a 69 3b bd b9 c2 ba dc ab 5e 3b
       0.015535759 0.0035597475 -0.001485638 0.0033976948
000230 e8 e1 0f b9 d2 9b be 3a 86 3b 14 3c be c2 8f 3b
       -0.000137217 0.0014542288 0.009047395 0.0043872287
000240 b6 b7 f1 ba d2 90 6c 3a 76 15 ab 3b 0d bd c9 3b
       -0.0018441591 0.00090242655 0.005221064 0.00615657
000250 81 96 64 3b 79 c4 c6 38 e2 72 d4 3a 44 4b f8 3b
       0.0034879746 9.4779716e-05 0.0016208554 0.0075773317
000260 37 06 ee 3b 65 29 88 3b 13 1c b8 3b a9 48 10 3b
       0.0072639245 0.0041553252 0.005618581 0.0022015965
000270 71 cd f0 ba a4 46 bd 3a b1 d3 e0 3a ea 67 dd ba
       -0.0018371773 0.0014440608 0.0017152933 -0.0016891931
000280 5f 2b dd 3b 3e 27 2c 3c c6 c5 87 bc aa 22 bd bc
       0.006749555 0.010507403 -0.016573798 -0.023087818
000290 26 1d 47 3c e7 65 37 3c 39 bd 30 bc 35 5b f7 3b
       0.012152946 0.011193729 -0.010787302 0.0075487145
0002a0 ec d3 4f 3c 24 ac e8 bb 01 0d 33 bb 35 a0 73 3b
       0.012684803 -0.007100599 -0.0027320983 0.0037174348
0002b0 00 e5 c9 3b 23 a8 83 3c f7 62 2d 3b 07 79 1e bc
       0.006161332 0.016071385 0.0026456693 -0.00967241
0002c0 1d 98 9b 3b 90 ef 97 3b 0d ff 8e 3b 92 e3 e2 3c
       0.004748358 0.0046367124 0.0043639005 0.027696405
0002d0 ce 1a df 3c e9 88 14 bb 3b e3 28 bc d4 88 20 3c
       0.027234461 -0.0022664613 -0.010308082 0.009798247
0002e0 e6 7e 8d 3c 2f 89 c4 3b f6 1a 4b 3b 2e dd 7c 3b
       0.017272424 0.005997799 0.0030991412 0.0038583982
0002f0 cf fe 41 3a ef 1f 01 3b 8b 23 56 3b be 7e 6a 3a
       0.0007400335 0.0019702872 0.0032674994 0.00089452777
000300 72 77 8c 39 2e 86 7e 3a 8a fc 80 3a 7c 08 8d 3a
       0.00026791875 0.00097093254 0.0009840888 0.0010759975
000310 f7 f9 85 3a 90 6e e1 38 c0 82 a5 b8 c4 90 a6 39
       0.001022159 0.0001074943 -7.892167e-05 0.00031769846
000320 61 c3 8f 3a 5a d0 9d b8 d0 39 8e 38 e0 65 4d 3b
       0.0010968262 -7.525152e-05 6.781856e-05 0.003134124
000330 1b 28 39 3b dc b2 e8 3a 68 7b e2 3a 3a 8c 0b bb
       0.0028252664 0.00177535 0.001727921 -0.0021293298
000340 c4 fc 9e 3a 73 95 17 3c e5 fe 43 bb 2a 15 03 bc
       0.0012129773 0.00925194 -0.0029906568 -0.008000651
000350 3f 73 a2 3c 8f 9f 4f 3c d6 6a c3 bc c4 58 ee bb
       0.019830344 0.012672319 -0.023854654 -0.0072737653
000360 9a 0a af 3c 49 fe 2a 3c 8e a8 36 bb f4 22 80 b9
       0.02136736 0.010436603 -0.0027871463 -0.00024440105
000370 54 8a 9d 3c 2e f0 04 3d ef 4c 23 3c 4a a4 96 bb
       0.019230999 0.032455616 0.009967073 -0.0045972215
000380 7b 9b 4b 3c cc 24 15 3c 01 fd 08 bc 22 39 3e 3c
       0.012427206 0.009103011 -0.008361102 0.011610301
000390 1b b6 a6 3c a2 1f 68 bc 22 0a 0a bc e8 1f 57 3c
       0.020350507 -0.014167698 -0.008425267 0.013130166
0003a0 10 ce 8a bc 86 85 42 bc a7 ac ce 3c cc 34 a6 3b
       -0.016943961 -0.011872655 0.025228811 0.005072212
0003b0 54 20 90 bc 5c 35 b4 bb 5e 71 69 3b 54 cb de 3b
       -0.01759354 -0.005499525 0.003562055 0.006799141
0003c0 4e 23 51 bb a2 5f 6b bc f2 8b a1 3a 0a 43 62 3c
       -0.0031911912 -0.014366062 0.0012325032 0.013809929
0003d0 8b 39 ad 3a 7e f1 0c bc 86 9f bf ba 6f 99 ff 3b
       0.0013216002 -0.008602498 -0.0014619685 0.007800273
0003e0 c0 2e fe 3a 47 5b f3 bb 04 46 49 bb 71 a0 75 3a
       0.0019392595 -0.0074266526 -0.0030711899 0.0009369916
0003f0 5c 7b 89 3b 5e d5 1f 3c 54 cc df 3a c6 30 d1 bb
       0.004195614 0.009755461 0.0017074444 -0.006383988

mapping.bias f4 [400]
000000 a1 b5 6c 3e 4d ec 01 3e 65 b5 1b 3c 0f 22 92 3e
       0.23116161 0.12687798 0.009503697 0.2854161
000010 04 0f ca 3e f6 d2 8c be 8d 3a 12 3e 20 08 f0 3e
       0.3946458 -0.275047 0.14280148 0.468812
000020 7c b9 9a 3e 12 c2 0a 3e 85 98 db be 34 6d 7f 3e
       0.30219638 0.13550594 -0.428898 0.24944001
000030 2e c5 c7 bd 49 a3 1e 3c 5f cc ac 3e c1 1f a4 3e
       -0.09754406 0.009682485 0.33749673 0.32055476
000040 b5 b8 88 3d 78 5b c8 be e5 96 4d 3e 97 0d f5 3e
       0.06675855 -0.39132285 0.20077093 0.4786193
000050 fd 2a 30 be 5f f8 77 be c5 5e 72 3e 3f 72 90 3c
       -0.17203899 -0.2421584 0.23668964 0.017632602
000060 cb dd 4c be 67 d6 9b 3e 3a b5 19 be c1 35 cb 3d
       -0.20006482 0.30437014 -0.15010539 0.09922362
000070 3f fe ab 3e 48 b7 b8 be f2 f5 92 be 9f dd 7a 3e
       0.33592412 -0.36077332 -0.28703266 0.24498604
000080 ac 5b a0 be a5 94 82 bc 79 31 96 be ba 51 f6 3d
       -0.3131994 -0.01594002 -0.2933462 0.12027307
000090 47 89 9a 3e a7 c0 92 be 27 02 d4 3e 52 af 90 3e
       0.3018286 -0.28662607 0.41407892 0.2825876
0000a0 06 c3 8a be d1 f6 36 bd b6 cb ad 3e 61 24 62 3e
       -0.27101916 -0.044668976 0.33944482 0.2208419
0000b0 d2 83 98 3e c2 3d 97 3e 8f ce c7 3e dd de 29 bd
       0.2978807 0.29539305 0.3902478 -0.041472305
0000c0 e4 59 7c be c2 48 d4 3c fa b3 99 3e a2 f2 5c be
       -0.24643666 0.0259136 0.30020124 -0.21576932
0000d0 df 43 8a 3e 5f 91 cc be 50 fb a1 be 11 ed be be
       0.27004907 -0.3995466 -0.3163705 -0.37290242
0000e0 ab 2f 4b be 97 31 85 3e 10 ee a3 3e 06 55 96 3e
       -0.19842403 0.26014397 0.32017565 0.29361743
0000f0 e0 c5 b2 3e 2b d2 9c bc 3b 81 c6 be af ba 38 be
       0.34916592 -0.019143185 -0.3877047 -0.18039964
000100 6c fa 1d 3e 8c 78 b8 3e 6e 0e 3d be 86 bf 54 be
       0.1542756 0.3602947 -0.18462536 -0.20776185
000110 c9 28 b7 be 2a 5e 37 3e e5 b5 dc bd 9e ab b0 3c
       -0.35773304 0.17907014 -0.10776881 0.021566208
000120 46 28 72 3d c5 c5 1b bd 67 3e c4 be bd 36 b0 bd
       0.05912044 -0.038030405 -0.3832886 -0.086041905
000130 68 cd a2 3e 46 a4 ca bd a1 44 3c 3e 68 ca cf be
       0.31797338 -0.09894614 0.18385555 -0.4058411
000140 65 71 80 3b 80 8e b3 3d 91 14 b1 bd 49 c7 7e be
       0.0039197677 0.08767414 -0.08646501 -0.24880709
000150 72 4f 15 bd c9 87 ca 3e 15 1c b4 be 05 0f 58 3e
       -0.036452718 0.3955672 -0.35177675 0.2109948
000160 bf 1e ad be a7 d3 6a 3e 5d 6c 9b 3e af 6a b4 3e
       -0.3381252 0.22932301 0.30356112 0.35237643
000170 c4 b7 7e 3e 80 ff 31 be c9 be 96 3e f9 5d bd be
       0.24874789 -0.17382622 0.29442433 -0.36985758
000180 f9 99 a0 3b b7 7b b6 bd 98 c6 d6 be e6 b4 61 be
       0.0049011675 -0.089103155 -0.4194839 -0.22041664
000190 ae 78 95 bd b5 98 54 bd 7f ac 3d 3e 2f 20 39 3e
       -0.072984084 -0.051903445 0.18522833 0.18078683
0001a0 91 db ce be 94 f3 b8 3e 1a 5f 20 be 07 b4 cc be
       -0.4040189 0.36123335 -0.15661278 -0.399811
0001b0 a4 32 db 3c 4d 43 c6 bd 22 e6 3d 3e a0 88 08 be
       0.026757546 -0.09680805 0.1854482 -0.13333368
0001c0 26 da a8 3d 59 0d 1d be 57 f2 79 be 0f 3d d0 3e
       0.082447335 -0.15337123 -0.24408852 0.40671584
0001d0 2f 59 cf be ac 78 98 be dd 5a 4a 3e 1d 42 c2 bd
       -0.4049773 -0.29779565 0.19761224 -0.09485266
0001e0 48 57 c7 bd 19 cf 05 be 96 c8 ac 3d 96 83 09 3e
       -0.097334445 -0.13067283 0.08436696 0.13429102
0001f0 20 5c 56 3e d1 4a 4d 3e 74 b4 2f 3e 8a f7 26 3e
       0.2093358 0.20048071 0.17158681 0.16305366
000200 9c d6 88 3e 57 cf b2 3c b4 b6 e3 bd b7 60 60 3e
       0.26726234 0.021827383 -0.11118832 0.21911894
000210 b4 d9 ec bd 7f 1a a5 3e 75 57 e6 3d 28 24 ae 3e
       -0.11564961 0.32246777 0.1124715 0.3401196
000220 cb b2 92 3e 9c a8 07 be 3f b2 a0 3e 89 f6 c5 3e
       0.28652033 -0.13247913 0.3138599 0.38664654
000230 94 dd 8e 3e 38 d6 6f 3e b5 73 7b be 0e 2f 86 be
       0.27903426 0.23421562 -0.24555857 -0.26207775
000240 bb 80 95 3d 30 0f b3 3d 08 62 b7 3e 40 30 ee 3e
       0.07299944 0.08743131 0.3581698 0.46521187
000250 dc 84 aa be 7f 59 6f 3e 62 f0 be bc 08 d7 cb 3e
       -0.3330449 0.23373984 -0.023307983 0.39812493
000260 bb 8b 70 3d 28 e9 cf be 5f ef 8b 3e aa 05 75 be
       0.058727007 -0.40607572 0.27331063 -0.23927942
000270 47 00 46 bd e2 56 61 3e 3f 8f c7 3e f9 fd ba be
       -0.04834011 0.220058 0.38976476 -0.3652189
000280 2b 6a 36 3e cd 78 fa bd 18 74 bf 3e c3 7b 14 bb
       0.17813937 -0.12230072 0.3739326 -0.0022656776
000290 76 2a 8f be b8 80 30 be f0 3d a7 be b8 76 a4 be
       -0.27962083 -0.17236602 -0.32664442 -0.32121825
0002a0 42 09 23 be 59 42 c2 3d 7f 83 45 be 64 09 af be
       -0.159215 0.09485311 -0.19288443 -0.34186852
0002b0 dd ac 33 be 09 ef 7e be 09 8b 8b 3d 36 fe ac bd
       -0.17546411 -0.24895872 0.06813628 -0.084469244
0002c0 ba d1 a9 3e 33 34 07 be 94 c9 8c bd f1 54 b7 bb
       0.3316782 -0.13203506 -0.068743855 -0.0055948426
0002d0 fd 05 95 3e bb 28 3b be 85 e1 8c be 0c e4 44 be
       0.2910613 -0.18277256 -0.27515808 -0.19227618
0002e0 37 4e 51 be 32 96 ac be b1 6c 8c 3e 55 34 c5 be
       -0.20439993 -0.3370834 0.27426675 -0.3851649
0002f0 df d5 6a 3d bf 7c fe 3d d2 d2 87 be 6b 47 97 be
       0.05733287 0.12426137 -0.2652803 -0.29546675
000300 37 4c cb bd e4 4c 93 3e 12 bc 22 be 63 7e 80 be
       -0.09926646 0.287696 -0.15892056 -0.25096425
000310 23 82 4f 3e 14 90 19 3e a8 5e 8f 3e 9b 0b ae 3e
       0.20264487 0.14996368 0.28001904 0.3399323
000320 45 45 ae 3d a8 32 18 be 50 a5 6e 3d f4 d0 78 be
       0.08509306 -0.14863074 0.058263123 -0.2429846
000330 3a 96 70 3e 66 b4 7a be 92 76 c7 be 4a ce 8f 3e
       0.23494807 -0.24482879 -0.3895765 0.28087074
000340 5e b2 9a be 0a ab ef bd 24 f7 3d 3e 12 f8 c5 be
       -0.30214208 -0.11702545 0.18551308 -0.38665825
000350 66 70 03 3e ba 5c 4c 3d 62 7d 7a be fb f9 c4 be
       0.12835845 0.04989312 -0.24461892 -0.3847197
000360 82 29 41 3d 78 87 33 bd 91 d3 0b 3e b2 14 3c be
       0.047158726 -0.043830365 0.13654925 -0.1836727
000370 55 b2 74 3d a5 40 82 3e 05 a8 b4 3d b5 68 a0 be
       0.059740383 0.25439945 0.0882111 -0.31329885
000380 ef 64 94 3e e7 79 05 bd 22 e7 75 be 7e 3b b5 3e
       0.28983256 -0.03258696 -0.24013951 0.3539695
000390 a6 3c 1c bd d1 03 74 be 64 3b d3 3d dd db 94 3e
       -0.038143776 -0.23829581 0.10314062 0.29073992
0003a0 1c ac 9b 3e a6 2f 95 be f3 40 98 be 5c bd 95 3e
       0.30404747 -0.29137915 -0.29737052 0.29246032
0003b0 ea 70 4e be 3a 9e d7 be 1f f6 cd be 2f 77 60 3e
       -0.20160261 -0.42112905 -0.40226838 0.21920465
0003c0 1b 2b bb be 92 8f a6 bd e0 3c 34 bd 63 b6 a6 be
       -0.36556324 -0.081328526 -0.044003367 -0.32561025
0003d0 06 f0 f3 3d 81 4f 96 3e 3a 42 8c 3c 79 0e 99 be
       0.11911015 0.29357532 0.017121423 -0.29893854
0003e0 fc 97 b9 3d 44 28 4d 3e a6 05 5a be 8d 56 a7 3e
       0.09062192 0.20034891 -0.21291217 0.3268322
0003f0 31 fe 4f 3e 0d 6d b7 3d 1a 4a 5e be d8 79 b0 3d
       0.2031181 0.08956347 -0.21707955 0.0861699

predictor.0.weight f4 [104, 199]
000000 f1 b2 e6 bc 14 af ec 3c 98 a7 32 bd f5 c6 38 3c
       -0.028161498 0.028892078 -0.04361686 0.011277904
000010 c6 9a 35 3d 8d 69 4f 3c cb 53 ee bc 70 69 ab bb
       0.044337057 0.012659443 -0.02909269 -0.005231075
000020 d5 fb b6 bc f0 2f a9 bc d0 d8 85 3c 29 fd 24 3d
       -0.02233688 -0.020652741 0.016338736 0.040280495
000030 54 a0 25 3d 76 2f ca 3c 34 77 85 bb e9 d7 4f 3b
       0.040436104 0.024680834 -0.004073048 0.0031714386
000040 d1 73 ba bb d6 d8 de 3c 96 6d a9 3c 0d 48 11 3d
       -0.005690076 0.027203005 0.020682137 0.035469104
000050 9d ee 9a 3b e4 7f 24 bd 46 b9 51 3d 95 c6 1c 3c
       0.004728152 -0.04016103 0.05120208 0.00956883
000060 b7 05 84 3d 55 4c a5 3d b5 8d 77 3d cc 70 6b bc
       0.064464025 0.080712 0.060437877 -0.014370155
000070 67 2f 5b 3c 57 b6 75 3d af 4a a0 3d 22 91 8e bc
       0.013378001 0.059988346 0.07826745 -0.01740319
000080 dd f7 3f 3d 20 2c aa 3d 22 be 86 3d ec fe 02 bd
       0.04686724 0.083091974 0.06579234 -0.031981394
000090 97 ec 53 3d 0f 37 5d 3d 41 b6 95 3d bc 2f c5 3d
       0.0517393 0.054007586 0.07310153 0.09628245
0000a0 32 0c 08 3c 2e f9 3e 3b 2a 29 7c 3d 84 b8 f3 3c
       0.008303689 0.0029140222 0.061562695 0.02975107
0000b0 ba fc a9 bc 78 7d 96 3d 5b ad 9d 3b 32 67 38 bd
       -0.020750392 0.0734815 0.0048119253 -0.04502029
0000c0 d3 38 5d 3d 9c a0 5c bc 78 ec 06 3d a7 4c 95 3d
       0.05400927 -0.013466027 0.032940358 0.07290011
0000d0 36 6b bc bc 86 ae 47 bc d9 4b 90 3c 41 05 ea bc
       -0.02300034 -0.012187606 0.017614292 -0.028566958
0000e0 d9 2c 5b bc b1 5c d3 3c c6 04 cb bc c1 48 42 3c
       -0.013377392 0.025801035 -0.02478255 0.011858166
0000f0 a7 b3 af 3d d6 53 ce 3d a5 b3 1b 3b 6c ba 42 3c
       0.08579188 0.10074584 0.00237582 0.011885267
000100 cd 1b a2 3d f6 9c 2a 3d 4c 6e a9 38 2d c8 b4 3d
       0.07915459 0.041653596 8.0790924e-05 0.08827243
000110 9d 42 b8 bb 2f 5b 2d 3c 4d e4 0b bd 81 32 55 3d
       -0.0056231753 0.010580822 -0.03415327 0.052050117
000120 b5 58 ee 3c c2 1b c0 bc 3a fe 8d bc 08 d4 16 bb
       0.029095033 -0.023450736 -0.017333139 -0.0023014564
000130 83 f9 0a 3d 15 24 a8 3d 64 e9 9a 3d d4 00 8f 3d
       0.03392936 0.08210007 0.07564047 0.0698258
000140 bb 33 88 3c be 93 4a 3c 92 e5 93 3c 1c 40 16 3d
       0.01662623 0.012364326 0.018053804 0.036682233
000150 c5 e0 8a 3c 6b 1d 51 3d 82 1b 61 bc fb 99 b8 3c
       0.016952882 0.051053446 -0.0137394685 0.022534361
000160 16 c4 22 bd 6b 3b 80 3d 6b f0 9e 3d 33 9a dd bc
       -0.039737783 0.06261333 0.077607 -0.027051067
000170 14 89 67 3d 79 97 29 39 a6 0c 9d 3c 7c ef c4 3d
       0.056527212 0.00016173524 0.01917107 0.096159905
000180 da c7 a6 3d bc 71 83 3d ec 21 ae 3d 28 9e dd bc
       0.081435874 0.064181775 0.08502564 -0.027052954
000190 50 4d 85 3d 12 17 cc 3d 83 9d 29 bd a4 cd a3 3d
       0.06508887 0.09965338 -0.04140998 0.07998207
0001a0 69 a1 80 3d 30 a3 dc bc 2c 61 66 3d 78 ac 72 3d
       0.062807865 -0.026933283 0.056245014 0.05924651
0001b0 a9 d9 c1 3c 8c 48 fa 3c 3b ed ad 3d 13 5a 8f 3d
       0.023663359 0.030552171 0.08492514 0.06999602
0001c0 83 a4 19 bd 8e b7 f1 3c 20 d4 18 3d 15 66 55 3d
       -0.037510406 0.029506471 0.037311673 0.052099306
0001d0 25 5e a3 3c 15 65 9c 3c 64 d4 ae 3d d2 5f be bc
       0.019942353 0.019091168 0.08536604 -0.02323905
0001e0 92 b3 a8 3d 91 18 14 3d 42 9b c9 3d 62 28 8d b9
       0.08237375 0.03615624 0.09844066 -0.00026923703
0001f0 a5 2f a2 bc 09 44 dc 3c 5c 1c 5d 3d 76 96 9d bc
       -0.01979811 0.02688791 0.053982124 -0.019236784
000200 9a c2 85 3d d3 5b 2b 3d f9 af 01 3b ca d9 99 3c
       0.06531258 0.041835617 0.0019788726 0.018780608
000210 33 07 6e 3d 30 bd 3e 3d ba 22 a2 3d 03 96 78 3d
       0.058112334 0.046567142 0.0791678 0.060689937
000220 b5 6c 90 3d de 04 2d 3d 71 df 57 3d 3a 4f b5 3d
       0.07051984 0.04224097 0.052703325 0.08853002
000230 14 54 6a 3d 1a 38 be 3b f2 e0 9c bc 83 ce b0 3c
       0.05720909 0.0058050277 -0.019150231 0.021582847
000240 15 ab d0 bc 38 ff 0a 3c d0 1d a2 3d c7 92 af 3c
       -0.025472203 0.0084837 0.079158425 0.021432294
000250 c3 4a d4 3c aa 1f 9e 3d 3c 7f 68 3d 49 8b 5d 3d
       0.025914555 0.07720883 0.056761965 0.05408791
000260 ca 59 e5 3c 6b 68 ad 3b 46 13 94 3d 9d b7 19 3d
       0.027996916 0.0052919886 0.072302386 0.037528623
000270 e4 80 17 3b d1 b4 92 3b 3b 8c 4a 3d 75 01 a3 3d
       0.0023117596 0.0044771214 0.04945014 0.07959262
000280 16 e7 07 3d 6b ec 94 bc aa 68 bc 3d 9b 8f 07 bd
       0.033179365 -0.01817914 0.091996506 -0.033095937
000290 5b a4 52 3c 43 cb 3e 3d ab 2c 98 3c 91 f2 1e 3c
       0.012856568 0.046580564 0.018575987 0.009701387
0002a0 cb fa 71 3d e5 8b 8e 3d 90 2e 67 3d 49 16 36 3c
       0.059077065 0.069602765 0.05644089 0.011113712
0002b0 23 b4 2b bd 62 d0 03 bd d1 59 9f 3d b3 a3 75 bc
       -0.04191984 -0.03218115 0.07780803 -0.014992642
0002c0 4d 91 5c 3d ed f7 ae 3c ec af 37 3c 3b ae 62 3d
       0.053849507 0.021358455 0.011211377 0.05534194
0002d0 ca ed be 3b f0 60 5d 3d d6 68 5c 3b 31 61 03 3d
       0.0058266865 0.054047525 0.0033631823 0.03207511
0002e0 97 5d 3d bd aa 1d b6 3d 80 4f ab bd 31 0f 75 bc
       -0.046231832 0.08892377 -0.08364773 -0.014957235
0002f0 a8 fa 86 3d 09 c8 40 bc 63 b0 e5 3c 91 7e 23 3b
       0.06590778 -0.011766442 0.02803821 0.0024947266
000300 12 56 58 3d 85 63 25 bd 9e 0c 17 3d 7f 30 9a 3d
       0.052816458 -0.040378112 0.036877267 0.07528781
000310 33 4b 63 bd b3 cd 37 be c6 50 95 3e b8 8f 38 bb
       -0.055491637 -0.17949562 0.29163188 -0.0028161835
000320 c0 a0 5d 3d 37 9e 83 3d e4 93 e5 3c c4 f7 6a bc
       0.05410838 0.064266615 0.028024621 -0.0143412985
000330 8d 41 83 bb 92 06 85 3c 7a 4f 55 3d 47 09 59 bc
       -0.004005617 0.016238485 0.052077748 -0.013246841
000340 d0 19 8f 3d d7 eb 26 3d 4e 37 59 3d 1b 2a cc 3c
       0.06987345 0.04075226 0.05303126 0.024922421
000350 ab 53 5a bd db ef 5f bc 49 82 88 3b cf 3a c3 3d
       -0.05330245 -0.013668026 0.004165922 0.09532701
000360 a8 11 cb 3c 22 23 74 3c 86 4c 9d 3d 10 d2 51 3a
       0.024788693 0.014900954 0.07680611 0.0008004019
000370 88 27 8c 3b ef 5c f8 bc 65 36 f0 bc b6 db 44 3d
       0.0042771734 -0.030317752 -0.029322812 0.048061095
000380 8a 55 47 3d 57 2c 56 3c 6f bd d2 3c 1e 95 7f 3d
       0.04866556 0.013072095 0.025725095 0.06239807
000390 92 94 9b bc 8e c8 61 3d 79 b5 a0 bc 9a 93 8a 3d
       -0.018991742 0.055122904 -0.019617783 0.06766434
0003a0 24 47 d9 3b 3d d8 69 bc 5b f1 9a 3d d3 19 68 3d
       0.006630795 -0.014272747 0.07565566 0.056665253
0003b0 3d c9 16 bc a7 3a 43 3d 64 95 a4 3b 56 a4 2c bd
       -0.009203252 0.047663357 0.0050226916 -0.04214891
0003c0 36 8d 1a 3d 6d f1 97 3d ff cb 35 3d d7 71 f7 3c
       0.037732325 0.07419095 0.044384 0.03020565
0003d0 d4 88 09 3d 59 15 6f 3d ba 73 1b 3c 50 c9 40 3d
       0.033577755 0.058369968 0.009488041 0.047066987
0003e0 1f f3 57 3d df 2e 10 bd 68 da 52 3d 21 a1 55 3d
       0.052722093 -0.03520095 0.05147782 0.052155618
0003f0 27 b9 ff bc 5b ff c2 bc 1b 65 20 3d be 03 a8 bc
       -0.031216217 -0.023803404 0.03915892 -0.020509597

predictor.0.bias f4 [104]
000000 57 22 82 bc 83 b3 ee 3c 92 0c 31 3d b5 b9 0b 3d
       -0.015885515 0.029138332 0.04322488 0.03411265
000010 55 e6 70 3d 2b d3 9a bc 16 35 6d 3d 68 35 21 bd
       0.05881341 -0.01889952 0.057911955 -0.039357573
000020 71 fd e2 3d 2e a6 c0 3d af c6 d5 3d 5e 73 e8 3d
       0.11083496 0.09406696 0.104382865 0.113501295
000030 4d 12 76 bc 39 72 55 3d 13 db 63 bd 4e 45 f3 3d
       -0.015019012 0.052110884 -0.055628847 0.11878453
000040 d0 6c e2 3d f1 b2 83 3d 16 17 8e 3d 15 02 e0 bd
       0.110559106 0.06430615 0.06937997 -0.10937897
000050 fb 1a ee 39 04 fb 73 3d 8a f6 03 3f a7 50 27 3c
       0.00045415 0.05956556 0.51548064 0.0102121
000060 38 65 c1 3b 9a 67 bb bd 42 85 8e bc 88 cd 56 bd
       0.005901959 -0.0915062 -0.017397527 -0.052442104
000070 8a 9a 86 3c 95 5a 68 3d 4d 04 dd bd 36 db 81 3d
       0.016431112 0.05672701 -0.10791836 0.06340639
000080 8e 9f 0c 3e ea 55 4a 3c a1 0a 66 3d 02 40 99 bb
       0.1373274 0.012349585 0.05616248 -0.00467682
000090 65 58 0a 3d eb d9 0c 3d 83 f0 a4 3d fa a4 b4 3d
       0.033775706 0.03438751 0.080536865 0.08820529
0000a0 91 49 d3 3d 66 a8 69 3d 71 2b cf 3c 14 65 65 bc
       0.10316766 0.057045363 0.02528927 -0.01400115
0000b0 dd ef ed 3d 50 45 bf 3c 4a 3c 81 3d d3 94 77 bc
       0.11618016 0.02334848 0.06310327 -0.015111166
0000c0 c7 f6 08 3e 99 98 1f 3c 0e 63 6d 3c b9 c0 30 3d
       0.13375388 0.009740972 0.0144889485 0.043152545
0000d0 78 e5 47 3d 0a ef de 3d 0f 48 ac bd 47 59 5f 3d
       0.048802823 0.10885437 -0.084121816 0.0545285
0000e0 25 5e d4 bc 41 3e 6e 3d 87 8c ce 3d 60 6c 82 3d
       -0.025923798 0.05816484 0.10085397 0.06368327
0000f0 21 01 00 bd e8 c8 07 3e 2f 6c c9 3d dd 41 6d 3d
       -0.031251077 0.13260233 0.098350875 0.05792414
000100 bb 57 04 3d 58 37 d9 3c 36 af 90 bb 0d 62 cd 3d
       0.03231023 0.026515648 -0.004415418 0.10028467
000110 d4 d8 59 3c 94 72 c6 3d 74 2b 32 3d c5 04 da bc
       0.013296325 0.09689823 0.04349847 -0.026613602
000120 1a 45 02 3d 79 de 8f bc 11 a0 c4 bd cd d4 e5 3d
       0.03180418 -0.017562138 -0.09600843 0.11222229
000130 94 21 aa bd c6 0b 34 bd e1 b8 85 3d fd d1 7c bc
       -0.08307186 -0.04395654 0.065294035 -0.0154309245
000140 80 ec cc bc af 33 dd 3d bd 26 1e 3e 65 27 da ba
       -0.025015116 0.108008735 0.15444465 -0.001664382
000150 80 68 89 3d b5 6b 8b bd 25 e2 65 3d a5 25 35 3d
       0.06709385 -0.06807653 0.05612387 0.044225354
000160 0d 29 87 3d 68 b8 f4 bd df c8 be 3d 25 32 5b 3d
       0.06599627 -0.11949235 0.09315657 0.05351462
000170 ff 92 e0 bd ae 58 83 3d ef b0 1a 3e b4 0b ce bc
       -0.10965537 0.06413399 0.15106557 -0.025152065
000180 77 aa 50 bb ad 0c 43 3c 9e 99 d5 bc 23 cd e9 3d
       -0.0031839886 0.011904878 -0.026074227 0.1141608
000190 70 8c c0 3e 8d 41 65 3d 33 6d 31 3d a1 82 ad bc
       0.37607145 0.055970717 0.04331703 -0.021180453

predictor.2.weight f4 [8, 104]
000000 48 ba b3 bd 49 e2 16 bd cc 33 c8 3d 7a 0b 0b be
       -0.08775765 -0.036836896 0.097755045 -0.13578597
000010 93 2a 6a bd a1 60 8b 3d e0 80 d1 bd f5 4e 1c 3d
       -0.05716951 0.0680554 -0.10229659 0.038161237
000020 34 d9 94 bc 1b e1 e1 bd 8f 6b b4 bd 6d a7 6f bc
       -0.018169977 -0.110292636 -0.08809578 -0.01462732
000030 a0 6d ff 3d 08 4e be bd 58 24 e2 bc a7 84 32 be
       0.12472081 -0.09292227 -0.02760522 -0.17433415
000040 f9 87 15 3e 0b 3d ca 3d 8f 89 a2 ba d7 7a 2f 3d
       0.1460265 0.09874924 -0.0012400615 0.04284176
000050 f2 c5 39 3d 04 6c 8a 3d 4d 75 48 3e 70 00 76 3d
       0.04535479 0.067588836 0.19575997 0.06005901
000060 5c bf 4e 3d 0c 46 86 3c b0 2a 9b 3d 59 cd 2c 3e
       0.050475463 0.016390823 0.07576501 0.16875209
000070 04 b4 e2 3d e1 96 0e bd a2 7b e9 bd 74 b9 03 3e
       0.110694915 -0.034811858 -0.11400534 0.12863714
000080 7a 42 59 3e c9 92 73 3d 29 a6 c6 3d d8 24 95 3c
       0.21216765 0.059466157 0.09699661 0.018206045
000090 ac 1c 45 bb be bf 17 bd f1 d6 27 bd 00 36 e5 3d
       -0.0030076904 -0.037048094 -0.04097647 0.1119194
0000a0 f8 88 36 bd 67 a8 0d 3d 27 f8 10 3e 88 7a d9 3d
       -0.044564217 0.03458443 0.14157163 0.10619074
0000b0 43 33 93 bd 20 0b 1c bd 2c bc cf bd 34 04 8f 3c
       -0.07187512 -0.038096547 -0.10143313 0.017458059
0000c0 25 e7 c5 3c 22 86 c9 be 88 51 69 3d ec 2c 20 be
       0.02415807 -0.39360148 0.05696252 -0.15642136
0000d0 f2 83 13 3d 04 b3 e2 bd 62 ae 13 3d cd c3 4a bc
       0.036014505 -0.11069301 0.036054976 -0.012375784
0000e0 1a 65 20 3e 33 1f b1 bb ae 5c 8f bd c8 c9 d1 bd
       0.15663567 -0.0054053306 -0.07000099 -0.10243565
0000f0 c6 52 86 bd 77 13 e4 bd b5 74 09 3e 76 d8 4e 3b
       -0.065587565 -0.11136525 0.13423426 0.0031562126
000100 a5 16 e9 3d bb fb bc 3c 6d ff 96 bd 3b 39 13 3c
       0.11381272 0.023069253 -0.07372937 0.008985813
000110 d8 c4 3a bd 09 d7 bf bc 9c 26 c8 bc aa 2b 1b 3d
       -0.04559788 -0.023417966 -0.024432473 0.03788344
000120 cc 45 8f bb 95 ef 85 3d 11 29 c3 3d db e6 39 bd
       -0.004372334 0.06539837 0.09529317 -0.045386177
000130 7a 78 9e 3d 7d e7 46 bc fe 54 4b bd 4a 03 2a bd
       0.07737823 -0.012140152 -0.0496416 -0.041507043
000140 1f 61 b1 3d 8c de 6f 3d 40 8d 49 3d 0d 23 01 be
       0.086611025 0.058561847 0.049206972 -0.12611027
000150 08 18 e1 bd 8c 66 d3 3c 17 b3 88 3d 69 1c e1 3b
       -0.10990912 0.025805734 0.06674784 0.006869842
000160 3c 69 47 3d 65 77 d3 3e 2b 31 c4 bd eb 3b df 3d
       0.048684344 0.41302028 -0.095796905 0.109001
000170 f0 8e b7 3d 6f 79 00 3d e5 8f cf bd d0 16 8b bd
       0.0896281 0.031365808 -0.101348676 -0.067914605
000180 f8 5e 43 3d 77 ae b3 3b af 87 65 3d c8 fc be bd
       0.04769799 0.0054834443 0.0560376 -0.09325558
000190 80 0f 92 3e 1d ef 71 bd a5 98 f9 bc b1 dd ae 3d
       0.2852745 -0.059065927 -0.030468294 0.08538378
0001a0 68 b0 3c bd fa 7f 18 bd d2 a7 1b 3d 8a ae b2 bd
       -0.04606667 -0.037231423 0.038001843 -0.08724697
0001b0 f1 92 c5 3d 2e 1f 21 3e 12 dd 14 be b1 5f 06 3d
       0.096471675 0.1573455 -0.14537457 0.032806102
0001c0 ab c5 17 3d 89 af 59 be 6c 06 8d bc 9a ae 0c be
       0.037053745 -0.21258368 -0.017214976 -0.1373848
0001d0 d8 ce 5b 3e 06 bd 23 bd d1 44 30 3c 21 ae 9a be
       0.21465623 -0.03997519 0.010758595 -0.30210975
0001e0 7b 7d a8 3e 5a b1 22 3e b0 63 57 bd 84 06 d2 3d
       0.32908234 0.15887967 -0.052585304 0.10255149
0001f0 fa 01 ec 3d f0 82 f8 3d 1b dd d6 3e be dd ba 3d
       0.115238145 0.12134349 0.41965565 0.09124325
000200 62 17 d7 3c 6b 90 c0 3d 1a 33 f4 3d 41 66 47 3e
       0.026256267 0.094025455 0.11923809 0.194726
000210 83 46 27 3e cc 4b 28 3d f3 dd 8e bd 71 ab 1b 3e
       0.16335492 0.04108791 -0.06975927 0.15202118
000220 a8 cf ce 3e 2d e4 3f bd 6e 05 4c 3d 50 df 0a be
       0.40392804 -0.046848465 0.049809866 -0.1356175
000230 fd b1 93 3d cc 9d a4 bd 36 de ab bc dc 19 1a 3d
       0.07211683 -0.0803791 -0.020979982 0.037622318
000240 39 bf ea bd ec 7e 09 3e 3a 59 f8 3d 37 e8 31 3e
       -0.11462254 0.13427323 0.121263936 0.17373739
000250 56 55 fb bd 4c 6a 82 3d 55 67 a9 3c dd 97 27 bd
       -0.12272136 0.06367931 0.020679155 -0.040916312
000260 39 6f 1a bc ea 16 4b bf b5 ff 0c 3e 14 14 ce be
       -0.009425932 -0.7933184 0.1376942 -0.40249693
000270 88 d6 c1 38 af 90 00 be 06 23 b8 3d 14 4c 70 3d
       9.242917e-05 -0.12555192 0.08991055 0.058666304
000280 fd 65 6f 3d 4b e2 ba bd ef 5d 24 be 2a ee 03 be
       0.058446873 -0.09125193 -0.16051458 -0.12883821
000290 92 15 71 3d a8 96 04 be d6 e6 9a 3e d3 8d 65 bd
       0.05885846 -0.12948096 0.3025424 -0.056043457
0002a0 7a a3 43 3e c3 ba 49 3e 22 43 cd bd 9f 00 be b9
       0.1910533 0.1970015 -0.1002257 -0.00036240087
0002b0 ea c0 a9 bd 5b dd 1e bd 47 e1 f6 bd 43 ea 19 3e
       -0.082887486 -0.03878532 -0.12054687 0.1503077
0002c0 3b 5d 57 bc 65 78 9d 3d be a1 de 3d 90 9c e3 3c
       -0.0131447865 0.07688979 0.108706936 0.027784616
0002d0 c0 86 1a 3d c1 2d b0 bc 55 6b b4 3d e1 77 dd 3c
       0.037726164 -0.021506192 0.088095345 0.027034702
0002e0 49 ea 12 3e 29 34 98 bd ee 4a 25 3e 9a 71 11 be
       0.14347185 -0.07431824 0.16141865 -0.14203492
0002f0 ca fd f2 bd 67 66 d2 3d f2 c0 1b bd 96 a8 6a bc
       -0.11864813 0.10273438 -0.038025804 -0.014322421
000300 a8 e6 f4 bc e3 db a9 3e 53 e0 fb bd 10 e8 07 3e
       -0.029895142 0.33175573 -0.12298646 0.13272119
000310 18 c8 02 3e e1 ac 63 3d 38 03 63 bd 39 97 23 bb
       0.12771642 0.055584792 -0.05542299 -0.0024961962
000320 72 16 c8 3d 5e 35 8a 3c c9 14 b7 3d 54 ef e1 bd
       0.09769906 0.01687115 0.08939511 -0.11031976
000330 11 e9 fa 3e 5f 95 0f be 47 04 e9 3d 6e ff db 3d
       0.4900594 -0.14021824 0.11377769 0.10742079
000340 ff 61 43 bd 2a 93 ee 3d 0a 11 d6 3d 8d f9 02 be
       -0.04770088 0.11649163 0.10452469 -0.12790509
000350 65 b6 11 3e a5 41 35 3e 9f 2b 14 be fa c1 cb 3d
       0.14229734 0.17700823 -0.14469765 0.099491075
000360 ec 6a 4d bd 07 1c 95 be 4c ab ff bd e2 24 8b bd
       -0.050150797 -0.29122946 -0.12483844 -0.06794144
000370 5f 27 27 3e 5a 9f 00 be 6e 9b 01 3e fd 90 db be
       0.16323613 -0.12560788 0.12656948 -0.42884055
000380 53 26 a9 3e 1f 2f e4 3d c5 28 65 bc 3c a6 21 3e
       0.33037052 0.111418 -0.013986771 0.1578607
000390 f6 f9 0f 3e 38 d8 0a 3e f4 3a f4 3e c8 e6 11 3e
       0.14060196 0.13559043 0.47701228 0.14248192
0003a0 22 10 a8 3d 9d 08 1c 3e eb 19 10 3e 2b 5b 2f 3e
       0.08206202 0.1523766 0.14072387 0.17124622
0003b0 23 d4 61 3d e8 e5 01 3e 37 0f 29 3d 1d 4b 04 3d
       0.05513395 0.12685359 0.041274276 0.032298196
0003c0 60 ed 09 3f b6 82 dd bd e8 db f1 3c aa 83 24 3c
       0.5387783 -0.10815947 0.029523805 0.010041157
0003d0 6c cb 4f 3d a8 66 15 be 3c 4b 59 bd fa a3 50 3e
       0.050731108 -0.14589942 -0.053050265 0.20375052
0003e0 65 4c c9 bd 5d ae 02 3e c3 99 f4 3d 76 68 b0 3d
       -0.09829024 0.12761827 0.1194339 0.08613674
0003f0 18 a9 c8 bd 70 a3 1c 3d a2 13 76 3c 3a 81 3f 3d
       -0.09797877 0.038241804 0.015019329 0.0467541

predictor.2.bias f4 [8]
000000 71 25 3a 3c e3 da 88 bd 91 fe be bc 7f b9 09 3b
       0.011361466 -0.06682374 -0.023314746 0.0021015105
000010 08 bd 71 3c 59 4d 21 bd a6 67 2d 3c 66 7c bd 3b
       0.014754541 -0.039380405 0.010583794 0.0057826517

classifier.0.weight f4 [101, 199]
000000 7a 25 63 3e 2e 03 f7 3d 9b 4f 91 3d 2d 20 59 3e
       0.22182265 0.12061153 0.07095262 0.2120368
000010 71 67 25 3e 80 a8 52 3e 34 3d 27 3e 16 f5 59 3e
       0.16152741 0.2057209 0.16331941 0.21284899
000020 48 5f ec 3d 93 4d 63 3e 5a 00 04 bd d0 c9 47 3e
       0.11541611 0.22197561 -0.032226898 0.19510579
000030 1a 46 7c bd bd a4 39 3e 41 e6 f5 3b 45 4f 4f 3e
       -0.06159029 0.18129249 0.007504255 0.20245083
000040 62 70 68 bd 47 91 91 3e 8f 91 da bc 4b 1a 68 3e
       -0.0567478 0.2843115 -0.026680736 0.2266628
000050 16 d5 83 bc fe fa 6b 3e b9 6a 99 3b ef c0 8e 3e
       -0.016092818 0.23044965 0.004681912 0.27881572
000060 f7 56 dc 3b 70 57 84 3e af c0 a5 3d 3a 3f 46 3e
       0.006724234 0.2584796 0.08093392 0.19360057
000070 cf c0 02 3e 66 b7 95 3e 40 45 28 3e a9 96 4e 3e
       0.12768863 0.29241484 0.16432667 0.2017466
000080 a8 0b cc 3d 3b b3 4a 3e 5f 9a 4f 3d 1b 5d 86 3e
       0.09963161 0.19794933 0.05068433 0.2624291
000090 a7 b3 b1 3d af 89 33 3e e3 d9 20 3d bf 49 58 3e
       0.08676844 0.17532991 0.039270293 0.21121882
0000a0 47 dc a9 3b 38 9a fd 3d d3 c6 f7 3d b0 0f f6 3d
       0.00518373 0.123829305 0.120984696 0.12014711
0000b0 a0 e8 26 3e 50 61 53 3e d9 96 87 3e 36 6f a7 3d
       0.16299677 0.2064259 0.26482275 0.08175509
0000c0 c0 32 6a 3e 62 28 08 3d 9d 7b bb 3e 15 38 85 bd
       0.22870922 0.033241637 0.36617747 -0.065048374
0000d0 9c 6c 91 3e c0 92 ba bd a8 e0 4d 3e ab c6 67 be
       0.28403175 -0.091100216 0.20105231 -0.2263438
0000e0 4a 18 50 3e 92 cb e8 bd 4b f6 66 3e 4f c4 0e 3d
       0.20321766 -0.11366953 0.22554891 0.034855183
0000f0 68 7a 98 3e 04 34 ff 3d ca cc 23 3e 37 86 38 3e
       0.2978089 0.12461093 0.1599609 0.18019949
000100 21 6f da 3d 44 af 6d 3e 86 d8 ca bc 15 ac b2 3e
       0.106657274 0.2321139 -0.02476145 0.34896913
000110 fb 91 54 bd ec 53 55 3e 7b 9d 14 be 2c 7a 79 3e
       -0.05189703 0.20832795 -0.14513199 0.24363011
000120 61 d9 de bd 72 7b 98 3e 2a 2b a2 bd d6 42 8f 3e
       -0.108813055 0.2978168 -0.07918389 0.2798068
000130 aa 78 2e 3c c9 37 40 3e aa 20 a0 3d bd 95 8e 3e
       0.010648886 0.1877128 0.0781873 0.27848616
000140 aa b3 49 3e 8c d6 62 3e 10 80 1d 3e 65 97 4a 3e
       0.19697443 0.22152156 0.15380883 0.19784315
000150 83 76 32 3e 69 a3 cc 3d 51 7b 03 3e 4d a3 08 3e
       0.17428021 0.099921055 0.1284001 0.13343544
000160 18 be b0 3d 40 0e 60 3e 9b 43 97 3d 8d 11 ee 3d
       0.086300075 0.21880436 0.073859416 0.11624441
000170 5b f8 89 3d 26 47 74 3e 2a 3d cb 3d 62 f9 9c 3e
       0.06736823 0.23855266 0.099237755 0.30659014
000180 43 31 44 3d 19 28 35 3e 5e 3d e8 3d 73 a2 82 3e
       0.047898542 0.17691077 0.1133983 0.25514564
000190 c1 ad 3d 3e 85 23 41 3e 1c 38 d5 3d fa 24 00 3e
       0.18523313 0.18861206 0.10411093 0.12514105
0001a0 88 9c 84 3e 98 dc ae 3d 3b 88 58 3e 07 0a 78 bc
       0.25900674 0.08538169 0.21145718 -0.015139109
0001b0 2d f4 92 3e b0 ba c6 bd a9 9a b6 3e fe 77 0f be
       0.28701916 -0.097035766 0.3566487 -0.14010617
0001c0 13 e9 96 3e e4 fa 04 be 35 bd 8a 3e d9 07 82 be
       0.29474697 -0.12986332 0.27097479 -0.25396612
0001d0 71 da a1 3e f4 28 ae bd 69 a7 90 3e 4c d0 e0 bc
       0.3161197 -0.08503905 0.28252724 -0.027443074
0001e0 8d b9 93 3e d3 49 c6 bc 69 14 5e 3e 48 16 c6 bb
       0.28852502 -0.024205124 0.21687473 -0.0060451366
0001f0 22 b2 8e 3e 2b 76 2a 3e 36 30 52 3e 5e 0b 3c 3e
       0.2787028 0.1664664 0.20526204 0.18363711
000200 f0 98 72 3e 9f 60 30 3e 4a ed 3e 3e be e2 20 3e
       0.23691154 0.17224358 0.18645206 0.15711495
000210 0c 66 4d 3e 34 5f 1d 3d c8 53 3a 3e e2 47 ed bc
       0.20058459 0.03842087 0.18196023 -0.02896494
000220 32 3a fe 3d a1 fa dd bc 7e 5d 0e 3e 64 53 e5 3d
       0.124134436 -0.027097048 0.13902852 0.11197546
000230 f8 11 35 3e 5f 1c c8 3c e0 69 82 3e 89 21 9e 3c
       0.17682636 0.02442759 0.254714 0.0193031
000240 42 37 1c 3e e5 ee b9 3d aa 48 51 3e 0d 86 ea 3d
       0.15255454 0.09078769 0.20437875 0.114513494
000250 93 ad 94 3d 83 3d 1a 3e 92 69 0c 3e 7a f5 96 3d
       0.07259669 0.15062527 0.13712147 0.0737104
000260 89 1d 95 3d e2 25 41 3e c5 82 0f 3e b1 a3 ef 3d
       0.07281024 0.18862107 0.14014728 0.117011435
000270 2e c6 45 3e 4a 87 5f 3e bd 44 4b 3e a0 92 3c 3e
       0.19313881 0.21828952 0.1985044 0.18415308
000280 60 07 74 3e b2 cb 1a 3e d7 77 81 3e 5f 1b 0f 3e
       0.23830938 0.15116766 0.25286743 0.13975285
000290 e3 14 74 3e 53 2d cc 3c b2 b2 67 3e cd 1a 04 bd
       0.23836093 0.024923956 0.2262676 -0.03225212
0002a0 34 04 57 3e 1c 60 47 3d e5 81 76 3e 75 62 33 bc
       0.20997697 0.04867564 0.24072988 -0.010948767
0002b0 5c 98 4a 3e c0 c3 9a 3d dd 67 81 3e dd f7 52 3e
       0.19784683 0.075568676 0.25274554 0.20602365
0002c0 e6 58 53 3e 10 1d 1f 3e 6d d0 e1 3d fe 00 d6 3d
       0.20639381 0.1553843 0.11026082 0.10449408
0002d0 a4 bc 11 3e ca 84 51 3e e2 8f 66 3d 0e 2d bc 3d
       0.14232117 0.20460811 0.05628956 0.09188281
0002e0 82 ae 1f 3d 21 12 4a 3e 64 f3 f5 3d a7 5d 06 3e
       0.038984783 0.19733478 0.12009314 0.13121663
0002f0 dc 14 0a 3d 50 ba 31 3e 29 50 51 3e 53 86 3f 3e
       0.0337113 0.17356229 0.20440735 0.18703584
000300 3a b2 95 3d ea 63 de 3d 9a 50 f4 3d 31 a0 87 3c
       0.07309385 0.10858901 0.11929436 0.016555877
000310 43 13 76 3e 04 74 f5 bd f7 39 95 3e 23 84 32 39
       0.24030785 -0.11985019 0.29145786 0.00017024628
000320 ea d8 4a bd 55 1f 09 be 66 32 86 3d 97 23 42 bd
       -0.04952327 -0.13390858 0.065525815 -0.047397222
000330 49 c9 67 3c 0d a2 e2 bd cd 79 37 bd 93 5c 05 be
       0.014147111 -0.11066065 -0.044793893 -0.13023596
000340 1b 0a af bd f1 f1 b7 bd 78 bb a6 bd c9 4f a5 bc
       -0.08546849 -0.089816935 -0.081412256 -0.020179646
000350 0f 0b e7 bd e4 66 96 3c b3 c8 cc bd 20 0b 02 3d
       -0.11281406 0.018359609 -0.09999218 0.03174889
000360 49 a9 c8 bd 1d 38 7a bd b2 b9 b3 bc c5 82 d5 bd
       -0.097979136 -0.06108867 -0.021939132 -0.10425333
000370 b4 16 8c bb a2 37 01 be bb a0 06 3d 94 20 e2 bd
       -0.0042751674 -0.12618878 0.03286813 -0.1104137
000380 ce e1 af bc 43 33 29 bd 63 ef 83 bd 45 e2 c9 bc
       -0.021469977 -0.041308653 -0.06442144 -0.024644027
000390 ed 3f 4c be 4f bd 17 3d 46 4b 35 be c5 e6 70 3d
       -0.19946261 0.037045773 -0.17704496 0.05881383
0003a0 26 af c7 bd 2d 04 7b bc 23 3f 87 bd a6 f9 b0 bd
       -0.09750204 -0.01532082 -0.06603839 -0.08641367
0003b0 2f ef 09 3d c9 f4 5f be 25 4f b5 3d 67 b3 dd bd
       0.03367537 -0.21870722 0.08852986 -0.10825234
0003c0 7f 57 74 3c 40 6e 11 be 13 da 4a 3d 11 24 2e bd
       0.014913439 -0.14202213 0.049524378 -0.042514864
0003d0 8d 1f 1c be 46 9d a1 3c cb 5d 39 be 31 65 21 bb
       -0.1524641 0.019728314 -0.18102185 -0.0024626965
0003e0 94 ff dc bd b4 3f a7 3c 10 6b 30 bc 6b f5 cf bd
       -0.10790935 0.020416118 -0.010767713 -0.10154232
0003f0 50 83 64 bd 6b 30 c8 bd b0 a0 20 bd 51 19 e6 bd
       -0.05578929 -0.0977486 -0.039215744 -0.112352975

classifier.0.bias f4 [101]
000000 eb ea 0d bf d5 c9 44 3f 61 c8 0c bf 71 fd 1b bf
       -0.5543658 0.7687047 -0.54993254 -0.60933596
000010 43 52 39 3f fb 82 0e bf 4b d3 3d 3f 6f 04 49 3f
       0.72391146 -0.5566861 0.7415053 0.7852239
000020 7c 99 12 bf f5 a3 4b 3f 6b 79 59 3f 2c 3f 46 3f
       -0.5726545 0.79547054 0.84950894 0.7744014
000030 33 2d 11 bf 82 70 49 3f b2 23 4f 3f 3e 53 0f bf
       -0.56709594 0.786873 0.8091384 -0.5598639
000040 8d 4e 0b bf df ac 02 bf ad 2e 09 bf 0e 9c 11 bf
       -0.54416734 -0.5104503 -0.53586847 -0.56878746
000050 aa 5b 0d bf c2 b6 20 bf 11 46 4a 3f f5 86 21 bf
       -0.55217993 -0.62778866 0.7901316 -0.63096553
000060 e0 76 4a 3f c4 f8 1b bf be 24 51 3f 0d e3 46 3f
       0.7908764 -0.6092646 0.8169669 0.776902
000070 18 b1 49 3f 32 5b 44 3f 95 1e 46 3f 4a d2 4b 3f
       0.7878585 0.76701653 0.77390414 0.7961775
000080 88 a5 13 bf 5d 3c 5c 3f a2 49 4d 3f b0 a5 50 3f
       -0.57674456 0.8602961 0.8019048 0.8150282
000090 84 4e 62 3f 50 fe 46 3f 24 e4 0e bf e5 07 0d bf
       0.88401055 0.777318 -0.55816865 -0.5509017
0000a0 d6 a7 57 3f d6 0d 59 3f 0f 67 0c bf 0d 21 44 3f
       0.8424047 0.84786737 -0.54844755 0.7661293
0000b0 5e ca 49 3f 32 cb 1e bf 42 1c 37 3f a0 de 17 bf
       0.7882441 -0.620288 0.71527493 -0.59324074
0000c0 8b 55 58 3f f2 33 59 3f 51 d9 66 3f 35 f8 03 bf
       0.8450553 0.8484489 0.9017535 -0.5155061
0000d0 90 f8 17 bf b6 5e 13 bf 74 73 3d 3f 39 a4 12 bf
       -0.5936365 -0.5756639 0.7400429 -0.57281834
0000e0 a3 22 13 bf 7f 02 36 3f 83 56 1c bf 77 d2 46 3f
       -0.57474726 0.7109756 -0.61069506 0.77664894
0000f0 6f 6a 50 3f 64 91 52 3f 79 4b 4a 3f d5 20 4d 3f
       0.81412405 0.822531 0.7902141 0.8012822
000100 46 17 51 3f 56 29 48 3f e7 fe 4d 3f 2e 30 4b 3f
       0.8167614 0.78188074 0.80467075 0.7937039
000110 ae ce 09 bf aa 7a 10 bf 7c 69 1d bf 5b 37 49 3f
       -0.53830993 -0.5643717 -0.6148908 0.7860009
000120 8d 49 36 3f 5e f0 10 bf bc 74 4b 3f 8a 38 03 bf
       0.7120598 -0.5661677 0.79475 -0.51258147
000130 cf 78 11 bf 79 f2 11 bf 6a 11 1c bf 56 a8 27 bf
       -0.56824964 -0.5701061 -0.6096407 -0.65491235
000140 8e 04 43 3f 99 d0 22 bf b0 96 11 bf fb 70 58 3f
       0.76178825 -0.63599545 -0.56870556 0.84547395
000150 54 51 13 bf 02 ab 55 3f f4 fe 57 3f 8f 2e f8 be
       -0.5754597 0.8346406 0.843734 -0.4847302
000160 21 3e 4d 3f c3 0e 44 3f 09 5e 07 bf 72 87 39 3f
       0.80172926 0.76585025 -0.5287786 0.724723
000170 e4 13 6e 3f 8b 76 50 3f 72 65 de be d4 9d 52 3f
       0.929991 0.8143088 -0.43436772 0.82272077
000180 0a 13 18 bf 1a 07 57 3f 35 77 52 3f 4a 20 46 3f
       -0.5940405 0.8399521 0.82213145 0.7739302
000190 be 17 19 bf
       -0.5980185
