Trained_Models_CLODC/0/ConvAutoencoder_300.pth (torch, 859560 bytes, 17 tensors)

encoder.0.weight f4 [4, 8, 3]
000000 67 2f 82 be 8f 67 0d 3e 32 df 8c 3d 8f 1d bf 3d
       -0.2542679 0.13809036 0.068785086 0.0933181
000010 98 98 05 be be 19 5f bd 4b 59 c3 3c 87 6c e0 3d
       -0.13046491 -0.05446791 0.02384629 0.109582
000020 49 f4 c5 3c 1f f4 0a bd cb 34 a4 bd 86 38 01 bc
       0.024164336 -0.03392422 -0.08017882 -0.007887011
000030 32 5a 08 3d b1 9a 19 be cb 35 57 3e 76 26 ef 3d
       0.033289142 -0.15000416 0.21016614 0.11677258
000040 b4 f7 8c 3d 1b e9 68 3a 2f d3 4a 3d ff 59 b5 bd
       0.06883183 0.0008884833 0.049517807 -0.08855056
000050 36 ba 42 bd c6 86 2a be a6 9c 58 bd 36 19 76 3e
       -0.047540866 -0.16652974 -0.052883767 0.24033055
000060 cf 15 90 bd a2 7d 97 bd e1 d1 36 be fa a2 8c 3d
       -0.0703541 -0.073970094 -0.178535 0.06867023
000070 f2 79 0d 3e 98 35 26 be 3d e2 74 bd b2 a5 7b 3e
       0.1381605 -0.16231382 -0.05978607 0.24574926
000080 3d e9 74 be 12 4b f3 bd d9 2c 78 3d 66 f7 02 3d
       -0.23917098 -0.11879553 0.060589645 0.03197422
000090 d6 2d 38 3e 0f a3 50 bd 56 e0 14 3e de 8c 43 3e
       0.17986235 -0.050936755 0.14538702 0.19096705
0000a0 dc a5 7d 3e b8 6f fd bd 43 1a 44 3e 6f b9 bd 3d
       0.24770302 -0.12374824 0.19150643 0.09263884
0000b0 c1 35 a4 bd 58 e3 6a bd f5 34 85 3e 22 92 72 be
       -0.08018065 -0.05734572 0.26016966 -0.23688558
0000c0 a5 62 3c 3c ca 99 7d 3e b2 3d 13 be 73 0e 06 bd
       0.011498128 0.24765697 -0.14379004 -0.032728624
0000d0 15 89 1a 3d ac b9 ac be 8e f2 1e 3d 22 17 0d 3e
       0.037728388 -0.33735406 0.038805537 0.13778356
0000e0 e8 46 0e be fe 0f 96 be 48 c7 90 3e 43 db 1a bb
       -0.13894236 -0.29309076 0.2827704 -0.0023629225
0000f0 dc 8c a2 bb 8c 2c 33 bd b2 8e f5 bd 51 d5 1a be
       -0.0049606394 -0.043743655 -0.119901076 -0.15120436
000100 c5 55 21 3e e6 a2 8b bc a2 1b 3e be 92 3e 94 3c
       0.15755375 -0.01704545 -0.18565229 0.018096242
000110 c0 97 5b be 57 96 55 bd 4b 3f 48 3d 13 87 09 be
       -0.21444607 -0.05214533 0.048888486 -0.13430433
000120 49 3e b3 3d 98 01 38 3e 43 97 07 3e 21 65 cd 3b
       0.08752114 0.17969358 0.13241296 0.006268159
000130 c3 29 06 be 1e 86 dc bd 0f d9 95 bd 28 58 2b be
       -0.13101868 -0.10767768 -0.07316791 -0.16732848
000140 f2 b1 32 3e e4 5a eb 3c 53 33 77 be fd 13 3a 3b
       0.17450693 0.028729863 -0.24140672 0.0028393262
000150 bf 95 53 bb 4f 2d a6 bd 8c f9 d4 3d c0 90 03 be
       -0.00322853 -0.08114111 0.1039916 -0.12848186
000160 71 67 f8 3d 19 8e d4 bd 33 bc 39 3e d8 27 cd 3d
       0.12129105 -0.103786655 0.18138199 0.10017365
000170 65 64 57 3e 57 00 b5 bc 21 53 b9 3d 9f 91 12 be
       0.21034391 -0.022094889 0.09049059 -0.14313363

encoder.0.bias f4 [4]
000000 a0 6a ee bc aa 29 c6 bd fe 15 43 be 90 6d ea bd
       -0.029103577 -0.096759155 -0.19051358 -0.11446679

encoder.2.weight f4 [1, 4, 3]
000000 b1 af 48 3e 72 36 7e be 42 5b 83 3e 12 b5 c6 bd
       0.19598271 -0.24825457 0.25655562 -0.09702505
000010 c9 ed b1 3e e3 b8 6e be 96 aa 02 3e 43 35 6a be
       0.34751728 -0.23312716 0.12760386 -0.2287188
000020 05 e5 1c 3e 32 f8 35 bc b0 9e 83 be 8e 56 e8 3d
       0.15321739 -0.011106538 -0.25707006 0.11344634

decoder.0.weight f4 [1, 4, 3]
000000 29 a4 c3 3e a5 38 09 bf d2 ef ef 3e c6 91 bc 3e
       0.38211182 -0.5360206 0.46862656 0.36829966
000010 c2 7a 54 be a4 ea 78 3e e1 f3 f7 bc 1a b4 d9 3e
       -0.20749953 0.24308258 -0.030267658 0.4252022
000020 b9 5a f7 be 72 68 b6 3e 67 70 92 be e7 56 ef 3e
       -0.48311403 0.3562656 -0.2860138 0.4674599

decoder.0.bias f4 [4]
000000 54 64 c2 3e 5f f7 14 3e 6f 37 9f 3e dc c1 a0 3e
       0.3796717 0.1454749 0.3109698 0.31397903

decoder.2.weight f4 [4, 8, 3]
000000 67 84 d0 3c 5f 15 09 be 50 78 9b 3e ab 7b ff 3d
       0.02545376 -0.13387059 0.3036523 0.1247476
000010 54 29 c1 be 53 90 91 3e e5 de 4f 3d f8 e9 4d be
       -0.37726843 0.28430423 0.05074968 -0.20108783
000020 1e 95 c1 3e ed c9 3e 3d da 1e c1 be 70 d4 79 3e
       0.3780908 0.04657929 -0.3771885 0.24397445
000030 66 70 a4 3d 3d d3 60 bd 80 7e ab 3d 19 8c a4 3e
       0.08029251 -0.054888953 0.08373737 0.32138136
000040 63 fc 4d be 05 04 a1 3e a5 57 a9 3d 21 e9 63 be
       -0.20115809 0.3144838 0.0826867 -0.222569
000050 33 c3 b1 3e f8 2f 97 3e e7 72 e3 be 0e 78 19 3e
       0.34719238 0.29528785 -0.444236 0.14987203
000060 e6 46 87 3e 19 f0 93 bd 97 89 98 3d 24 e1 9c 3e
       0.2642128 -0.07223529 0.07448118 0.3064052
000070 36 2a e2 bd 0d 3f c1 3e 10 5f 86 3e 1d 74 a6 be
       -0.11043207 0.37743416 0.26244402 -0.32510462
000080 d2 89 c2 3e 41 e8 81 3e c8 c6 da be 3c 70 1f 3e
       0.37995774 0.25372508 -0.42729783 0.15570158
000090 c9 04 2e 3d 54 ac 84 be e1 95 85 3e 44 20 01 3e
       0.042485032 -0.25912726 0.2609091 0.12609965
0000a0 ef cc ac be 1f e7 b8 3e 6c 78 c3 3e c1 16 e7 bd
       -0.33750102 0.3611383 0.38177812 -0.11283637
0000b0 00 59 a8 3e 3e 25 d3 3d ce 6b 46 be 07 da b8 3e
       0.32880402 0.10309838 -0.19377062 0.36103842
0000c0 d4 4a 45 be 2b 5b 3d 3d f3 36 ba be f4 9d a1 be
       -0.19266826 0.046229523 -0.36370048 -0.3156582
0000d0 6f 38 89 3e 57 38 d8 be 57 43 71 be 40 8f 9c 3e
       0.26800868 -0.42230484 -0.23560844 0.3057804
0000e0 d4 33 aa be b0 6d f7 bd d3 a5 f2 3d 1e e3 db be
       -0.33242667 -0.12081468 0.11848035 -0.42946714
0000f0 ed da a3 bd ce 63 27 3e 99 80 62 bd 54 d6 88 bd
       -0.08000741 0.16346666 -0.05529842 -0.06681505
000100 7a a2 de 3d 05 1c e8 be fe 7d d2 be 7e d8 c5 3d
       0.10870834 -0.45333877 -0.4111175 0.09660433
000110 d0 a8 82 be 8e 33 2d be d1 2b d3 3e 74 c0 c0 be
       -0.2551942 -0.16914198 0.41244367 -0.3764683
000120 04 2f bd 3d 06 93 a1 bc 4a 8f 32 3d b0 7a 5c 3d
       0.09237483 -0.019723427 0.043593682 0.05382794
000130 25 d0 ed bc ae b1 d9 3d c9 d2 6b 3e 38 74 62 be
       -0.029029915 0.10629593 0.23029627 -0.22114646
000140 a3 68 38 3e 65 07 99 3e 41 55 98 be 53 e9 bd 3e
       0.18008666 0.29888454 -0.29752544 0.37092075
000150 a2 ac 23 bd 56 f5 b9 be 49 85 56 3e e6 a5 cc bc
       -0.039959557 -0.3631999 0.20949282 -0.02498145
000160 09 5e 08 be 9c ef ce 3d c5 ac 11 3e 7d 58 9d be
       -0.13317122 0.101042956 0.14226063 -0.30731574
000170 5c d5 b6 3e 65 40 75 3d 5c 02 3e be bd a2 d1 3e
       0.35709655 0.059875865 -0.18555588 0.40944472

decoder.2.bias f4 [8]
000000 cb e0 00 bd 0f 46 2b bd ad 15 0e be b7 10 77 3c
       -0.03146438 -0.04181486 -0.13875456 0.015079669
000010 21 d1 97 3c 13 73 72 bd 1c 7a d6 bd 22 b5 ee bd
       0.018532338 -0.059191775 -0.10472509 -0.11655642

mapping.weight f4 [400, 299]
000000 b3 d2 16 bd c9 cd 6e bc 60 11 75 3d c8 4b f3 3c
       -0.036822032 -0.01457543 0.059831023 0.029699221
000010 c1 d4 e4 3c 97 11 ed 3b cb f1 3b bd e7 3d 8a 3c
       0.02793348 0.007234763 -0.04588489 0.01687522
000020 2e bb 17 3d 97 01 a1 bc df c9 87 bc 64 3b dd 3c
       0.037043743 -0.019654078 -0.016575752 0.027005859
000030 b5 d0 a9 3c 9d 37 67 bb 1f ab eb 3b b6 75 4d 3d
       0.020729402 -0.003528095 0.00719203 0.050161086
000040 49 bd ae 3b cb 88 33 bd b9 52 98 3b 17 5d 72 bb
       0.005332623 -0.043831628 0.004648533 -0.0036981755
000050 11 0c 25 bd ee ef 71 3c 40 45 43 3d bb 11 d4 3c
       -0.04029471 0.014766676 0.047673464 0.02588736
000060 0d 0f 43 3d 09 9c 40 3b 98 cd cc bb 4c 5b b9 3c
       0.047621775 0.002938988 -0.0062500946 0.022626542
000070 47 2e ab bc bc 43 72 3a 4d 44 96 bc 34 43 14 3c
       -0.02089609 0.00092416606 -0.018343115 0.009049226
000080 c5 9a 74 3d 69 b4 ae bb 7f 83 04 bd 76 67 d6 3b
       0.059717912 -0.005331565 -0.032351967 0.006543095
000090 e3 ea b5 3b 7d 80 4a bb 21 47 6e bc b5 0d bd bc
       0.0055516823 -0.003089934 -0.014543326 -0.023077825
0000a0 64 23 da bc db c6 bc bc 51 6b 33 ba eb 3c 94 3b
       -0.026628204 -0.02304404 -0.00068442995 0.0045238636
0000b0 c3 db 78 3d 0c f4 81 bb 71 34 3e bd 3c 26 28 3d
       0.060756456 -0.00396586 -0.04643673 0.04105209
0000c0 dd e7 3a bc 44 b2 ef 3c 36 a7 82 bb 64 70 d4 bc
       -0.01140782 0.029259808 -0.0039872183 -0.025932498
0000d0 26 e5 d3 3c 20 2c e3 bc 5b 45 45 bd f8 4c 05 bd
       0.025866102 -0.027731001 -0.048161846 -0.032544106
0000e0 24 5e ef 3c 18 41 00 bd 87 d3 3c 3c 5a e1 93 3c
       0.029219694 -0.03131208 0.011525041 0.018051792
0000f0 a0 52 0a bd a5 d7 dd 3c 9e 50 39 bc 77 3d e8 3c
       -0.033770204 0.027080366 -0.011310725 0.028349621
000100 fc a9 51 3d 05 d5 fb 3c 06 35 d9 3c eb 63 df 3c
       0.0511875 0.030741224 0.026514541 0.027269324
000110 9a 55 b3 bb 31 08 ef bc bf fd dc bc 27 c1 ad 3a
       -0.005472851 -0.02917871 -0.026976464 0.0013256416
000120 05 fe 14 3d 4d a6 78 3b d0 41 c9 3c fe 55 92 3b
       0.036375064 0.003794092 0.024567515 0.0044658175
000130 ef 0c e3 bb a1 5e 57 bb 94 b5 2e 3c 5b 54 f2 bb
       -0.006929032 -0.00328628 0.010663409 -0.00739531
000140 8e ef 3c bc ce 2f a3 bc 82 8b e7 bc 71 75 c8 3c
       -0.011531724 -0.019920256 -0.028264765 0.024470063
000150 a2 c8 1c bd 4c 10 9a bc 4f 2b 37 3d e2 68 21 3d
       -0.038277276 -0.0188066 0.044719037 0.039406665
000160 ed 44 4a 3d 7a 5f 9c bb 0b e8 65 bb a4 21 54 bc
       0.04938214 -0.004772124 -0.0035080935 -0.012947474
000170 1e 23 6f 3b fd 29 a5 bb 5f d7 16 3d 09 54 cd 3b
       0.0036489437 -0.005040406 0.036826488 0.0062661213
000180 c0 52 b4 bc 9c 0d 35 3d 59 30 96 3c be 71 1c 3d
       -0.022012115 0.044202432 0.0183336 0.03819441
000190 05 92 48 bc d9 26 f5 bc ab b6 28 3d 78 b3 44 bb
       -0.012241845 -0.02992575 0.04118983 -0.0030014198
0001a0 91 b2 c9 bc 45 65 bf bb 7b 14 15 3c 85 60 65 3c
       -0.02462128 -0.0058409297 0.009099121 0.014000063
0001b0 94 f5 cb 3c 14 e0 c4 3a 78 4d bc bc c3 c3 49 bc
       0.024897374 0.0015020394 -0.022986159 -0.01231474
0001c0 7b 83 8e bb 37 7b a5 bc 88 ac af bc 4a cf da bc
       -0.00434917 -0.020200355 -0.021444574 -0.026710171
0001d0 ff 65 df bc ed 58 98 bc 7a 6a d2 3c 0d 53 27 3d
       -0.027270315 -0.01859709 0.025685538 0.040850688
0001e0 46 68 e7 bc fe 84 06 bd 8d 8a ea 3b 4c c9 2d 3c
       -0.028247964 -0.032841675 0.00715763 0.010607075
0001f0 1f 01 c5 bc 66 db 52 3c 2c d6 40 3c 76 5c 24 bd
       -0.024048386 0.0128696915 0.011769813 -0.04012724
000200 87 52 8b 3d d3 42 e6 3c 6e 18 4a bc 31 c9 2d 3d
       0.0680285 0.028108036 -0.012334926 0.0424282
000210 b0 8d b9 bc f7 38 c9 bc 62 56 c7 bc e1 db 29 bc
       -0.02265057 -0.024563296 -0.024333183 -0.010367365
000220 3c a0 09 3d 18 a0 17 3b 48 18 da ba b0 ce e8 3c
       0.033600077 0.0023136195 -0.0016639316 0.028418869
000230 27 cb 26 bb 2b a7 03 3d 0b b4 f2 3c 36 5c 79 bc
       -0.0025450678 0.032141846 0.029626867 -0.015219739
000240 c0 26 69 3c bd 66 aa bc c1 6f 4d 3c 4d 4f f3 3c
       0.01423043 -0.020800943 0.012538851 0.0297009
000250 7c 23 a6 bc 7f b9 b1 3b b6 e0 d1 3b 51 c5 f8 3c
       -0.020280592 0.005423724 0.0064049615 0.030367525
000260 1d 35 e4 3c 04 fa 13 3d 36 ec 99 3c 24 4e 4c bd
       0.027857358 0.036127105 0.018789392 -0.04987921
000270 85 9b 97 bc 70 cf 1a 3d dc 1f cf 3c 40 5f 41 3b
       -0.018506775 0.037795484 0.025283746 0.0029506236
000280 03 04 a9 3c 57 1d ab 3a 90 58 8d bc 1d 26 21 bd
       0.020631796 0.0013055009 -0.017254144 -0.03934299
000290 a1 ba 32 3c a2 da 87 3c 41 56 b8 bc 3f 80 c1 3c
       0.010908754 0.016583744 -0.022502067 0.023620723
0002a0 c8 c5 c3 3b 6b 42 6f bc 53 45 33 bd a6 1f 00 bc
       0.005974505 -0.014603238 -0.043767285 -0.007820046
0002b0 e9 72 fc 3c 5a e7 03 3b c9 2c a8 3c 63 98 0b bd
       0.030816512 0.002012691 0.020529168 -0.034080874
0002c0 d4 56 88 3c 96 f2 a9 bb 9f 53 fe 3b 08 1b 49 3d
       0.016642965 -0.005186389 0.0077614333 0.049098045
0002d0 dd e5 c2 3c 9b ef b4 3c 67 43 d7 bc 80 ad 2c 3d
       0.023791248 0.022086909 -0.026277257 0.04215765
0002e0 51 35 f6 3c e2 cc 48 bb 4b f2 ea 3c 8f 03 3a bc
       0.03005472 -0.0030639698 0.028679987 -0.0113533875
0002f0 ad 96 53 3c 1d d0 b9 bc ea e6 ce 3b c5 94 cb 3a
       0.012914342 -0.022682244 0.006314148 0.0015532008
000300 4a 1c b3 bc 05 77 0a bb 16 63 16 3d a6 de f1 3c
       -0.021864075 -0.002112807 0.03671559 0.029525112
000310 ab d8 50 bd c1 00 70 3c 12 4b 8d 3c 9e 5a f2 3b
       -0.05098788 0.014648617 0.01724771 0.0073960563
000320 39 39 e9 3c 81 ae 11 bd d9 57 7b 3c 02 63 96 3c
       0.028469669 -0.03556681 0.015340769 0.018357757
000330 83 11 40 3d 56 0f e5 3c cb 53 b1 bc 81 93 52 bd
       0.0468917 0.027961414 -0.0216464 -0.051410202
000340 8d 6f 31 bd 19 82 34 3d 6a 3c cd 3c c2 b7 62 bc
       -0.043319274 0.044069383 0.025053222 -0.013837757
000350 02 c5 0d 3d a1 94 4a 3c f2 11 f5 bc ee 3a 93 bc
       0.03461171 0.012364537 -0.029915784 -0.017972436
000360 ef c1 e8 3c d0 02 f4 ba d1 6b e8 3b 26 53 f3 bb
       0.028412787 -0.0018616561 0.007092931 -0.0074256836
000370 2c eb 0b 3d 32 3d 41 3d 98 f3 c9 3c a3 76 da bb
       0.034159824 0.0471775 0.024652287 -0.0066669746
000380 d7 d9 fd 3c b6 52 10 3d af 9b 26 bd a0 57 0c 3c
       0.030987663 0.03523513 -0.040675815 0.008565813
000390 59 16 6e 3d 23 e6 22 bd 88 ec d5 bc 27 6a 09 3d
       0.05812678 -0.039770257 -0.026113763 0.0335485
0003a0 2a 0c ca bc a8 d4 16 bd 6d 0f 6c 3d 0a df 83 bc
       -0.024664003 -0.0368239 0.0576319 -0.016097564
0003b0 a7 11 94 bc 46 d4 c6 3b 15 c1 a8 bc 37 bc 3a 3d
       -0.018074824 0.0060677854 -0.020599881 0.045589652
0003c0 02 31 cd bc bf c5 8c bd fb b8 0e 3d 67 db 0d 3d
       -0.025047783 -0.068736546 0.03484438 0.034633067
0003d0 e0 1f 50 3d 99 e4 be 3c 4a f9 04 bc 3c d8 86 3c
       0.05081165 0.023302363 -0.008116076 0.01646053
0003e0 9b 19 3a bc 41 7b 30 bd f8 c2 ef bc fb 27 ab bb
       -0.011358644 -0.043086294 -0.029267773 -0.005223272
0003f0 77 2f f0 3c 5b af 07 3d 7a ab cb 3c 9f 2b 90 bc
       0.029319508 0.033126216 0.02486204 -0.017598925

mapping.bias f4 [400]
000000 f0 d5 73 bb 41 a0 88 3c 41 ed 2b bc 47 c7 c2 3d
       -0.0037206374 0.016677978 -0.010493577 0.095106654
000010 69 92 1c 3d 7e 26 41 3d 09 69 09 3d cb 95 ec bc
       0.038225565 0.04715585 0.033547435 -0.02888002
000020 5f f7 b6 bc e2 94 e7 3d 61 1d 1d 3d 1c 23 df bd
       -0.022334753 0.11307694 0.038358096 -0.108953685
000030 8f 9b 5d 3d cc e2 5d bd 76 a5 1a 3d 2a f2 31 3d
       0.05410343 -0.05417137 0.037755452 0.043443836
000040 32 72 d0 bc 5d 92 ac 3d 24 1f 8e 3c c9 44 55 3c
       -0.025445078 0.08426354 0.017348833 0.013016888
000050 2b 10 84 bd 9b 86 85 bc c4 d2 20 bc 62 ed 27 bd
       -0.06448396 -0.016299536 -0.009815875 -0.04099787
000060 e3 a5 0e bb 17 c5 dc 3d b7 e2 19 3d 7b b0 b9 bc
       -0.0021766357 0.107797794 0.037569728 -0.02266716
000070 52 de bf 3b c4 88 d8 3d e9 3a 5e 3d 94 97 d8 3d
       0.00585536 0.10572961 0.0542554 0.10575786
000080 4c fb ab bd 2e b5 c2 3b 49 1d 44 bd 2a 8e d1 bd
       -0.083975405 0.0059420085 -0.04787949 -0.10232194
000090 64 b5 0d bd f6 79 9f bc 4c 8d 98 3c 52 3a c9 3c
       -0.034596816 -0.019467335 0.018622063 0.024563942
0000a0 d4 bf 2e 3d c0 d3 97 bd 9e a8 4d 3d e1 24 b6 3d
       0.04266341 -0.07413435 0.050209634 0.08893753
0000b0 2e fb c6 bd 03 43 99 bd 36 20 1e bc 75 6c 35 bd
       -0.097158775 -0.074834846 -0.009651234 -0.044292886
0000c0 2a 60 74 3c 48 6b ca bd 50 df 9a bc 74 76 a2 3d
       0.014915505 -0.098837435 -0.018905312 0.079327494
0000d0 89 36 c6 3d 57 cb a4 bd 9a 30 b8 3a c2 64 a6 bd
       0.096783705 -0.080465965 0.001405257 -0.08124687
0000e0 31 e3 f7 3c 36 a7 7f bd 0f fa a1 bd 32 4d 34 3c
       0.0302597 -0.062415324 -0.07909023 0.011004733
0000f0 9a da 05 3c 70 dd 2b 3d 9e 8e fb 3c ee 6c 3f bd
       0.008169794 0.041959226 0.030707654 -0.046734743
000100 cc 32 e7 bc af cf 88 bd 9b 23 39 3c d2 60 c1 bc
       -0.028222464 -0.066802375 0.011299993 -0.023605738
000110 de 1e 47 3d 5e a5 94 bd 41 db 54 3d 86 15 a6 bd
       0.04861342 -0.07258104 0.05196691 -0.08109574
000120 d0 20 c1 3c ba 71 0d bc 3f 33 21 bd 5a 0b fa 3b
       0.023575217 -0.008633072 -0.039355513 0.0076307477
000130 55 83 b3 3c 80 c5 6a bd f5 15 e9 bb 57 29 d5 bd
       0.02191321 -0.057317257 -0.007113213 -0.104082756
000140 a6 85 c7 3d ee a3 2e bd 8f b1 84 3d f0 67 ac 3d
       0.09742288 -0.042636804 0.06479179 0.08418262
000150 99 13 b3 3d aa 79 c5 3d 6a ea 24 bd c0 e9 b0 3d
       0.08743972 0.09642346 -0.040262617 0.08638334
000160 35 48 31 3d 87 3b aa 3d e3 97 b0 3d d8 c9 92 bc
       0.043281753 0.08312135 0.0862272 -0.017918512
000170 e8 cb 91 3c 8a 09 21 3d fa 75 68 3d c6 40 da bd
       0.017797425 0.039315738 0.056753136 -0.10656886
000180 30 6f 72 3d 5e 72 12 3d fe a8 1c 3d e4 2d 92 bc
       0.059188068 0.0357536 0.0382471 -0.017844148
000190 6e 9c 73 3c 4e 2c 54 bc fd 4b 26 3c 65 5b a2 bd
       0.014868839 -0.012950016 0.010149953 -0.079275884
0001a0 d4 2a 5d bd 57 d4 93 3d 63 ca c5 bd 50 bd e5 ba
       -0.053995922 0.07218235 -0.09657743 -0.0017527733
0001b0 e6 6a 86 3d be 95 c1 bd 96 dc d9 bd 4c 02 38 bd
       0.06563358 -0.09452389 -0.106377766 -0.044924065
0001c0 5a f5 15 bd 4a 03 02 bc dd ac a9 bd 9c 5b c0 bc
       -0.03661094 -0.0079353545 -0.08284924 -0.023481183
0001d0 c2 34 b9 ba 70 59 d1 3d 2e 9a 1b 3d 45 cd 57 bc
       -0.0014130103 0.10222137 0.037988834 -0.013171499
0001e0 ca 46 ec 3d 8e 97 ca bd a9 0f f3 ba 09 61 02 bc
       0.115369394 -0.09892188 -0.0018544096 -0.007957705
0001f0 2a c3 4a bd 27 a7 c2 3d c2 0f e2 bb 0a 14 87 bd
       -0.04950253 0.09504538 -0.006898851 -0.06595619
000200 77 ae 0a bd 43 de 87 bd 92 ff b5 bd 8a f1 85 3d
       -0.03385779 -0.0663419 -0.08886637 0.065402105
000210 56 c3 e9 3d cd ed 0b bd 49 39 6c bc 64 5d 77 bc
       0.114142105 -0.03416233 -0.014417955 -0.01509795
000220 4c c2 9d bc 12 df 9b bc 73 8d 42 3d 22 38 9f bd
       -0.019257687 -0.019027267 0.047498178 -0.07774378
000230 69 77 b7 bd 6e ef a0 3c b0 1c 14 bd 51 26 d2 bd
       -0.089583226 0.019645419 -0.03616017 -0.102612145
000240 f4 92 73 3d 87 83 bb 3d 29 cd 69 bd 9b f2 20 3d
       0.059466317 0.09155946 -0.05708042 0.039293867
000250 a5 a4 16 bd 6d 68 c9 3c 2a 7f 76 bd ae 2d d3 3c
       -0.03677811 0.024585927 -0.060179867 0.025778618
000260 43 d5 75 3d c5 d5 0f bc 54 45 de 3d 2b 3a dc bd
       0.060017835 -0.008778994 0.10853067 -0.10753282
000270 93 45 89 3d 98 57 22 bd 20 2a 9a bd 2c 91 0e bc
       0.06702723 -0.039634317 -0.07527566 -0.008701604
000280 e5 21 59 3b e6 a6 1a 3d 3e 04 a9 bd 0b 76 9a 3c
       0.0033131775 0.037756823 -0.08252762 0.018855115
000290 4e 43 22 bd 97 c0 08 bd 8f 25 fa 3c e1 d2 ce 3d
       -0.039614968 -0.033386793 0.030535487 0.10098816
0002a0 cc 60 b2 3d f8 fd a7 bd f3 cd 59 3d 3b 7a dc 3b
       0.08709869 -0.082027376 0.053174924 0.006728438
0002b0 f9 2f 64 3d f9 5d 33 bc 46 bc c0 bd c8 21 42 3d
       0.055709813 -0.010947698 -0.0941091 0.047395498
0002c0 85 78 61 3d 5a 0c c4 bc 33 4d f7 3c 0b 53 a6 3d
       0.055046577 -0.023931671 0.030188179 0.08121308
0002d0 81 2b 8d 3a c1 5a c3 3b 76 bd af 3d d7 64 2f bb
       0.0010770411 0.0059617464 0.08581059 -0.0026762986
0002e0 80 d6 14 3c bf ab 1e 3d 83 36 5a bc 6f 2f ab 3d
       0.009084344 0.03873801 -0.013318661 0.083586566
0002f0 38 6b e3 3d b8 e3 85 3d 40 06 99 bd 9d 0c eb bc
       0.11104435 0.065375745 -0.07471895 -0.028692538
000300 32 8d c2 3d 54 44 bf bd ed aa 5f 3c 5b 09 c5 3d
       0.09499587 -0.093392044 0.013651592 0.09620925
000310 ee 92 8d bd dc 3c 43 3d e0 5a b3 bb 1b 72 9a 3d
       -0.0691279 0.047665462 -0.0054734796 0.07541295
000320 7b 83 f8 bc 45 43 a2 3d f9 eb 15 bd f4 68 79 bd
       -0.030336132 0.07922987 -0.036601994 -0.060891107
000330 1a 77 ea bd 5d 2a e5 bd 79 1a c9 3d b6 c2 58 bc
       -0.11448498 -0.11189721 0.098195024 -0.013230016
000340 81 55 e9 3d d0 7c f6 bc f3 50 d7 bc 66 6f 8c bb
       0.11393262 -0.030088812 -0.026283717 -0.0042857407
000350 df 5b e4 3c 65 5e 58 3d 40 3f 20 bd a1 e2 c1 3c
       0.027875839 0.052824397 -0.03912282 0.023667635
000360 7e ef 24 bd 7f ed 93 bc b3 c3 a3 3d 29 75 8f bd
       -0.04026746 -0.018057583 0.07996311 -0.070047684
000370 76 49 12 bd ba 8e b1 3d 92 2e a2 3d 53 5a 76 bc
       -0.03571459 0.08669801 0.07919039 -0.015036183
000380 ec 4f b8 bd 2d bc 35 3d 67 22 72 bc 87 d5 89 bd
       -0.08999619 0.04436891 -0.01477871 -0.0673018
000390 25 9c c7 bc 5c 61 b9 3d ef 02 01 bd b9 a2 3c 3d
       -0.024366448 0.09051773 -0.03149694 0.046053622
0003a0 31 46 b3 3c 80 50 d7 bb e9 35 96 3d e7 35 c4 bd
       0.021884056 -0.0065708756 0.07334501 -0.095805936
0003b0 65 b5 89 3c 6e ca 15 3d 69 5f b0 3d 87 bb a8 bb
       0.016810128 0.036570005 0.08611948 -0.005149308
0003c0 27 3d c1 3c 6d ff c3 bb cc d8 d3 bc eb 23 4c bb
       0.02358873 -0.005981377 -0.025860213 -0.0031149338
0003d0 2e 2f 6f bd 91 3f c7 bd 1b b2 e2 3c 61 bc 08 bd
       -0.058394603 -0.09728921 0.027672818 -0.033382777
0003e0 50 ce ab bd b3 c3 d8 bb ad 63 09 bc 4b ad cb bd
       -0.0838896 -0.006615126 -0.008385581 -0.099451624
0003f0 b2 7c c3 3d 11 54 a0 bd ea 22 72 3d 37 dc a2 bd
       0.09545268 -0.078285344 0.059115328 -0.07952159

predictor.0.weight f4 [154, 299]
000000 7e 3f b4 3c 68 b2 9b 3c a1 5b 0c bc 1f ed 8c 3d
       0.022002932 0.01900597 -0.008566768 0.06881165
000010 bd 08 76 3c 28 ea 7e 3c 1c 30 ac bc d8 fc 8c bc
       0.015016732 0.015558757 -0.021019034 -0.017210409
000020 e4 90 a1 3c cf 33 27 3d 1c 00 18 3d 16 ba b0 bc
       0.01972241 0.040820893 0.03710948 -0.021573108
000030 8d c4 46 3d bf 52 86 3d 91 86 84 3d 8a de b6 3c
       0.04852729 0.06558751 0.06470979 0.022322912
000040 27 ec 5a 3d ad 1d 7e 3d 4c fc 88 3d 34 fe 5f bc
       0.05344787 0.06204002 0.06688747 -0.013671447
000050 5d 01 8a 3c 32 5c bc 3b 20 13 ae bc c3 59 e2 3c
       0.016846353 0.005748295 -0.021249354 0.027630692
000060 fe e2 83 3d aa d8 0e 3d ef 51 d7 bc 69 54 c1 3c
       0.0643978 0.034874596 -0.026284186 0.02359982
000070 33 46 f5 ba 11 1a be bc 07 9f b4 3b ef 99 39 3d
       -0.0018712938 -0.023205789 0.0055121216 0.04531282
000080 8f 9b a7 3c 57 8f 42 3d c3 54 93 bc 8f 05 f7 bc
       0.020459918 0.04749998 -0.017984753 -0.030154018
000090 5a 7a 32 3d 10 95 15 3c d6 f2 71 3c 09 e0 45 3d
       0.043573715 0.009129778 0.014767369 0.04830936
0000a0 ab 79 54 3b 76 a1 bf bc bc 55 52 3d cb ea 45 3d
       0.0032421153 -0.02339242 0.051351294 0.04831962
0000b0 f6 99 bc bc 3a a3 01 bd 86 80 22 3d d5 a5 4a 3d
       -0.023022633 -0.031649806 0.03967335 0.049474556
0000c0 91 8d af bc d6 5d 13 bc e1 95 3c 3c 9f 3d 53 3d
       -0.021429809 -0.00899454 0.011510343 0.05157244
0000d0 e2 25 55 3d fa d9 3e 3d 8d 7e 59 3d cd 40 6a 3d
       0.05203808 0.046594597 0.053099204 0.057190705
0000e0 ef f8 2c bc 96 86 70 bc 78 82 bb bc b6 f6 22 3d
       -0.010557397 -0.014680525 -0.02288936 0.039786063
0000f0 ae e1 a0 bb bf 24 1f 3d 24 a7 f5 3c 79 21 f0 3c
       -0.0049097156 0.038853403 0.029986925 0.029312836
000100 7d 82 ed bb db 3d dd bc 26 d6 71 3d a9 6f de 3c
       -0.0072482214 -0.027007034 0.05904212 0.027152853
000110 1e f1 21 3c 1b e7 53 3d 28 ba 7f 3d 4c d6 04 bd
       0.009884147 0.05173407 0.06243339 -0.032430932
000120 dc a5 02 3d 6e 42 8d 3d d7 96 eb 3c 4c 0d 40 bd
       0.031896457 0.06897436 0.02875845 -0.04688768
000130 f2 a1 8f 3d f9 78 7c 3d d6 b9 0d 3d 6c 7d f6 bc
       0.070133105 0.061638806 0.034601055 -0.030089103
000140 da c9 7e bb 51 40 de 3c 93 33 de bc 59 c5 d1 3c
       -0.0038877637 0.027130278 -0.027124202 0.025606798
000150 1e 3f 56 3b 04 7b c4 3c 60 5a 16 bd 27 4b a6 3b
       0.003269143 0.02398444 -0.036707282 0.005074877
000160 68 49 aa 3c f7 ec 07 3d a4 de 67 3d 30 e8 43 3d
       0.020786956 0.03318497 0.05660881 0.047828853
000170 03 b0 0e 3b f6 4a 20 bd 7d 5e e1 bc 16 11 c5 bc
       0.0021772392 -0.03913399 -0.027510876 -0.024055999
000180 30 e7 1c 3d bb ed 23 3d 4f 14 c0 3c 78 86 11 3d
       0.038306415 0.04002164 0.023447184 0.03552863
000190 b3 f1 2e 3c c9 1a 03 ba b2 9d 16 bd 1a 7e a6 3c
       0.010677743 -0.0005001245 -0.036771484 0.020323802
0001a0 bb 8e 93 bc 17 21 89 3d 3b 61 3b bd 43 34 e4 bc
       -0.018012395 0.066957645 -0.045747023 -0.027856952
0001b0 06 fc 7c 3d 92 78 cb 3c f9 bb 15 bd ac 96 ea bc
       0.061763786 0.024837766 -0.036556218 -0.0286363
0001c0 ce 9f 57 bc 99 d0 3f 3d 1d ce 5b 3d 7d 2e b7 3c
       -0.013160659 0.046829794 0.05366336 0.022361035
0001d0 3a a5 24 3c 6b c3 68 3d 22 b8 2b 3b ba ca c1 3c
       0.010049159 0.05682699 0.002620228 0.023656238
0001e0 0e bc 87 3d ea 0b fd 3a 82 2c 7a 3d 20 91 59 bc
       0.066276655 0.0019305919 0.061077602 -0.013279229
0001f0 11 0f 32 bc 29 b2 d1 ba f2 94 fa 3b aa f2 10 bc
       -0.01086785 -0.001599853 0.00764715 -0.008846918
000200 6c 3f 4c 3d cb 79 68 3d 90 de 95 bc 24 7a 1d b9
       0.04986517 0.056756776 -0.018294603 -0.00015018188
000210 fa cb d5 bc 55 2f 13 bd 13 5c c9 bc 9c f0 9f ba
       -0.02609824 -0.03593381 -0.024580037 -0.0012202444
000220 ce bb 26 bb ea 6c ec 3c 38 18 95 3c bf 59 cb 3b
       -0.002544153 0.028860528 0.018200025 0.006205767
000230 c0 e0 22 3d 8c e1 5b 3d 26 c7 33 bd 6c d8 3a 3d
       0.03976512 0.053681895 -0.043891095 0.045616552
000240 80 85 7d 3b f6 d6 93 3c 0f 3a 2a 3d 1a 82 3a bc
       0.0038684309 0.018046837 0.041559275 -0.011383558
000250 3d 8a f9 3c 2c 84 17 bd 20 f0 78 3d 6a 37 03 3d
       0.030461425 -0.036991283 0.060775876 0.03203527
000260 ed 5b 46 38 2f 2e 1b bd 5d 74 4c bc 3b 90 02 bd
       4.729249e-05 -0.03788584 -0.012478915 -0.03187583
000270 fe 83 7f 3d 6d d1 6f 3c 9c 18 83 3d a2 6f 29 bd
       0.062381737 0.014637333 0.06401178 -0.041366227
000280 60 bc d4 3b 90 f0 80 3d 0f 56 cc 3c f4 f9 9e bb
       0.0064921826 0.06295884 0.02494338 -0.004851574
000290 eb 19 02 3a c3 4b 43 3b 53 fc 81 bc 28 e9 10 3d
       0.00049629685 0.0029799796 -0.015867388 0.035378605
0002a0 bd 7d bf bc a2 45 a6 bc 76 15 5b 3d 1d 02 9f 3a
       -0.023375386 -0.020296875 0.053487264 0.0012131367
0002b0 85 bc eb 3c dc 02 3b bd 3f 4e ac 3a a6 60 76 3d
       0.028776417 -0.045657024 0.0013145878 0.060150765
0002c0 c4 a8 09 bb 77 85 db 3c a9 b1 b3 bc 07 b5 ec 3c
       -0.0021005133 0.02679704 -0.0219353 0.028894914
0002d0 7c fb db bc b8 a6 6c bc eb 64 d2 39 bb 5c 89 3d
       -0.026853316 -0.014444046 0.0004012951 0.0670714
0002e0 df 6b da 3b ee b4 58 3d 9b ce 05 3d 04 85 4a 3d
       0.0066656913 0.052906923 0.032667737 0.04944326
0002f0 5a 95 ba bc b0 3f 95 3c e4 8c 37 3d 51 f1 0f bd
       -0.022776294 0.018218845 0.0448121 -0.035142247
000300 57 6f 79 3c 04 20 19 bd 4d 43 42 3d 25 74 77 3d
       0.015224299 -0.037384048 0.047427464 0.0604135
000310 29 db a7 3c c1 ba e4 bc f4 ab 7c 3d 12 b7 57 3d
       0.020490246 -0.027921082 0.061687425 0.052664824
000320 94 7f 87 3d 40 fa 34 3d 68 3a 82 bc f9 db 03 bd
       0.066161305 0.04418397 -0.01589699 -0.032192204
000330 fe c4 8e bc b1 d9 cd 3b 96 18 e9 ba 3b 59 e9 bc
       -0.017427918 0.0062820544 -0.0017783816 -0.028484931
000340 85 b0 60 3c ee a7 65 3d 69 66 8c bc 77 9b 0e bd
       0.013713961 0.056068353 -0.017138677 -0.03481623
000350 42 95 ca bc cc e1 d4 bc a4 44 bb 3a 0d 00 40 3d
       -0.024729375 -0.025986575 0.0014287424 0.04687505
000360 35 9c 89 3d 3f 88 50 ba b2 41 dc 3c d8 7f 92 3b
       0.06719247 -0.00079548726 0.026886795 0.0044708066
000370 34 82 d4 bc 2f be 8a bc 06 89 f4 bc 8a cf 3c 3d
       -0.025940992 -0.01693639 -0.029850494 0.046096362
000380 38 f5 43 3d 69 2c 6c 3d d8 35 88 3d de 18 c2 3c
       0.04784128 0.05765954 0.06650895 0.023693498
000390 5f 40 5d 3d 86 22 02 3b f5 c4 ed 3b a2 77 ab bc
       0.054016467 0.0019857003 0.007256145 -0.020931069
0003a0 f8 1a de 3c 4d 16 96 3c 73 42 7d 3b 8b 40 e0 bc
       0.02711247 0.01832118 0.0038644343 -0.027374526
0003b0 b8 d6 81 3d 3c f2 8e bc 15 5d 3c 3d b4 d4 12 bc
       0.063397825 -0.01744949 0.045987207 -0.008961845
0003c0 2c 5f 59 3c d0 22 c2 bc aa 2a 31 3d 71 22 14 bc
       0.01326732 -0.02369824 0.04325358 -0.009041415
0003d0 90 23 0e 3c d6 3a 07 bc 16 01 5b 3d 97 23 2e bd
       0.008675471 -0.008253774 0.053467833 -0.04251441
0003e0 3d bb 3d 3c f7 1e 85 bc 3a 8b c5 3c d8 21 28 3d
       0.011580286 -0.016250117 0.02411424 0.0410479
0003f0 2b ba 6b 3d 91 93 df bb 39 6f f6 3b d4 8c f8 3c
       0.05755059 -0.006823011 0.007520583 0.03034059

predictor.0.bias f4 [154]
000000 98 10 08 bd cd ba 08 bd ea 70 06 bd 44 35 32 3b
       -0.03321895 -0.033381272 -0.032822527 0.0027192393
000010 aa 51 3e 3d 66 2b ba bc e8 65 cd bc cf a9 6d 3d
       0.0464646 -0.022725772 -0.025073007 0.05802327
000020 41 6b 44 3b 90 82 9e 3c 13 be e0 3d 5c 38 04 3b
       0.0029971155 0.019349366 0.10973754 0.0020175194
000030 46 16 31 bb 80 c2 55 3d e1 44 a6 3d 78 27 03 3d
       -0.0027021333 0.052187443 0.08118606 0.032020062
000040 85 51 e1 bc b6 ff 7b 3d 9f 84 9d bb 69 ce c2 bc
       -0.027504692 0.06152316 -0.0048070694 -0.023780065
000050 9f 84 ac bc d2 29 04 3b af e6 c4 bc 5d b7 a4 bb
       -0.021059332 0.0020166528 -0.02403578 -0.0050267414
000060 10 96 b8 3c fe e4 2f bb 62 98 1b bd 55 d6 3a bd
       0.022532493 -0.002683937 -0.03798712 -0.04561456
000070 08 df 4e 3d 89 9e 07 3a 1f 57 92 3d 9b 86 ca 3c
       0.050505668 0.0005173465 0.07145523 0.024722388
000080 77 39 db 3c 84 7b ae 3b 95 8e 9d bc 73 7d 72 3d
       0.0267608 0.005324783 -0.019233027 0.05920167
000090 d9 85 38 bb f3 29 8d 3c f3 15 1f bc e4 5a 2b 3d
       -0.0028155951 0.017231917 -0.009709823 0.041834727
0000a0 f8 2e 66 3c 4c 72 71 3d c5 5b 3a bc 91 33 d9 3c
       0.014049284 0.058946893 -0.011374419 0.026513847
0000b0 98 d2 58 bc 64 da d2 3c 21 66 a9 3c e8 e3 f0 3c
       -0.013233803 0.025738902 0.020678582 0.02940555
0000c0 d9 ad b8 bc ab 8c 4f 3c 4a 20 04 bd 06 3a c3 bc
       -0.022543835 0.012667815 -0.032257356 -0.023831379
0000d0 0c d3 20 bc ed df 11 bc 5a dc 1b 3d d9 91 3e 3d
       -0.0098159425 -0.008903486 0.03805194 0.04652581
0000e0 df 73 ee bc f8 13 2e 3d 12 0b 5a 3d 8b 7b 23 bd
       -0.029107986 0.042499512 0.053233214 -0.03991274
0000f0 fc 98 11 3d 25 49 8a 3d f5 5f dc bc a8 53 41 bc
       0.035546288 0.067522325 -0.026901225 -0.01179973
000100 bb 15 34 bd ad cd 49 3d a2 52 a9 bb 0b 31 a5 bc
       -0.043966036 0.049268413 -0.0051673213 -0.020164987
000110 42 8e f7 3b b4 79 e1 bc b8 1f 25 bd b4 7a 1d 3d
       0.0075548002 -0.027523853 -0.040313452 0.038447097
000120 0e 3a 57 3d 24 59 15 3d bf 45 a1 3c 15 eb 05 3d
       0.0525456 0.036461964 0.019686578 0.032694895
000130 13 aa 9a bc 9c 8d 09 ba 96 f8 07 3c dd e9 18 3c
       -0.018879926 -0.00052472367 0.008299014 0.009333101
000140 de c7 88 3d 3b bc ce bc ba f1 90 3d 0c 24 1d 3d
       0.06678747 -0.02523624 0.07077356 0.038364455
000150 ac 21 59 3d 5d 13 d1 3c 7d 4f d8 bc d0 a8 7a 3d
       0.053010628 0.025521928 -0.02640509 0.06119615
000160 54 6a a5 bb a5 a9 96 bc 65 1b 09 bd 01 91 bc bc
       -0.0050480757 -0.01839144 -0.03347339 -0.023018362
000170 ed 0a 01 3d 49 e6 bd bc fc 09 72 3c 8b 46 a7 bc
       0.03150456 -0.023181098 0.014772888 -0.02041938
000180 7d 91 5d bd fd 86 67 3d 54 ff 05 bd f7 74 60 3c
       -0.054093827 0.05652522 -0.032714203 0.013699762
000190 4e 48 4e bc aa 6c 8b 3a 3e 00 12 bd 74 37 8c bd
       -0.012590481 0.0010637243 -0.035644762 -0.06846514
0001a0 85 6a 4d 3d 7b d1 3a bd f7 77 86 3a 6c 44 0a 3d
       0.050150413 -0.045609932 0.0010259141 0.03375666
0001b0 80 2b 25 3c d7 22 3d 3d ae 22 68 3d 11 b2 77 3d
       0.010081172 0.046175804 0.056673698 0.06047255
0001c0 80 9a 1f bd 51 ea 9a 3c bd 8c c9 3b 01 70 52 3d
       -0.038965702 0.018910559 0.0061508105 0.051376346
0001d0 c6 6d 17 3d 68 25 b9 bb 92 61 f7 bc 0a 17 50 bd
       0.036969922 -0.005650211 -0.030197892 -0.05080322
0001e0 b0 5b a0 3c c0 bc b5 3d 83 5a a9 3a 7b 1b 4b 3d
       0.01957497 0.08873892 0.0012920651 0.049586754
0001f0 85 2c 1e 3d f7 8c 45 3d 2f ab d7 3b ba e4 24 bd
       0.038616676 0.048230138 0.006581686 -0.040257193
000200 04 34 10 3d a2 b4 f1 3b 5a 76 f4 bc b8 b2 91 3d
       0.035205856 0.0073762694 -0.02984159 0.07114166
000210 bc aa 17 3c 9c a3 e7 bc b2 f1 6e 3d 0a e8 d7 3c
       0.009257015 -0.028276257 0.058335967 0.026355762
000220 6a 9b 21 3d 39 c0 30 3d 92 e1 02 bd 0b a1 bd bc
       0.039454855 0.043152068 -0.031953402 -0.02314808
000230 61 0a 00 3c 7f 30 e8 bc 23 83 92 3c 47 f9 14 bd
       0.0078149745 -0.028343437 0.017884796 -0.036370542
000240 33 4b 43 3d eb 0c 9d bb 1b dc 25 bd 20 3a 9f bb
       0.047679137 -0.0047927997 -0.040493112 -0.004859224
000250 dd d1 69 3d 8b d9 87 3d 74 9b cc 3c 01 6c af 3c
       0.057084907 0.0663329 0.02497647 0.021413805
000260 22 55 0d bd 6c 32 bf bc
       -0.034505017 -0.023339473

predictor.2.weight f4 [8, 154]
000000 ba cc 1b bc 50 9b 0e 3d f5 2a 52 bc 72 1a 5b bc
       -0.00950926 0.034816086 -0.012827625 -0.013373004
000010 6d 43 bb 3d 8a b0 30 bd ee 73 b4 3d f3 96 5e bd
       0.0914372 -0.04313711 0.08811174 -0.054343175
000020 a3 61 d6 3c 7f a5 e1 3c 8a db 56 3c 3e 92 01 bd
       0.026169604 0.027544735 0.013113866 -0.031633608
000030 87 c6 36 bd 48 26 36 3c d3 48 de 3d eb f5 cd 3d
       -0.044622924 0.011117525 0.10853734 0.10056671
000040 1a a7 89 3d 46 11 4f bd b9 46 5f bd a6 9a 46 3d
       0.06721325 -0.050553583 -0.054510806 0.048487328
000050 e7 b9 44 bd 14 25 2a 3d 51 0b e0 bc b7 74 b9 3d
       -0.048028853 0.041539267 -0.027349146 0.09055465
000060 96 2e 22 bc a8 c5 97 bd 7b 7d 04 bc 7b f8 34 bd
       -0.009898802 -0.07410747 -0.0080865575 -0.044182282
000070 9e ed 16 bc 70 e7 61 3d 50 7e 57 3b 2b bc 8a 3d
       -0.009211926 0.055152357 0.0032881685 0.067741714
000080 bc b1 b5 bd 16 4d 14 3d e4 65 99 3d ce 51 08 3d
       -0.08871791 0.036206327 0.07490137 0.03328114
000090 97 d0 55 3b 47 81 28 3b 70 46 42 3d 08 d4 63 bd
       0.003262555 0.002571182 0.047430456 -0.05562213
0000a0 1e 54 f8 bb 75 cb b3 bd e6 00 1f 3b be ab 80 bc
       -0.007578387 -0.08779041 0.002426201 -0.015706893
0000b0 a0 2b af 3d f5 82 87 bc 2a 11 dc 3d c3 42 00 3d
       0.08553243 -0.016541937 0.10745461 0.03131367
0000c0 37 7b 7d 3d aa a3 d1 bc 9e 56 b0 bc 94 67 a1 bc
       0.061885085 -0.025590736 -0.021525677 -0.01970271
0000d0 26 3f 21 bd 6f 7a 90 3c e5 b1 26 3d c9 83 96 bc
       -0.039366864 0.017636506 0.040696997 -0.018373387
0000e0 f3 33 13 3d a8 fe 28 bd ae 0f 91 3d d8 27 6a 3c
       0.035938215 -0.041258484 0.07083069 0.014291726
0000f0 50 e4 f9 3c 3a 3d 09 3d fa 62 06 ba d9 0b 0f bd
       0.030504376 0.033505656 -0.0005126443 -0.03492341
000100 e0 c0 92 bd 86 cf 80 bd 77 a9 6c 3d 17 9b 99 3a
       -0.07165694 -0.06289582 0.0577788 0.0011719194
000110 7c 45 b9 bd 1e 48 e0 3c 6d 4d 14 bd 58 0b 23 bd
       -0.09046456 0.027378138 -0.03620665 -0.03980574
000120 c9 08 79 3d 09 1d e6 3c d0 c2 09 3d 92 38 4d bd
       0.060799394 0.028090017 0.033633053 -0.050102778
000130 dd 2f 30 bb 53 d6 8f 3d e4 d6 ac 3d c1 4d 52 bd
       -0.0026883997 0.07023301 0.08439425 -0.051343683
000140 ac 31 8a 3d 10 a7 6f bd c7 6c a0 3d 14 5d 46 bd
       0.067477554 -0.058508933 0.07833248 -0.04842861
000150 84 78 0a bd 9b 01 ec 3c 22 fc bd 3d b8 82 4b bd
       -0.03380634 0.02880936 0.09276606 -0.04968521
000160 4d 6e 11 3d 90 78 85 bd 11 c1 b5 bd b9 11 9f 3d
       0.03550558 -0.06517136 -0.08874715 0.07767052
000170 31 17 84 bd ca a0 4b bd d5 2e 3e 3d 5f 58 9c 3c
       -0.06449736 -0.049713887 0.04643138 0.019085107
000180 08 5b 06 bb 0d 34 32 3c 34 94 94 bc 87 6f c7 bd
       -0.0020501036 0.010876668 -0.018137075 -0.09738069
000190 15 d8 c5 bc 34 e0 78 bc 8a c1 84 bd 6f ac 64 3a
       -0.024150888 -0.015190173 -0.06482227 0.00087232044
0001a0 8b 61 33 3d 2c e9 c0 3c 75 fb 16 be b7 98 3c bd
       0.043794196 0.023548685 -0.1474436 -0.046044078
0001b0 cc b8 50 3d 4a 58 a9 bc 80 47 40 3c 30 db 0f bd
       0.050957486 -0.020671982 0.011735797 -0.035121143
0001c0 98 f5 dd 3c c2 87 af 3d 1c 04 74 bc 62 d7 7b 3d
       0.027094647 0.085708156 -0.014893558 0.061484702
0001d0 ea 25 5e bc a0 a5 c5 3c e5 cb c6 3d 69 41 c2 bc
       -0.013558844 0.024126828 0.097068585 -0.02371283
0001e0 b1 18 09 bd 33 6e 98 3d 26 fe 9b bb 08 3c 7d 3c
       -0.033470813 0.07442894 -0.0047605215 0.015456207
0001f0 26 40 b7 3c 99 2f 0b bc ce 52 a7 bd ca 6e 07 3d
       0.022369456 -0.008495235 -0.081700906 0.03306464
000200 3c 78 f8 3c 47 f4 e2 bc 07 3e c1 3d fd 28 63 3d
       0.03033077 -0.027704371 0.09435659 0.05545901
000210 2a 27 1f bd 85 7f ab bc e2 0d 99 3d 16 d9 5b bd
       -0.03885571 -0.02093483 0.07473351 -0.053673826
000220 17 e9 03 3d ae 71 81 bd 13 56 6b 3c fa 62 66 3c
       0.032204714 -0.06320511 0.014363783 0.014061684
000230 fa 64 6d bc 94 57 77 3d e3 b1 55 bd 3a cb 9c bd
       -0.014489407 0.060386255 -0.0521716 -0.0765595
000240 3d 45 db bd 7a cb 45 bd 6d 39 92 3b 2f 6e f0 3d
       -0.107065655 -0.048289753 0.004462412 0.11739766
000250 e9 cc 36 3c 64 5f 45 bd 3f 5c 57 bd 6a 67 d4 3c
       0.011157253 -0.048186675 -0.052578207 0.025928218
000260 2e 18 47 ba a8 60 3a bd 41 c5 48 bd b5 73 06 3c
       -0.00075948506 -0.045502335 -0.04901624 0.008206298
000270 06 fe 5c bc ef 14 d9 bc 18 08 d6 3c 76 ce 30 3d
       -0.013488298 -0.02649924 0.026126906 0.043165646
000280 f8 10 7c 3d 84 ba fa 3b af dd 8a 3c ca c6 e1 3c
       0.06153962 0.007651629 0.01695141 0.02756061
000290 78 84 d5 bd d6 9f 80 3d b0 45 09 bd 42 03 b2 3d
       -0.10425657 0.06280486 -0.033513725 0.08692028
0002a0 35 aa c9 3d 0b e3 33 3d 56 8f e8 3c ba 8e df bc
       0.098469175 0.043917697 0.02838866 -0.027289737
0002b0 fe 07 97 bd c5 24 08 3c c9 07 58 bd 3e e5 ab bd
       -0.07374571 0.008309548 -0.0527418 -0.08393334
0002c0 91 47 e8 3d 1d 86 b8 3d a9 93 c0 3d 50 ea 8b bd
       0.11341775 0.09009955 0.09403164 -0.06831801
0002d0 9b a8 7f 3d e2 a6 1f 3c 22 45 78 3d cf 20 e7 3c
       0.062416654 0.009744378 0.060612805 0.028213887
0002e0 5e f6 18 3d cd cd c7 bc be 3c d8 bd 08 4f ab bc
       0.03734433 -0.024390126 -0.10558461 -0.020911708
0002f0 26 d0 21 3d 2e b9 3d bd 88 61 8b bb a2 16 09 3e
       0.039505146 -0.04631918 -0.00425357 0.1338754
000300 45 95 e1 3a 79 2a 6f bd e9 4e b0 bc 4f 40 6d bd
       0.0017210623 -0.058390114 -0.021522002 -0.057922658
000310 83 ee 02 3e c0 52 3a 3c 95 81 e5 3d b2 1d 0d bd
       0.12786298 0.011372268 0.112063564 -0.034452148
000320 d7 c6 1e 3e 83 04 18 3d 14 03 5a bc 6c 36 d1 bd
       0.15505539 0.037113678 -0.013306398 -0.10215458
000330 2a 14 a1 bd 7d 31 91 bd 3f c6 f6 3c 74 49 8c bd
       -0.07865174 -0.07089517 0.030123828 -0.068499476
000340 58 34 a1 3d ad 15 29 3d c3 35 9c 3d 60 7f 95 3d
       0.07871312 0.041280437 0.07627442 0.072996855
000350 9b 1d 98 3d ae 87 52 3d c9 5e 6c bc d0 ff 43 3d
       0.07427522 0.051398925 -0.014426895 0.047851384
000360 c7 fb 02 3e 64 a6 a8 bd a2 c7 69 3d 3c 0f d5 3b
       0.12791358 -0.082348615 0.05707515 0.00650206
000370 b4 fb b0 3c b4 0e 56 3d 16 7d 37 bd e8 0a 9d 3d
       0.021604396 0.052260116 -0.044797026 0.07668096
000380 35 5d a1 bc 59 62 5a bd 48 14 80 3d 54 8f 0d 3d
       -0.019697765 -0.053316448 0.06253868 0.034560516
000390 a3 0a 9c bd b7 d3 07 3d 4a bc 25 bd 92 ea 30 bd
       -0.07619216 0.03316089 -0.04046277 -0.043192454
0003a0 59 0c c9 3c c7 4a 42 3d 19 89 ae bc 68 87 96 bd
       0.02454202 0.047434594 -0.021305608 -0.073500454
0003b0 dd 19 d9 3d 0a 45 29 3c 9a e2 c1 bc d3 92 14 bd
       0.10600636 0.010331402 -0.023667622 -0.036272835
0003c0 ad a1 a1 3d e2 21 95 3d fa 17 a6 3d 18 99 d9 3c
       0.07892165 0.07281853 0.08110042 0.026562259
0003d0 68 4e c7 bb 4b fe a7 3d 79 22 c9 bd 37 8a 3a bc
       -0.006082345 0.082027994 -0.09821028 -0.011385492
0003e0 46 26 33 bd 32 e8 8d bc 3c 9a 2d bd c5 fa f8 3d
       -0.043737672 -0.017322633 -0.042383417 0.121572055
0003f0 bb 61 91 3d e5 a2 f3 bd 83 44 e3 3c 55 24 20 3d
       0.07098719 -0.11896304 0.02774263 0.03909715

predictor.2.bias f4 [8]
000000 59 ea 82 bc ef 23 1b 3c 37 ba 29 bb ae 9d 28 3d
       -0.015980886 0.009469016 -0.0025898346 0.041166
000010 0d ce 78 3b a3 d6 ac 3a 06 a4 27 bd b3 b5 03 bd
       0.0037964613 0.0013186525 -0.04092791 -0.032155704

classifier.0.weight f4 [151, 299]
000000 2f 49 0b 3e 76 7b 99 bd 1b 4a e3 3d 52 ce 95 bd
       0.13602136 -0.074942514 0.11098119 -0.07314743
000010 8f a8 3c 3d bf d0 19 bd 85 f5 ec 3d fc e0 c7 bd
       0.046059188 -0.03755259 0.11570267 -0.09759709
000020 40 07 87 3d 28 7b db bd 2c 5e 96 3d a3 55 b8 bd
       0.0659318 -0.107168496 0.073421806 -0.09000709
000030 c6 5f 44 3d c8 53 f6 bd e1 fd f5 3b c3 45 aa bd
       0.0479429 -0.12027699 0.0075070714 -0.08314087
000040 8a 35 e6 3d 27 78 92 bd 82 f7 90 3d 45 f9 12 bd
       0.112406805 -0.071518235 0.07078458 -0.035882253
000050 c0 5b 5e 3d 49 3d 98 bd 27 b5 9e bc 5f 62 51 bd
       0.05428672 -0.07433564 -0.01937349 -0.051119205
000060 8f 4f 67 3d b0 f9 84 bd dd 40 dc bc 09 60 45 bd
       0.056472357 -0.064929366 -0.026886398 -0.04818729
000070 14 7f 08 3d 8a 4d 7a bd 21 2d 39 3d 3d 3c 3d 3d
       0.033324316 -0.061109103 0.045209054 0.046200026
000080 9e fc 1f bd 67 e0 e5 bc 2d 6c b6 3a 2e 2c b0 3d
       -0.039059274 -0.028061105 0.0013917737 0.086021766
000090 ce f0 84 bd 0e e5 8b 3d f7 18 f3 bb 39 26 82 3d
       -0.06491242 0.06830798 -0.0074187475 0.06354947
0000a0 8e cb 25 bd 9a 48 5f 3c 8f e7 56 bd 50 aa c7 3d
       -0.040477328 0.013628149 -0.052466925 0.097492814
0000b0 3a c2 08 be 2e d7 b4 3d 82 0b b6 bd 7e 91 c2 3d
       -0.13355342 0.08830105 -0.08888914 0.09500407
0000c0 4f 73 0d bd 9c 74 a6 3d 1e 81 a8 bd 62 1d 89 3d
       -0.034533795 0.0812771 -0.08227752 0.066950575
0000d0 b8 fd 9a bd 90 7f df 3c 63 9d 50 bd e9 9c 97 3d
       -0.07567924 0.027282506 -0.050931346 0.07402975
0000e0 67 5d 8e bd df 4f 0c 3d f7 d9 46 3a 69 b3 c6 bc
       -0.06951409 0.03425586 0.000758558 -0.024255471
0000f0 a3 ba 3a bd d8 77 b8 bc df 94 d3 3c eb 02 f4 3c
       -0.045588147 -0.022518083 0.025827823 0.029786548
000100 9f 46 50 3d 52 1a 0c 3d 49 5f 8a 3b e7 91 c5 bb
       0.0508486 0.03420479 0.0042227847 -0.006029356
000110 51 f3 7e 3c 6a 6c 18 bc 0f 7c e1 3c 78 91 78 bc
       0.015560941 -0.009303192 0.027524976 -0.015171401
000120 63 79 52 3d 0b d1 34 bb 4d 82 d7 bc dd 26 ba 38
       0.051385295 -0.002759042 -0.02630725 8.87641e-05
000130 34 01 c7 3c 66 92 b0 bc b9 cd cc 3c 34 18 45 3b
       0.024292566 -0.021554183 0.02500044 0.003007424
000140 4f 0e 3b bd 65 d6 49 3c 53 af 52 3d e9 6f 00 bd
       -0.045667943 0.012319182 0.051436733 -0.031356726
000150 a2 c3 60 3d d5 c9 57 3d c2 fa 20 3d 83 7e 91 3d
       0.05487407 0.052682716 0.03930164 0.07104208
000160 8c c2 24 bd 23 3e 0b 3d 0c 31 72 bc a8 47 82 3d
       -0.040224597 0.033994805 -0.0147822015 0.063613236
000170 79 1f da 3c f7 20 0b bd 91 65 8f 3b 7e 68 93 3d
       0.026626335 -0.033966985 0.0043761213 0.07197665
000180 b6 d8 e1 bc 55 d3 98 3d 36 57 f4 bd a5 68 8c bb
       -0.027569156 0.074621834 -0.11930697 -0.0042849355
000190 a2 7a 34 bd f2 f2 b4 3d ba 66 27 3c 63 c6 d1 3c
       -0.044062264 0.08835401 0.010217363 0.025607293
0001a0 74 b1 67 bd 8c 34 e0 3c d4 af 63 bd 32 15 c3 bc
       -0.056565717 0.027368806 -0.055587605 -0.023813818
0001b0 5b 33 32 bb 97 3c cc ba 7f d2 79 3d ab 4e 8b 3c
       -0.0027191255 -0.0015582022 0.06099176 0.017005285
0001c0 de ad 8e 3d 7d fe 82 bd 9e 51 d0 bc 1a b5 4d bd
       0.06966756 -0.06396196 -0.025429543 -0.05022154
0001d0 51 cd 4a 3d f1 dd f1 bd 65 21 1b 3d cb 09 77 bd
       0.04951221 -0.1180991 0.037873644 -0.060312074
0001e0 d5 4e b5 3d fa 6c cf bd 23 c0 54 bb 25 38 4b 3c
       0.08852927 -0.101282075 -0.0032463155 0.012403523
0001f0 78 82 89 3d 23 c6 16 bd 1a 00 a6 3d fd 50 1e 3d
       0.06714338 -0.03681005 0.08105488 0.038651455
000200 b7 7c 0b 3d 45 0e 33 bd 54 b8 c9 3c 94 3e 21 3d
       0.034054484 -0.04371478 0.024624027 0.03936632
000210 81 1d b0 bd e6 68 0d bd 55 29 99 bd 83 93 81 bc
       -0.085993774 -0.034523867 -0.074785866 -0.01581741
000220 30 eb 8f bd 6a ba b1 3d ea 2f 96 bd 8f af b9 3d
       -0.0702728 0.08678134 -0.07333358 0.09066688
000230 72 e0 3f bd 59 8a 8a 3d 38 6e 84 bd d0 19 90 3d
       -0.046844907 0.06764669 -0.06466335 0.07036173
000240 52 0c f1 bc a5 9c 41 3d 02 33 20 bc f6 46 0c 3d
       -0.02942482 0.04726853 -0.009777786 0.03424736
000250 27 96 86 bd b9 78 c9 3d d7 30 7f bd 5f 9d 5b 3c
       -0.06571608 0.09837479 -0.062302437 0.013404219
000260 39 0e d3 3b 19 25 1f bc 5b 7b 15 bd 84 ba a1 3c
       0.0064409045 -0.009713435 -0.036494594 0.019742258
000270 f4 d8 e5 3c e0 4b d7 bc d6 52 91 3c b5 5d 09 bc
       0.028057553 -0.026281297 0.017739695 -0.008384158
000280 22 4c b4 3c d5 a7 e7 3a cc c7 a2 3d a8 b9 bb bd
       0.02200896 0.0017673919 0.079482645 -0.091662705
000290 3f c8 c2 3d ff 99 9e bd 20 3a a4 3d ae a1 32 bd
       0.0951085 -0.07744216 0.08018899 -0.04361122
0002a0 3e 3d 9e 3d a8 c1 c2 bd a0 de 01 3c da e6 21 bd
       0.07726525 -0.09509593 0.007926613 -0.039526798
0002b0 d2 10 92 3d c3 c4 b1 bd 70 2e d6 3c 0f a2 9a bc
       0.071321145 -0.086801074 0.02614519 -0.018876104
0002c0 04 df c3 3d 23 e3 a1 bb cc 2b f7 3c 69 90 16 3d
       0.09564021 -0.004940407 0.030172251 0.036758814
0002d0 42 04 bc 3c 31 c1 74 3c 1a df 3c 3d 7d 9d 27 3d
       0.022951249 0.014938639 0.046111204 0.040921677
0002e0 82 7c 65 ba 4d 02 02 bc 01 12 a5 bd 58 7d 73 3d
       -0.000875421 -0.007935119 -0.080600746 0.05944571
0002f0 ba 43 8b bc 6e 95 88 3c 1d 0e ae bc 4b 9b 36 3d
       -0.017000068 0.016672816 -0.021246964 0.044581693
000300 a1 5c bb 39 f6 33 be bb 3c f2 65 bd c7 49 96 3d
       0.00035736433 -0.005804534 -0.056139216 0.07338291
000310 d2 0a ea bc 21 89 78 3d 60 bb 39 bd 1c 1c a0 3c
       -0.028569613 0.06067765 -0.04534471 0.019544654
000320 d1 85 ab 39 ea 69 da bc 09 56 c1 bc 10 2b 87 3c
       0.00032715363 -0.026661832 -0.023600595 0.016500026
000330 45 51 de bc 2c f8 cd 3c 8e 8a 1d bd 77 e4 10 3d
       -0.027138362 0.025142752 -0.038462214 0.03537413
000340 92 72 1f bd 52 af 3c 3d 88 07 43 bd 21 af c7 3c
       -0.038927622 0.046065636 -0.047614604 0.0243755
000350 3d 79 c6 bc 98 8c 81 3c 91 a2 42 3d 99 f5 4b 3d
       -0.024227733 0.01581411 0.047518317 0.049794767
000360 a2 cb d6 bc 35 c6 01 3d b7 4b 5b bd 8d 7c 31 bd
       -0.026220147 0.031683166 -0.053539004 -0.04333167
000370 2f cb 17 3c af 37 00 3d d1 51 18 3d 43 9e 29 bd
       0.009264751 0.031303104 0.0371874 -0.041410696
000380 b3 1e bc b9 2d e7 24 bd f7 27 51 3d 6a 43 3f 3c
       -0.00035881027 -0.04025953 0.051063504 0.011673788
000390 eb 3e 9a 3c e5 c6 00 bd 9c 4b 10 3d 02 8b 9a bd
       0.01882883 -0.03143968 0.035228357 -0.07546045
0003a0 c1 6d 6f bb e0 8f 5f bd 89 53 66 3d 3a 9c e5 3c
       -0.0036533924 -0.05458057 0.05623201 0.028028596
0003b0 7a e0 a1 3c 5c 87 85 bd 6d bb ad 3d da c1 83 3b
       0.01976036 -0.065199584 0.08483014 0.0040209116
0003c0 d1 8b 2e 3d a3 9a ce bc 3b 8e 88 3c 4b 82 9a bd
       0.042613808 -0.02522022 0.016669383 -0.07544383
0003d0 f2 56 39 3b a9 a8 43 bc 40 7c 85 bb c2 0c b1 bd
       0.0028280583 -0.011942067 -0.0040736496 -0.086450115
0003e0 46 24 99 3d ee 7e de 3b 7d fb 54 3d 6a b6 59 bc
       0.07477622 0.0067900335 0.05199765 -0.01328812
0003f0 be cf 94 3d 42 d6 82 3b 3a 5b fe 3c 8c f5 1f bd
       0.07266186 0.0039928267 0.03104936 -0.03905253
