Trained_Models_CLODC/0/ConvAutoencoder_100.pth (torch, 129019 bytes, 13 tensors)

encoder.0.weight f4 [4, 8, 3]
000000 1c 8d 09 3f de 07 54 bf 4b b1 1c 3f d0 84 68 3d
       0.5373094 -0.82824504 0.6120803 0.056767285
000010 60 ac db 3d 5d f0 54 be 91 62 81 be 65 c0 2d be
       0.10726237 -0.20794816 -0.25270513 -0.16967924
000020 40 3d da bd 50 0d e0 3d 75 12 0a bf ce 8c 1a be
       -0.10656214 0.10940039 -0.53934413 -0.15092775
000030 26 5a 6a 3e ac e2 80 bf 6a 9a 21 bf cf c7 ac bd
       0.22885951 -1.0069175 -0.6312624 -0.08436548
000040 b4 f2 37 3f d1 5f bd be 0c 55 16 3e de 31 85 3e
       0.7185471 -0.36987165 0.1468088 0.26014608
000050 4a 9e 7f 3e 3e 54 83 bd fe a4 b6 3e e3 07 0e 3f
       0.24962726 -0.06412552 0.35672754 0.55480784
000060 b4 63 99 ba f3 e6 dd 3e 57 f1 9a be 19 09 e8 bd
       -0.0011702687 0.43340263 -0.30262253 -0.1132986
000070 68 bf 87 be c8 d1 ea 3e 05 68 fb 3c 97 fa 2d 3e
       -0.2651322 0.45863175 0.030689249 0.16990124
000080 91 77 36 3d af 9c 33 be 34 74 94 3d c0 5c 11 be
       0.04454762 -0.17540239 0.072487265 -0.14195538
000090 61 1d 50 be ca 12 a4 3c 44 dd 9b 3e 06 be 83 3e
       -0.20323707 0.02002849 0.3044225 0.25730914
0000a0 f0 a5 87 bd b2 28 b1 3e 06 1b a3 bd 9f f3 91 3d
       -0.06623447 0.3460136 -0.07964139 0.07126545
0000b0 0d ec 0c 3e 70 ce f4 3c 86 fa 3f 3e 43 6a 5b be
       0.13761921 0.029883593 0.18747911 -0.21427254
0000c0 bd 7e 02 40 ac c5 6a be e2 11 f8 3f 7f e4 2f bd
       2.0389855 -0.22926968 1.9380457 -0.04294252
0000d0 51 32 8e 3c a2 5d 97 bf 61 2c 48 be 77 ad 5d bd
       0.017357977 -1.182545 -0.19548179 -0.054120507
0000e0 e5 23 b3 bf 7e e6 ee be 23 57 08 bf 38 10 6b bf
       -1.3995329 -0.46660227 -0.5325796 -0.9182162
0000f0 5b f1 ec 3f 14 8d 49 3f e2 44 0b c0 ce 58 5c be
       1.8511156 0.78730893 -2.1760793 -0.21518251
000100 97 b5 04 3e 4e 2d 48 bf fb dd bd be 3b 13 8f be
       0.12959896 -0.7819413 -0.3708342 -0.2794436
000110 e6 92 b3 bd 72 d0 c0 be b6 4a 24 bf ee 00 85 3e
       -0.08768253 -0.3765903 -0.641765 0.25977272
000120 7c ad 8d bd 60 dd b9 be 6d 9f 4b 3c 45 13 48 3e
       -0.06917855 -0.36301708 0.012428147 0.195386
000130 fb 98 ba 3e d6 ef 67 bf c1 48 df bd cf 20 65 3e
       0.3644484 -0.90600336 -0.109025486 0.22375797
000140 b3 75 41 bf 23 fb e0 3c 2c 6e 4a be c2 7b 64 be
       -0.7557022 0.027463501 -0.1976859 -0.22312835
000150 86 71 fb bd 4d 9b bc be 90 a4 12 bf 6d ef cc 3d
       -0.12277512 -0.36837235 -0.5728235 0.10006604
000160 65 e7 b4 3e 68 ee ba 3e 78 f6 37 bd f2 27 89 bd
       0.3533279 0.36510015 -0.044912785 -0.06697072
000170 c7 ce 0a 3f 81 c4 26 3d fa a6 e4 ba cc 15 9b 3e
       0.5422177 0.040714744 -0.0017444782 0.30290067

encoder.0.bias f4 [4]
000000 fe 0f 7d 3d 14 cb 7d bd 5a 60 24 bf 88 d2 02 3e
       0.06178283 -0.06196125 -0.6420952 0.12775624

encoder.2.weight f4 [1, 4, 3]
000000 23 6f 3c 3b d1 ce 51 bd 22 d9 8c bf fa 06 b4 bc
       0.0028752766 -0.051222626 -1.1003764 -0.021975983
000010 7f 12 c9 bd 2c 32 5f c0 22 e9 bd bf 32 5e 7e bd
       -0.09817981 -3.4874372 -1.4836771 -0.06210155
000020 3c 47 2b 3d 2c a3 3e 3d 2b b9 3d 3f 0f 8f cd 3b
       0.04181598 0.04654233 0.7411067 0.0062731574

decoder.0.weight f4 [1, 4, 3]
000000 54 22 06 3f 7f 09 e4 3d 4e 7b 0a 40 99 97 88 bf
       0.5239613 0.11134624 2.163776 -1.0671264
000010 c6 67 4c bf a0 14 80 3f 8f f2 de 3c b8 82 0c bf
       -0.79845846 1.0006294 0.02721527 -0.5488696
000020 67 ff 21 40 16 f8 bb bd ab 08 1b c0 1d 4e 1a 3f
       2.5312135 -0.09178178 -2.422404 0.6027544

decoder.0.bias f4 [4]
000000 44 e7 0c 3e f9 54 38 3e 0a b4 26 bd 6b 67 26 3d
       0.13760096 0.18001164 -0.040699042 0.04062597

decoder.2.weight f4 [4, 8, 3]
000000 43 3a 5a 3e 28 36 94 bd 45 58 af 3d 40 b5 cc 3e
       0.21311288 -0.07236892 0.08561758 0.39982033
000010 52 c7 6d be 09 e7 0b 3e a3 29 fb 3e b2 3f 7c be
       -0.23220566 0.13662352 0.49055204 -0.24633673
000020 cb 6f 3f 3e 06 a5 24 3f 79 58 cc be cb 95 06 3e
       0.1869499 0.64314306 -0.3991125 0.13143079
000030 80 b8 38 3e dc bf ef bd 83 c5 13 3e 6b c6 20 3f
       0.18039131 -0.11706516 0.14430813 0.6280276
000040 68 9c 11 bf a4 51 b4 3e 37 78 83 3f ed 47 6a bf
       -0.5687928 0.35218537 1.0271062 -0.91516
000050 57 05 1c 3f 12 ce 92 3f b7 b9 82 bf 45 0c 47 3f
       0.6094565 1.1469138 -1.0212926 0.77753097
000060 a7 46 a4 3e b8 9e b2 be a4 3a dc 3e 01 3d 47 3e
       0.32085153 -0.34886718 0.4301349 0.19456865
000070 c5 fd 02 bf 51 fc 0a 3f fd f7 8e 3e 7c 8f 32 bf
       -0.5116847 0.54291254 0.27923575 -0.6975019
000080 15 d3 35 3f ae 71 99 3d 53 50 40 bf 6b 72 2c 3f
       0.7102521 0.07492386 -0.75122565 0.6736209
000090 54 f6 41 bb e7 6c 4f 3e 98 4c da be 16 cf e1 be
       -0.0029596286 0.20256387 -0.4263656 -0.44103307
0000a0 5d 4c 20 3f a6 5d 27 bf 69 10 36 bf 54 6e 80 3f
       0.6261652 -0.6537727 -0.7111879 1.003367
0000b0 82 69 11 bf 9d c9 3a bf fd 1e 98 3f 8c 64 c6 be
       -0.5680162 -0.7296389 1.1884457 -0.38748586
0000c0 7b e4 71 be 15 ed a7 3e f2 60 a5 be d6 ab 18 bf
       -0.23622315 0.32798067 -0.32300526 -0.596372
0000d0 f9 d6 1a 3f 53 e7 9d be f3 e5 36 bf 36 92 27 3f
       0.6048427 -0.3084055 -0.71444625 0.65457475
0000e0 d9 24 b9 be 4c 73 84 bf b6 93 64 3f cb 5b 67 be
       -0.36160925 -1.0347686 0.8928789 -0.2259361
0000f0 c7 89 ad be 1d f8 77 3e c1 0c 7d be d1 76 7f bf
       -0.33894178 0.24215741 -0.24711896 -0.99790674
000100 d9 ce 8b 3f f3 9f 35 bf 94 a0 b4 bf fe 5d e9 3f
       1.09225 -0.7094719 -1.4111505 1.8231809
000110 fb cf ad bf 54 0f b2 bf 0b 7a 03 40 cd 0f e3 bf
       -1.3579096 -1.3910928 2.054324 -1.7739197
000120 27 11 65 3e 58 b2 3f bf 76 a5 0e 3f da fc 44 3f
       0.22369824 -0.74881506 0.55721223 0.7694832
000130 b8 11 ab bf 83 db 3c 3f 80 ba 6e 3f 29 2c cd bf
       -1.3364782 0.7377245 0.93253326 -1.6029102
000140 73 aa 65 3f e5 c3 ab 3f e2 81 f4 bf 4b d4 63 3f
       0.8971321 1.3419157 -1.9102137 0.8899581
000150 55 3f 48 3e 6c 48 87 be 0f 41 a1 3e 18 e3 46 3f
       0.19555409 -0.2642244 0.31494948 0.7769027
000160 96 b1 8c bf 73 1e 49 3f cd 35 83 3f 21 8b ea bf
       -1.0991695 0.78562087 1.0250794 -1.8323709
000170 c0 fd ab 3f f3 cd 64 3f 65 27 03 c0 4c 20 d0 3f
       1.3436813 0.89376754 -2.0492795 1.6259856

decoder.2.bias f4 [8]
000000 4e 5b c5 bd c5 4b cb bd 50 e2 06 be d0 d4 be bd
       -0.096365556 -0.09926561 -0.13172269 -0.093179345
000010 e4 1a cd 3b 11 55 ef 3b fc cf 80 bd 72 41 07 be
       0.006259309 0.007303842 -0.0628967 -0.13208559

mapping.weight f4 [300, 99]
000000 31 85 17 b8 fe 78 47 38 28 47 f4 b9 8a 80 88 ba
       -3.612525e-05 4.755798e-05 -0.00046592322 -0.0010414284
000010 da 76 73 3a a6 92 e9 37 0e 7f 02 3a 04 05 e0 ba
       0.00092874246 2.7844053e-05 0.0004978039 -0.0017091339
000020 cc f3 a8 3a c4 dd 50 ba a9 c0 8c 39 bd 6e 69 ba
       0.001289004 -0.0007967616 0.00026846424 -0.0008904746
000030 2c 5c c6 b9 f3 b4 dc b9 0e 4f 15 bb 33 83 30 39
       -0.00037834176 -0.00042096488 -0.0022782716 0.00016833543
000040 49 fe 6f b8 8a 84 91 b8 f7 f6 2f b9 f4 3f e7 3a
       -5.7218862e-05 -6.938826e-05 -0.00016781302 0.0017642961
000050 c0 18 95 b6 5c be ce b9 dc ce 8d 3a 00 38 13 35
       -4.4434273e-06 -0.0003943321 0.0010819095 5.484326e-07
000060 b4 20 7c 38 40 33 f0 36 a9 9c 5e 3a ce a4 2d b9
       6.011194e-05 7.1585237e-06 0.0008491972 -0.0001655996
000070 ea e1 35 ba 2d b5 c5 3a 2e 95 fa ba 91 63 29 3a
       -0.0006938266 0.0015083902 -0.0019117945 0.0006461675
000080 cc 66 dc b9 d6 fc 97 b8 d0 e8 b8 ba c4 06 15 ba
       -0.0004203826 -7.2473355e-05 -0.001410747 -0.0005684907
000090 20 4e 84 ba b8 60 6e ba 22 c0 0f bb 58 44 63 b9
       -0.0010094084 -0.0009093392 -0.0021934588 -0.00021673867
0000a0 aa dc 7d ba 81 83 c3 3a 6e 2b 48 3a ba a7 b8 3a
       -0.00096840656 0.001491651 0.0007635866 0.0014088072
0000b0 12 10 1f 3a 2e 8c 70 ba 5a 70 54 ba 9c 9d fe ba
       0.00060677633 -0.0009176162 -0.00081039 -0.0019425633
0000c0 b7 de af ba 16 97 ba ba 9a d4 c5 ba e7 29 4e ba
       -0.0013417815 -0.0014235701 -0.0015093267 -0.00078645203
0000d0 68 ca 1e b9 8f 6d 08 3a fc ed f8 3a 38 b8 64 3a
       -0.00015143456 0.0005204314 0.0018991823 0.00087249605
0000e0 96 f0 d7 3a 4a 6b 2d ba f7 b1 73 3a a0 5b c0 ba
       0.0016474898 -0.00066154136 0.0009296233 -0.0014675744
0000f0 ae 59 5c ba 24 4f 5c ba b6 f5 ae 39 1a 6d 0f bb
       -0.00084056973 -0.0008404127 0.00033370935 -0.0021885098
000100 ea 9f 7f b9 60 25 23 bb 26 a2 b7 b9 24 17 70 ba
       -0.00024378268 -0.0024894103 -0.0003502529 -0.00091587217
000110 64 3a d3 39 a1 d7 dc 3a b0 92 4b ba 8e 56 0d ba
       0.0004028856 0.001684893 -0.00077656936 -0.0005391621
000120 b4 75 91 b9 de 6d 8f b9 af b9 b1 ba 9c a4 93 b8
       -0.0002774425 -0.00027356943 -0.0013559366 -7.040167e-05
000130 98 2a e6 ba 95 ac ba b9 f0 e7 7d 38 29 59 6b 3a
       -0.0017560301 -0.00035605268 6.053591e-05 0.00089778245
000140 20 26 00 bb fe b3 9c ba ca b5 34 bb 15 98 39 ba
       -0.0019553974 -0.0011955497 -0.0027574175 -0.0007079852
000150 f8 ed 2d b9 6c aa 1c ba 63 a1 81 3a 30 94 83 ba
       -0.00016587216 -0.00059763226 0.0009890016 -0.001003867
000160 ed 9e fc b9 64 52 d7 b8 24 e8 37 ba 2b 28 01 3b
       -0.00048183594 -0.00010267345 -0.00070154876 0.001970778
000170 22 25 19 3a ec 46 c2 ba 0b 08 b3 38 b6 f9 63 b8
       0.000584202 -0.0014822162 8.536883e-05 -5.435358e-05
000180 97 cc b9 39 25 92 49 ba 6a 2b c1 3a d8 ff b2 ba
       0.0003543838 -0.0007689319 0.001473767 -0.001365657
000190 69 59 54 bb db b1 b2 ba df 58 25 bb e7 eb f0 ba
       -0.0032401925 -0.0013633327 -0.0025229973 -0.0018380851
0001a0 cf 30 02 bb d3 90 0f bb 51 7f b8 ba f4 70 03 ba
       -0.0019865518 -0.002190639 -0.0014076029 -0.0005014085
0001b0 d6 c7 34 ba 08 a8 3e bb 0b 7d b6 ba d6 03 48 bb
       -0.0006896233 -0.0029091854 -0.0013922764 -0.0030519865
0001c0 5a b9 67 ba 69 da a8 ba fa 1f ad ba ac 47 0a ba
       -0.000883957 -0.0012882474 -0.0013208382 -0.0005274962
0001d0 e6 ed 8f ba 6d 9d 73 ba 4f 35 cd ba 91 c6 f3 b8
       -0.0010980933 -0.00092931726 -0.0015656146 -0.00011624129
0001e0 36 e1 e9 ba 2d 80 2e ba 02 51 b4 ba 4e 06 ac ba
       -0.0017843607 -0.0006656673 -0.0013757052 -0.0013124438
0001f0 dc 88 e4 ba 05 f0 02 ba db dc fa ba b6 ae 25 bb
       -0.0017435807 -0.0004994872 -0.0019139306 -0.0025281138
000200 2f 12 fd ba 1f a2 f9 ba cc e4 1b ba 3f cf 1d bb
       -0.0019307787 -0.0019045508 -0.0005946874 -0.0024079827
000210 3d 9c d0 ba 23 24 1a bb 32 35 ee ba 80 1f a1 ba
       -0.0015915703 -0.0023520074 -0.0018173812 -0.0012292713
000220 78 d1 db ba b2 d7 3b bb cc 9b 7f ba 34 1d c9 ba
       -0.00167708 -0.00286625 -0.00097506936 -0.0015343786
000230 ca d8 91 b9 50 e4 d9 ba bb 10 21 b9 de 8b 85 ba
       -0.00027818076 -0.0016623829 -0.00015360389 -0.0010188778
000240 52 50 a6 ba 9b 9a 03 bb 51 c4 ec ba 05 31 3b bb
       -0.0012688732 -0.0020081166 -0.0018063878 -0.0028563153
000250 8a 15 2a bb 6f 83 19 bb 36 e5 8d ba 76 a4 a7 ba
       -0.002595278 -0.0023424288 -0.0010825756 -0.0012790102
000260 d0 d8 ac ba e0 e9 28 ba 62 5e bd 38 d5 fa 9a ba
       -0.0013187174 -0.00064435415 9.0298025e-05 -0.0011824021
000270 1a d4 01 bb 4a 30 8f b9 cb 76 3f bb dc 39 9e ba
       -0.001981026 -0.00027311064 -0.0029215093 -0.0012071687
000280 87 fc b7 ba 6c 5d 24 bb 1c 1f ac ba c6 68 39 bb
       -0.0014037051 -0.0025080098 -0.001313183 -0.002829121
000290 2d 4f 68 bb e4 27 11 bb ce 93 f6 ba e9 6f dc b9
       -0.0035447583 -0.002214902 -0.001881236 -0.0004204505
0002a0 9f 9e 85 b9 2b fd ea ba 46 d0 ca ba b5 b4 fc ba
       -0.0002548592 -0.0017928233 -0.0015473447 -0.0019279929
0002b0 19 b5 66 ba 52 b3 97 ba 7b 2f 96 ba eb 7a f8 ba
       -0.00088007894 -0.0011573827 -0.0011458242 -0.0018957531
0002c0 69 7e 35 bb 40 3f 5b b8 3c b2 f6 ba 56 16 9f ba
       -0.0027693755 -5.2272575e-05 -0.0018821429 -0.0012137394
0002d0 58 22 54 bb 9c a0 47 bb 37 23 1a bb 07 9a b3 ba
       -0.0032369103 -0.003046072 -0.0023519525 -0.001370252
0002e0 5f 8a 0e bb ba 6b 48 ba 23 79 39 bb fb ac 12 bb
       -0.0021749956 -0.0007645447 -0.0028300963 -0.0022380936
0002f0 bf 20 d6 ba 94 47 b8 39 7d ae 73 ba d6 81 e3 b9
       -0.0016336663 0.00035148545 -0.0009295715 -0.0004339355
000300 f7 86 56 bb 47 2d 2f b9 62 a0 c4 ba 48 51 49 bb
       -0.0032734254 -0.00016706168 -0.0015001411 -0.0030718613
000310 31 ed 46 ba 3f ca 61 39 20 c3 89 ba b8 c8 36 bb
       -0.0007588445 0.00021533015 -0.0010510422 -0.0027890634
000320 76 fd 94 ba 14 69 1d bb 71 a5 b0 ba c7 ec c8 ba
       -0.0011367041 -0.002401893 -0.001347704 -0.0015329354
000330 39 61 f0 ba cb 2d b6 ba 24 11 78 b9 41 4e 0b ba
       -0.0018339521 -0.0013899145 -0.00023657508 -0.000531409
000340 b2 87 20 bb bd 72 a0 ba ac 8b 38 bb 61 81 73 ba
       -0.0024494943 -0.0012241226 -0.0028159423 -0.00092889933
000350 ce 23 9c ba 0f cf 96 ba b2 ed 10 ba 57 90 57 ba
       -0.0011912526 -0.00115058 -0.00055285834 -0.00082231074
000360 61 e6 3a ba 00 4e af ba f0 ce e2 38 d0 74 c2 ba
       -0.0007129666 -0.0013374686 0.00010815065 -0.0014835838
000370 17 29 17 b9 57 e1 89 ba 0e 5a 92 ba 0e d3 db ba
       -0.0001441579 -0.0010519427 -0.0011165754 -0.0016771273
000380 ec 26 12 b9 7d ee da ba 8c 06 1a bb e7 fe bb ba
       -0.00013938145 -0.0016703155 -0.0023502437 -0.0014342935
000390 1c ec d1 ba 70 16 d7 b9 2c fa 1a bb 4e a8 94 ba
       -0.0016015801 -0.00041024713 -0.002364765 -0.0011341663
0003a0 28 f2 03 bb 82 fd e3 ba 34 4d 9b ba 46 7e ad ba
       -0.002013335 -0.0017394277 -0.001184857 -0.0013236485
0003b0 9d 9a 41 bb 38 bc 6f ba 7f e1 ab ba 58 ba d9 39
       -0.002954162 -0.0009145173 -0.0013113468 0.00041528302
0003c0 0b b6 b0 ba c0 46 5c b8 ba 39 3e ba ea 72 81 ba
       -0.0013481987 -5.251798e-05 -0.0007256527 -0.0009876166
0003d0 e4 a3 d9 ba b5 50 05 bb f2 ec 28 bb 10 32 0e bb
       -0.0016604629 -0.0020342295 -0.0025775996 -0.002169732
0003e0 97 73 1c bb d5 4a 7b ba 95 2b 72 ba 18 8f 9c ba
       -0.0023872608 -0.0009586041 -0.00092380616 -0.0011944501
0003f0 25 e8 46 b9 46 5f d6 39 ff b0 5a ba 8d 7b e0 ba
       -0.00018969232 0.00040888245 -0.00083424145 -0.0017126665

mapping.bias f4 [300]
000000 5d 41 50 3d 39 c7 87 bd 67 b2 8b 3d 14 01 0f 3d
       0.050843585 -0.066297956 0.06821137 0.034913138
000010 61 48 ae bd c4 1a 9f bd 1e df 38 3c dd d9 85 bd
       -0.08509899 -0.07768777 0.011283664 -0.06535695
000020 0c 36 f8 bc 9e bd 96 3d 6b 19 4f 3b f3 3b f7 bc
       -0.030299209 0.07360385 0.0031600844 -0.030179953
000030 12 18 96 bc d1 63 44 3d 44 99 b0 bd e8 91 27 3d
       -0.018322024 0.047946755 -0.08622983 0.04091063
000040 08 d4 9e bd 68 56 4e bd 52 7c f2 3b a0 2c 56 3d
       -0.077552855 -0.050375372 0.007400074 0.05228865
000050 0c 67 1b 3c e2 b0 be bd 7f 80 73 3d 7a 2c bf bb
       0.0094850175 -0.093110815 0.059448715 -0.0058341594
000060 da c5 51 3d 53 58 93 3d 52 2c 3c bd 79 35 b5 3c
       0.051214077 0.07194581 -0.045940705 0.022120224
000070 50 4c 3a 3d c7 20 83 3d cb 14 90 bd eb 47 70 3d
       0.045482934 0.06402736 -0.07035216 0.058662336
000080 c2 c2 8c bc a5 c9 6c 3c c8 a2 8c 3d 5f ae c0 bc
       -0.017182712 0.014452373 0.068669856 -0.023520647
000090 ef 55 30 3d 76 52 af bd 04 2f a8 bd 4b de f2 bb
       0.043050703 -0.0856065 -0.082120925 -0.0074117533
0000a0 20 79 75 3d ff 47 7b 3d 7c 42 3b bd 50 65 d3 bd
       0.059929967 0.061347958 -0.0457177 -0.10322058
0000b0 d9 96 d2 bc d3 b8 f5 3b 20 6d 7d 3c 20 4b e2 3d
       -0.025706695 0.0074988394 0.015467912 0.11049485
0000c0 b6 17 d4 bd f5 4d 75 3c 51 a7 eb 3c 1a 64 5c 3c
       -0.10356085 0.0149722 0.028766306 0.0134516
0000d0 3c d1 d8 3d c0 f5 b9 bd 6f 5c d1 bd 55 f6 a6 bd
       0.10586783 -0.09080076 -0.102227084 -0.08152453
0000e0 80 e3 ff 3c cf 39 2a 3b ad a3 ad 3c 38 eb 66 3d
       0.03123641 0.0025974398 0.02119621 0.056376666
0000f0 7f fd e8 bd ca 05 b2 3d 5d 4d 55 bd 26 17 9c 3c
       -0.113764755 0.086925104 -0.052075732 0.019054007
000100 4f f1 81 3d 66 71 c3 bc c2 a8 0b bd 66 43 eb 3c
       0.06344854 -0.023857784 -0.034096487 0.028718662
000110 f1 17 5f 3d f3 f4 62 3c f0 ab d9 bd 51 83 e8 bd
       0.05446619 0.013852346 -0.106284976 -0.113531716
000120 41 11 c5 bb 21 c1 b5 3b 74 a4 ad bd eb b0 42 bd
       -0.0060140197 0.0055467044 -0.084786326 -0.047532003
000130 71 99 c4 3d 24 e6 78 3d de 01 3c 3d 52 f1 0c 3d
       0.09599579 0.060766354 0.04590022 0.03440983
000140 88 57 9d bd 9e 7b ab bc 26 e1 80 3d ca 5e 7d 3d
       -0.07682711 -0.020932969 0.06292944 0.061857976
000150 26 02 c2 3d 60 62 47 bb 44 7c 1d 3d ef 85 c1 bd
       0.09473066 -0.0030423626 0.038448587 -0.09449374
000160 e7 af 32 bd 27 ff 1c 3d 36 53 a7 3c 74 b5 64 3d
       -0.043624785 0.03832927 0.02042542 0.05583711
000170 b0 7e ee bc f9 dd ea bc e2 55 dc bc e9 53 93 bd
       -0.029113144 -0.028670298 -0.02689642 -0.07193739
000180 bc 08 5c 3d 32 00 a6 3d 5e 48 e7 3c ef 66 3d 3d
       0.053719267 0.08105506 0.02823275 0.046240743
000190 0d 74 66 bc b3 51 a6 3d 73 62 39 bd b7 ad d4 3c
       -0.014065755 0.08121052 -0.045259904 0.02596174
0001a0 58 35 81 bc 67 38 5e 3d 49 37 09 3d 87 b2 9b 3d
       -0.015772507 0.05425301 0.03349999 0.07602411
0001b0 40 6e ba bd 7a 1f 80 bd 46 b2 6f 3d 87 67 82 bb
       -0.0910306 -0.06256004 0.058519624 -0.0039796266
0001c0 56 8e a8 bb 80 d9 d1 bc 49 0c dd bc da af 47 3d
       -0.005143921 -0.025616407 -0.026983397 0.04875169
0001d0 09 a7 5d 3c 90 16 c4 bc e3 c5 2b bc 6e db b0 3c
       0.013528594 -0.02393654 -0.010484192 0.021589007
0001e0 77 97 42 bd 2d bc 18 3d 62 a7 5e 3d 22 e2 c9 3d
       -0.04750773 0.037288833 0.054358847 0.098575845
0001f0 0c f0 06 be f4 43 24 3d b4 cb 86 bc 32 bf bb 3d
       -0.13177508 0.040103868 -0.016454555 0.09167327
000200 c1 60 29 bd 97 82 df 3c d3 38 83 bc 76 29 93 bd
       -0.041352037 0.02728395 -0.016018307 -0.071856424
000210 5c 75 8d 3d 16 d4 ab ba 89 42 ed 3c 45 71 7b bb
       0.0690715 -0.0013109471 0.02896239 -0.0038367074
000220 c6 af ac 3d 16 66 48 bd 54 a0 f6 3d e0 5f 42 bd
       0.084319636 -0.04892548 0.12042299 -0.047454715
000230 c4 d1 92 3d 40 68 c4 3c c2 77 ec bc 07 95 7d 3d
       0.07168916 0.023975492 -0.028865699 0.0619097
000240 a0 04 bc 3d 9d 20 58 3d 3a 3b c5 3d 5f c3 20 bd
       0.0918057 0.052765477 0.09630437 -0.03924882
000250 0b 20 7b bb cc de 6d 3d ab 2b 82 3d 07 7f c6 3d
       -0.003831866 0.058073804 0.06355985 0.09692197
000260 b2 14 32 bb 32 82 92 bd b0 7e e3 3c 00 e4 38 3d
       -0.002717298 -0.07153739 0.02777037 0.045139313
000270 c7 a5 30 bc dd a3 71 3d 86 af 4d 3d 95 ab 99 bd
       -0.010781712 0.058994163 0.05021622 -0.0750343
000280 95 c0 ac bc 64 19 94 3d 17 e4 d1 bc 2a a8 cd bd
       -0.021087924 0.072314054 -0.025621457 -0.100418404
000290 73 f7 ad 3c a5 2a b8 3d 5b 7c 35 bd 97 05 21 bd
       0.021236157 0.08992509 -0.044308048 -0.03931197
0002a0 46 2b 97 3a 9e 37 00 bd fd 38 93 bc b3 98 c7 3d
       0.0011533282 -0.03130304 -0.01797151 0.09745922
0002b0 d2 a0 ae 3d 05 92 99 bd 91 17 30 3d c4 90 b7 bd
       0.08526768 -0.07498554 0.042991225 -0.08963159
0002c0 c9 43 38 3d cf e5 17 bd 40 f0 c6 3c 3d 2a be 3d
       0.04498652 -0.037084397 0.024284482 0.092854
0002d0 89 e0 6b 3d 98 8e 21 bd a5 54 de bc 5f 56 9f 3d
       0.05758718 -0.03944263 -0.027139971 0.07780146
0002e0 3b ea ab bc 72 2b 8d 3d e1 02 e2 bd 8e c6 f9 bc
       -0.020985713 0.06893052 -0.11035705 -0.030490186
0002f0 f6 18 24 bd fd 03 3d 3d f3 ea 7c 3d 24 2c 13 3c
       -0.040062867 0.04614638 0.061747503 0.008982692
000300 33 85 8b bd e1 09 a8 3d 1a 2a 06 3c 08 03 4c 3d
       -0.06812515 0.08205009 0.008188749 0.04980758
000310 c0 17 dc bb 77 b5 f1 3d d5 80 b7 bd 53 68 be bd
       -0.0067166984 0.1180219 -0.0896012 -0.09297242
000320 a3 44 8b bd 4f 96 d1 3d 08 90 42 3d d7 bc ca bd
       -0.06800201 0.10233747 0.04750064 -0.098992996
000330 86 c7 ae 3d ee 5e 95 bd f8 2a 8d bc db 0f 83 3d
       0.0853415 -0.07293497 -0.017232403 0.063995086
000340 b5 00 b6 bd 3f 98 9c bd ca ac f8 bb 4a de ac 3b
       -0.088868536 -0.07646226 -0.0075889574 0.0052755224
000350 26 a9 ec bc 67 45 af 3b 58 8c 78 bd b6 6b ba bc
       -0.02888925 0.0053488496 -0.060680717 -0.022756439
000360 d5 a9 bb 3c 02 f6 d6 bd 5f d4 df bc 64 0a 55 bc
       0.02290813 -0.10496141 -0.027322946 -0.013002966
000370 1f e2 66 bc 08 fd 98 bd 0d 27 ef bc e2 35 9a bc
       -0.014091997 -0.07470137 -0.029193426 -0.018824521
000380 0b 10 a7 3c 3d d2 f4 3c 06 24 34 bc 58 b3 7c bd
       0.020393392 0.029885406 -0.010994917 -0.061694473
000390 a7 b7 8f 3d eb 79 48 bc 33 6c 94 3d 3e 48 4e bd
       0.07017451 -0.012236099 0.072472 -0.050361864
0003a0 08 5c 08 bd 29 2c 57 bb 93 11 6e bc c8 3b b4 3d
       -0.033290893 -0.0032832718 -0.014530557 0.08800465
0003b0 ee 83 b1 bd 5e 07 01 bd 65 cf 91 3d 1f 70 a0 bc
       -0.08667742 -0.031501167 0.071196355 -0.019584714
0003c0 31 5f 6e ba 15 a4 53 bd 30 23 91 bd 84 e7 8d 3d
       -0.0009093164 -0.051670153 -0.070867896 0.06928924
0003d0 f7 14 26 bd 5e bb 46 bd bd 53 40 3d 75 c2 97 bd
       -0.040547337 -0.04851853 0.04695486 -0.074101366
0003e0 d0 4d 77 3c b0 47 a1 bd 71 b2 29 3d e1 42 82 3d
       0.015094236 -0.078750014 0.04142994 0.063604124
0003f0 fa 21 a0 bd 6e 68 b7 bc e1 52 7b 3d 03 2e 32 bd
       -0.078189805 -0.022388663 0.061358336 -0.04350091

predictor.weight f4 [8, 99]
000000 b4 a8 3d b9 cf 8d 94 3c 43 27 b5 3a 43 17 25 bc
       -0.00018087291 0.018134026 0.0013820905 -0.010076347
000010 f0 93 03 3b 8b 27 aa 3a 58 24 a4 3a 5c d8 72 3b
       0.0020077191 0.0012981755 0.0012523038 0.003705523
000020 b1 7e 1e 3c 67 8c 8f bb b5 bb 7a bb b6 b7 01 3b
       0.00967376 -0.004380751 -0.0038258855 0.0019793338
000030 45 fc 6e bb 21 ea d5 bb c6 68 0e 3b e3 5f 4c bb
       -0.0036466282 -0.0065281545 0.002172993 -0.0031185083
000040 0c c3 0a 3c 4a 61 f7 3a 7a 4f e4 3b 7d 18 a5 3b
       0.008469354 0.0018873599 0.006967482 0.0050383196
000050 1e 21 be 3b 32 87 ed b9 75 4e 5e bb f4 43 65 bb
       0.0058022877 -0.0004530489 -0.0033921276 -0.003498313
000060 7a 11 84 bb 9c 89 17 3c 4c 3d 0a bc 8d 55 e6 bb
       -0.0040304037 0.009249117 -0.008437466 -0.0070292414
000070 6c 66 10 3c 3e ea 33 3b a2 1f 99 3b e9 0f 6b b9
       0.008813482 0.0027452852 0.0046729604 -0.00022417273
000080 c1 13 92 bb 17 5c db 3a 94 42 b9 bb f0 11 f8 38
       -0.0044579213 0.0016735819 -0.0056536887 0.00011828903
000090 64 6e ae bb 66 48 7b 3b be f1 5f 3c 11 c3 ba bb
       -0.005323218 0.0038342713 0.013668476 -0.0056995233
0000a0 ed c5 e2 ba 54 23 04 3c 9d 97 ba 3b 22 34 b2 bb
       -0.0017301418 0.0080650635 0.0056943432 -0.0054383436
0000b0 28 90 f5 3b ec 53 78 3b ff 60 3d bc d8 bf e5 3b
       0.0074939914 0.0037891818 -0.01155877 0.007011395
0000c0 27 36 19 3c 1c f1 a9 bb 12 cc 02 bc 2e 50 d4 3b
       0.00935129 -0.005186213 -0.0079832245 0.0064792847
0000d0 fe 9b 22 bb 01 1e db 3b 9e f1 8c 3b f5 bf 17 bc
       -0.0024812217 0.0066869264 0.004301264 -0.009262075
0000e0 ba 51 a5 3b 8f ff 14 3c ee b4 08 bc 70 07 ff bb
       0.005045143 0.009094133 -0.008343918 -0.007782869
0000f0 2c 1b aa 3b 05 4f 07 3c c8 87 55 39 f5 b0 73 bc
       0.0051912274 0.008258586 0.00020363845 -0.014873733
000100 5f 82 19 bc 1b 0d b9 3c 71 c1 b4 3b e3 0b 55 bb
       -0.009369462 0.022589257 0.005516224 -0.0032508306
000110 a6 4a ba bb 01 8a 72 3c ac 48 b9 bb 58 e6 86 3b
       -0.0056851683 0.0148034105 -0.005654415 0.0041168146
000120 24 d4 5f bc b7 6d 32 bc 74 d9 0b 3d ac c9 54 bc
       -0.013661418 -0.010890416 0.034142926 -0.012987535
000130 14 f2 81 b9 00 c2 c3 bc c8 49 cd 3c 24 b5 06 3c
       -0.0002478516 -0.023896217 0.025059596 0.008221898
000140 7f 40 16 bd b5 25 98 3c e2 8b d6 bc 74 b4 1e 3c
       -0.036682602 0.018572668 -0.026189748 0.009686578
000150 4c a1 70 bb 23 88 e6 3c 91 60 1e bc be 12 7d bd
       -0.0036717234 0.028141087 -0.009666578 -0.061785452
000160 ce 8a 13 3d 0c 2c c6 3c de 6b 6d bc 07 23 5e be
       0.036021046 0.024190925 -0.01449105 -0.2169305
000170 99 63 7a 3e 9c 12 83 bc 50 d8 83 be 84 3b 87 3e
       0.24452056 -0.016000085 -0.2575097 0.26412594
000180 07 a0 2a bd 36 da 00 3f f2 18 bd bf 43 22 67 3b
       -0.04165652 0.50332963 -1.4773238 0.0035268224
000190 39 54 22 3c 11 c6 79 bb f7 4e 75 bb 5a 0b 0f bb
       0.009907776 -0.0038112442 -0.00374311 -0.0021826834
0001a0 5d 40 a5 bb ed a9 1e 3b 07 c3 98 3b 01 4d b0 3b
       -0.005043073 0.002421017 0.004661921 0.0053802733
0001b0 b5 55 84 3a 3c 21 99 bb cb d4 a4 b9 52 ef a3 bb
       0.0010096343 -0.0046731513 -0.0003143906 -0.0050028944
0001c0 1c 66 ed 3a 5c 66 d4 3b 74 24 4e bb a7 ab 35 3b
       0.0018112096 0.0064819288 -0.0031454833 0.002772072
0001d0 02 b2 33 b9 2f 5d 9b 3b af 7f 9c 3b 90 d9 e5 3a
       -0.00017137083 0.004741333 0.0047759633 0.0017536152
0001e0 36 dd c7 ba 05 f5 ae ba 8d 98 db bb 29 84 11 bc
       -0.0015248421 -0.0013348168 -0.006701535 -0.008881607
0001f0 af da 8e 3a f0 24 a1 ba f9 3b a2 bb 49 e8 0c 3b
       0.0010898913 -0.0012294333 -0.004950997 0.0021500757
000200 12 00 84 3b 18 16 e3 3a 03 37 8d bb c9 fe 9f bb
       0.0040283287 0.001732531 -0.0043095364 -0.0048826677
000210 c1 6e ed 3b b0 d6 06 ba 8c 41 b7 ba 12 8b 59 bb
       0.007245869 -0.0005143685 -0.0013981326 -0.0033194465
000220 f7 ed 17 3b bb ce 06 3c 72 12 de ba 83 a0 bd bb
       0.002318261 0.008227999 -0.0016942753 -0.0057869568
000230 fe cf da 3a 54 26 21 3c 8c de 1e ba 62 7f f7 3a
       0.0016694067 0.009835798 -0.0006060384 0.0018882568
000240 6c 2f 83 38 a0 09 e7 bb 10 e3 d0 3b 93 75 0c 3b
       6.2554e-05 -0.007050708 0.006374724 0.0021432384
000250 04 67 c3 3a 98 f1 03 bc a1 72 78 3b 9d ee 4d ba
       0.001490802 -0.008053206 0.003791012 -0.00078556855
000260 97 9c af 3b 50 00 de 3b d0 57 24 bc 77 a2 dc 3a
       0.005359243 0.0067749396 -0.010030702 0.0016833086
000270 c7 57 47 3b 82 73 2a bb df 71 04 bc 0e f4 8b 3b
       0.003041731 -0.002600879 -0.00808379 0.004271037
000280 41 2e 08 3c f2 94 b2 3b ec 87 7b bc 12 79 7f bb
       0.008311809 0.0054498846 -0.0153522305 -0.0038982076
000290 cc af 64 3c 82 a2 7a 3a 02 8f c2 3a 09 d3 f3 bb
       0.013957929 0.0009560959 0.0014843645 -0.007440929
0002a0 eb 15 a3 3c 94 57 86 bc 8d 89 3c 3b 1d bc 32 bc
       0.019907912 -0.016399182 0.002876851 -0.0109091075
0002b0 5f fa 05 bc bf 9c e5 3c 42 52 60 bc e8 3d 45 3c
       -0.008177369 0.028028844 -0.013691487 0.012038685
0002c0 85 1d d6 bc ac ef 3d 3c 5f fb 35 bb 4c 1e 1e bc
       -0.026137123 0.011592787 -0.0027768237 -0.009650778
0002d0 9f 72 91 3b 06 b6 db bc ee 65 93 3c eb aa f0 bc
       0.0044387127 -0.026820194 0.01799294 -0.029378375
0002e0 be 61 9f 3d 63 71 7f bd 2e da 5b bd f8 bf 0e 3e
       0.07782315 -0.062363993 -0.05367487 0.13940418
0002f0 c4 a5 22 be 16 2a f8 3d 1d 8f 42 be 4c 81 bd 3d
       -0.15883547 0.12117402 -0.18999906 0.09253177
000300 39 13 d5 3d 3b 75 a1 be 0f ed 97 3e bb 11 49 3c
       0.10404057 -0.31534752 0.2967305 0.012272294
000310 71 de 0f 3f a5 6b 4a c0 99 26 10 3c a4 d3 a1 3a
       0.56198794 -3.16282 0.008798265 0.0012346399
000320 ca a7 83 ba a6 e0 42 3b 6e 92 49 bb fa bb fb 3b
       -0.0010044512 0.0029735952 -0.0030757445 0.0076823207
000330 b7 b8 10 3b 21 4c 11 bc c6 5c 01 3c 81 fa 02 3c
       0.0022082755 -0.008868248 0.007895654 0.007994295
000340 12 2c 3e bc 78 b3 00 b9 bd 45 f7 3a d9 5c 56 3c
       -0.011607187 -0.00012273889 0.0018865388 0.01308366
000350 47 9b 39 3b ab 82 47 ba 69 df fe 39 38 a2 d9 3a
       0.0028321312 -0.00076107186 0.0004861311 0.0016604131
000360 7a c0 2c 3b b9 c4 79 3c 5f 9f b7 39 1f 84 4b 3b
       0.0026359842 0.015244656 0.0003502322 0.0031054092
000370 86 d5 81 3b 82 54 48 bc e2 22 2e bc 98 72 21 39
       0.0039622216 -0.0122271795 -0.010628434 0.00015396846
000380 b8 c2 0c 3b 2e d1 d0 3b 17 9d 35 3b 0e dc 74 3b
       0.0021478366 0.0063725924 0.002771204 0.0037362608
000390 e3 95 aa 3b 56 dd 05 ba c6 79 4e bb fe dc 30 3c
       0.005205856 -0.0005106529 -0.0031505688 0.010794876
0003a0 09 95 2d 3b d2 73 d9 ba 72 3b a7 b9 6e d0 1e 3b
       0.0026486537 -0.0016590303 -0.00031897012 0.002423312
0003b0 20 b3 f8 3b 88 4c a7 3b 9e 9c bf 38 e9 3d 0d bc
       0.0075897127 0.005105559 9.136762e-05 -0.008620718
0003c0 48 5f e1 3b d3 b2 01 3c fd 1a b4 3a 8a 63 f5 bb
       0.0068778135 0.00791617 0.0013740953 -0.0074886726
0003d0 74 20 9a 3b 06 db cf 3b 3c 75 fd ba 45 5d e5 3b
       0.0047035757 0.0063432483 -0.0019337307 0.006999644
0003e0 db 36 73 bb 13 a4 95 bb 79 8c 45 3a cb d2 3e 3b
       -0.0037111554 -0.0045666783 0.00075358857 0.0029117342
0003f0 38 fa ac 3a af 36 0a bc 25 32 f0 3b 33 f8 b7 3b
       0.001319713 -0.008435889 0.0073301964 0.0056143044

predictor.bias f4 [8]
000000 d5 19 cc 3d 0f 50 66 3e 4e 5b 92 3e c3 f6 bb 3e
       0.099658646 0.22491477 0.28585285 0.36711702
000010 50 40 75 3d 1f 4c 4a 3e ef 9d 91 3e 87 d3 93 3e
       0.059875786 0.197556 0.28440806 0.2887232

classifier.weight f4 [2, 99]
000000 35 b0 84 3f 16 86 99 3f f2 b6 9f 3f a5 06 88 3f
       1.0366274 1.1994045 1.2477705 1.0627028
000010 99 9c 8f 3f b1 63 8f 3f e5 64 8d 3f e6 90 92 3f
       1.1219665 1.1202298 1.1046416 1.145047
000020 b1 33 94 3f 27 02 8f 3f 3e 0d 97 3f 78 4d 99 3f
       1.1578275 1.1172532 1.1800916 1.1976767
000030 5f 68 93 3f fc 88 9b 3f 1f f2 9b 3f 74 c4 93 3f
       1.1516227 1.2151179 1.2183264 1.1544328
000040 79 41 a1 3f 0e 94 9c 3f da 06 9e 3f 24 2d 9e 3f
       1.2598106 1.2232683 1.2345841 1.2357526
000050 48 90 a3 3f 9c 1b 9d 3f 6e e0 a9 3f b5 bc a9 3f
       1.2778406 1.2274051 1.3271616 1.3260714
000060 e3 78 a8 3f 87 74 a9 3f e5 cd ab 3f 60 d9 a5 3f
       1.3161892 1.3238686 1.3422209 1.2956963
000070 f4 eb ab 3f 08 c8 af 3f a8 3a aa 3f c2 84 aa 3f
       1.3431382 1.373292 1.329915 1.3321764
000080 a4 b6 b8 3f 67 cb b0 3f 59 f5 b3 3f 1c e6 b6 3f
       1.4430737 1.3812073 1.4059249 1.4288974
000090 1b 0e b3 3f c1 ad b4 3f 40 f9 b5 3f d0 a3 b5 3f
       1.398868 1.4115525 1.421669 1.4190617
0000a0 4b f8 b7 3f 87 14 b9 3f ee 44 b2 3f 5a 48 ba 3f
       1.4372648 1.445939 1.3927286 1.455333
0000b0 e1 9b b0 3f 6a bf b8 3f 70 4f b3 3f 66 9a b4 3f
       1.379757 1.4433415 1.4008617 1.4109619
0000c0 30 32 b7 3f 99 6f b6 3f 05 4b b7 3f 79 6e b7 3f
       1.4312191 1.4252807 1.4319769 1.4330589
0000d0 01 58 b7 3f 37 0a b3 3f 99 f2 b7 3f ce d3 b0 3f
       1.4323732 1.3987492 1.437091 1.3814638
0000e0 b1 97 b8 3f 27 53 b9 3f d3 d1 b6 3f 1c 5d b9 3f
       1.4421293 1.4478501 1.4282783 1.448154
0000f0 a3 ed b1 3f d9 74 bb 3f 7c a1 b3 3f 0f e9 b5 3f
       1.3900646 1.4645034 1.4033656 1.4211749
000100 34 83 b3 3f 10 28 b7 3f c7 a9 b2 3f e3 89 b6 3f
       1.4024415 1.4309101 1.3958062 1.426083
000110 04 ae b5 3f 83 dc b4 3f 27 3e b3 3f 1a 65 b1 3f
       1.419373 1.4129795 1.4003342 1.3858979
000120 c6 a0 b4 3f 98 fa b1 3f 32 60 b6 3f 36 d5 b2 3f
       1.4111564 1.39046 1.4248106 1.3971317
000130 3c 9b b5 3f e2 fa b6 3f 0b cf b4 3f b9 9f b0 3f
       1.4187999 1.4295313 1.4125684 1.3798743
000140 9a b3 b0 3f 42 ac ab 3f 6f b3 ac 3f ed 9e b0 3f
       1.380481 1.3411944 1.3492259 1.37985
000150 ae d4 a8 3f 6b 10 af 3f 13 5b ab 3f 84 d9 a2 3f
       1.3189905 1.3676885 1.3387169 1.272263
000160 68 14 ab 3f aa 37 a3 3f 5f 80 a7 3f 2b 61 a5 3f
       1.3365602 1.2751362 1.3086051 1.2920278
000170 4b 2c a0 3f 0e df a8 3f 4b e2 88 3f 35 33 c7 3f
       1.2513517 1.3193071 1.0694059 1.5562502
000180 e5 2c af 3f c1 87 2a bf 33 ac a8 bf f4 3b 84 bf
       1.3685576 -0.66613394 -1.3177551 -1.0330796
000190 db 52 9b bf 6f 40 9c bf 78 a1 8b bf e1 0b 90 bf
       -1.213466 -1.2207164 -1.0908651 -1.1253625
0001a0 f8 fa 90 bf e0 fd 8a bf 3b db 94 bf 26 ac 98 bf
       -1.132659 -1.0858727 -1.1629404 -1.1927536
0001b0 b8 8a 90 bf b3 22 94 bf ed 4b 9c bf 0b d7 8e bf
       -1.1292334 -1.1573089 -1.2210671 -1.1159376
0001c0 48 9a 97 bf 62 ec 9a bf 3c 10 98 bf 6b 38 a2 bf
       -1.1843958 -1.2103388 -1.1879954 -1.2673467
0001d0 a2 d7 9c bf 87 17 a0 bf 81 7e 9f bf 80 df a5 bf
       -1.2253306 -1.250718 -1.2460481 -1.2958832
0001e0 25 4d 99 bf 9d 15 a7 bf eb 98 a8 bf e5 c9 a7 bf
       -1.1976668 -1.3053471 -1.3171667 -1.3108488
0001f0 d0 48 aa bf f9 fb ab bf 48 b3 aa bf 38 42 ad bf
       -1.3303471 -1.3436271 -1.3335962 -1.3535833
000200 83 05 b1 bf 56 43 af bf 86 e4 ad bf f2 f4 b4 bf
       -1.3829807 -1.3692424 -1.3585365 -1.4137251
000210 e2 23 b5 bf f1 1d b4 bf 21 b8 b3 bf 97 97 b1 bf
       -1.4151576 -1.4071637 -1.4040567 -1.3874387
000220 79 2a b7 bf 41 24 b1 bf f2 46 b2 bf 89 e3 b6 bf
       -1.4309837 -1.3839189 -1.3927901 -1.4288188
000230 64 b6 b5 bf 68 ec b1 bf 38 8d bb bf d4 4d b1 bf
       -1.4196286 -1.390027 -1.4652472 -1.3851876
000240 c4 15 b9 bf 92 3a b4 bf 5b fb b5 bf 6b c6 b9 bf
       -1.4459767 -1.4080374 -1.4217333 -1.4513677
000250 c3 75 b8 bf 6e 79 b4 bf 9a dc b9 bf da 08 b9 bf
       -1.4410938 -1.4099557 -1.4520447 -1.4455826
000260 ba fd b3 bf 1d f9 b9 bf 41 3a b5 bf ed 11 b3 bf
       -1.4061806 -1.4529148 -1.4158403 -1.3989846
000270 af d0 b7 bf 3e 4b b1 bf 96 6c b4 bf ad 80 b5 bf
       -1.436056 -1.3851087 -1.4095638 -1.4179894
000280 f7 76 b5 bf b3 c4 b5 bf 94 82 b5 bf 2c 9f b7 bf
       -1.417693 -1.4200653 -1.4180474 -1.434545
000290 17 f9 b8 bf 01 d4 b7 bf 56 ac b3 bf 34 3d b7 bf
       -1.4451016 -1.4361573 -1.4036968 -1.4315553
0002a0 4c ce b2 bf 3c 34 b4 bf 43 4a b3 bf 01 dd b1 bf
       -1.3969207 -1.4078441 -1.4007038 -1.389557
0002b0 34 ad af bf 73 9b b2 bf 1c 2b ad bf 0c cf b6 bf
       -1.3724732 -1.3953689 -1.3528781 -1.4281936
0002c0 67 70 b3 bf 3e bc af bf 16 67 b0 bf 7b c8 b3 bf
       -1.4018677 -1.3729322 -1.3781459 -1.4045557
0002d0 d4 5d b0 bf 8e 48 b0 bf ed 59 b1 bf 9e 7c a7 bf
       -1.3778634 -1.3772142 -1.3855568 -1.3084905
0002e0 6e e7 af bf 56 cd aa bf 6d 56 a6 bf 0b 8a aa bf
       -1.3742502 -1.3343914 -1.2995125 -1.3323377
0002f0 c5 82 a3 bf ae 14 aa bf 0a 2f a3 bf bc ae a4 bf
       -1.2774283 -1.3287561 -1.274873 -1.2865825
000300 95 14 a9 bf b2 ec 8b bf d9 5e c5 bf 7c 4c b4 bf
       -1.3209406 -1.0931609 -1.541957 -1.4085841
000310 2a d3 31 3f 39 1a a7 3f
       0.69462836 1.3054878

classifier.bias f4 [2]
000000 5c 67 9b c0 11 a8 99 40
       -4.856367 4.801766
