Trained_Models_CLODC/8/ConvAutoencoder_200.pth (torch, 494319 bytes, 17 tensors)

encoder.0.weight f4 [4, 8, 3]
0	0x3e69f674	0.2284792
1	0xbe19f412	-0.15034512
2	0x3d6ab426	0.05730071
3	0x3db3e9e3	0.08784845
4	0xbd8bce87	-0.06826501
5	0x3dd83004	0.10556033
6	0x3dcb84db	0.099374495
7	0xbd2a39d5	-0.04155906
8	0x3a064dbf	0.00051232794
9	0xbc5463b3	-0.012963223
10	0x3c264b20	0.010149747
11	0x3d8b3dfa	0.067989305
12	0xbd7e4166	-0.062074088
13	0x3d8a404d	0.06750546
14	0xbd82360d	-0.063579656
15	0xbde6a581	-0.11262036
16	0x3d14635a	0.03622756
17	0xbd18e14a	-0.037324227
18	0xbc8a114f	-0.016853957
19	0x3d7fb5c4	0.062429205
20	0xbeb49f03	-0.35277566
21	0x3c0ec288	0.008713372
22	0x3e7d64c5	0.24745472
23	0xbe452e53	-0.19255953
24	0xbe6beaa3	-0.23038726
25	0x3e6891d1	0.22711875
26	0xbe0dca3e	-0.1384668
27	0xbe4d9ab7	-0.2007855
28	0x3ee4c620	0.44682407
29	0xbdee2e90	-0.11629975
30	0xbc55abe1	-0.013041467
31	0x3eb5e388	0.35525155
32	0xbd8e526d	-0.06949315
33	0xbe66d4f8	-0.22542179
34	0x3eb02a99	0.344075
35	0xbe1ba560	-0.15199804
36	0xbdf53e5b	-0.11974784
37	0x3cc82412	0.024431262
38	0xbde9d081	-0.11416722
39	0x3bdebed9	0.006797653
40	0x3e978f31	0.29601434
41	0xbe4cbf36	-0.19994816
42	0xbc823456	-0.015894096
43	0x3e0d9090	0.13824677
44	0xbdcf59f6	-0.101245806
45	0x3d007956	0.031365715
46	0x3e794df2	0.2434614
47	0x3d34a30f	0.044100817
48	0xbe019fee	-0.12658665
49	0x3c217070	0.009853467
50	0xbd24210f	-0.04007059
51	0x3d51d81a	0.05123148
52	0xbd9c0e35	-0.07619897
53	0x3d24d33d	0.040240515
54	0xbd640d4f	-0.055676755
55	0x3dcb092c	0.09913859
56	0x3d68dec8	0.056853086
57	0xbd87a17b	-0.06622597
58	0xbd9ef526	-0.07761602
59	0xbd8df51e	-0.06931518
60	0x3d8a6421	0.06757379
61	0xbd8d911c	-0.06912443
62	0x3cc21041	0.023689391
63	0x3e294352	0.16529587
64	0xbe4cb6f4	-0.19991666
65	0x3e15120c	0.14557666
66	0x3e48ea39	0.19620599
67	0xbe1705e5	-0.14748342
68	0x3dfd1698	0.12357825
69	0xbc4adab6	-0.012381246
70	0xbdf495a7	-0.119426064
71	0x3b243bca	0.002506005
72	0x3d0944a7	0.033512738
73	0xbe052db0	-0.1300571
74	0x3e3a5376	0.181959
75	0x3c90c3d5	0.017671505
76	0x3e0074ac	0.12544507
77	0x3e2e7b9b	0.17039339
78	0xbd82bdb5	-0.0638384
79	0x3e9b1599	0.30289915
80	0x3e3cd2f7	0.18439852
81	0x3dace788	0.084425986
82	0xbcd4052c	-0.025881372
83	0x3e3231d8	0.17401826
84	0x3c9fef64	0.01952333
85	0xbd13361f	-0.035940286
86	0xbd748201	-0.059694294
87	0x3c98f745	0.018672595
88	0x3e77a200	0.24182892
89	0xbd2ae52f	-0.041722473
90	0xbc96cbaf	-0.01840767
91	0x3e4247e6	0.1897274
92	0x3e1f2d42	0.15544608
93	0x3df883bf	0.121345036
94	0x3e6a78ce	0.22897646
95	0x3ca6cb1a	0.020360518

encoder.0.bias f4 [4]
0	0xbe4140a3	-0.18872313
1	0xbd4b33fa	-0.049610116
2	0x3e911bfb	0.2834166
3	0xbdc5bf40	-0.09655619

encoder.2.weight f4 [1, 4, 3]
0	0xbd0aa420	-0.033847928
1	0xbea4b8e0	-0.32172298
2	0x3d3c0c10	0.04590994
3	0xbfc58dcb	-1.5433897
4	0x3e266ad8	0.16251695
5	0xbdda3799	-0.10655136
6	0xbdd19cb7	-0.10234969
7	0x3df68a52	0.12038101
8	0xbe76b280	-0.2409153
9	0x3db69837	0.089157514
10	0x3d5a21a6	0.053254746
11	0x3f0aa69d	0.5416048

decoder.0.weight f4 [1, 4, 3]
0	0x3e40c908	0.18826687
1	0x3fe2c14b	1.7715238
2	0x3e9070a4	0.28210938
3	0xbf15fbe8	-0.58587503
4	0x3f1376b0	0.5760298
5	0x3e2cbe1f	0.168694
6	0x3fc3a6c2	1.5285265
7	0x3dcd8945	0.10035948
8	0xbfd50ef5	-1.664519
9	0x3f952f40	1.1655045
10	0x3d8f050b	0.06983384
11	0x3ec08b2c	0.3760618

decoder.0.bias f4 [4]
0	0xb9776536	-0.0002359346
1	0x3fc9722b	1.5737966
2	0x3ee34ae5	0.44393077
3	0x3f81f775	1.0153643

decoder.2.weight f4 [4, 8, 3]
0	0x3e6753ac	0.22590512
1	0xbe80060b	-0.2500461
2	0xbc550210	-0.01300098
3	0x3f03ae64	0.51437974
4	0xbf01b8cb	-0.50672597
5	0xbc250b53	-0.010073501
6	0x3f22b803	0.6356203
7	0xbf1d4b48	-0.61442995
8	0x3bf8240f	0.007572658
9	0x3f3a2416	0.7271131
10	0xbf2410e8	-0.64088297
11	0xbd24304c	-0.040085122
12	0x3e84746b	0.2587007
13	0xbec06f74	-0.37585032
14	0x3d9880cf	0.07446443
15	0x3f088e41	0.5334206
16	0xbf102e4e	-0.56320655
17	0x3ce14805	0.027500162
18	0x3f2d1f4c	0.6762588
19	0xbf24bac7	-0.643475
20	0x3c985566	0.018595409
21	0x3f420803	0.75793475
22	0xbf289e5a	-0.65866625
23	0xbcc45359	-0.023965525
24	0xbc1f96c4	-0.009740535
25	0x3e5c8435	0.21534808
26	0xbebad464	-0.36490166
27	0xbdd28169	-0.10278589
28	0x3eb95314	0.36196196
29	0xbf2fe5ce	-0.6871003
30	0xbe47aa93	-0.19498663
31	0x3eeb9815	0.46014467
32	0xbf66eefc	-0.9020841
33	0xbe86284b	-0.26202616
34	0x3f1a02d8	0.6016059
35	0xbf7c2fd4	-0.9851048
36	0xbd2c242e	-0.04202669
37	0x3e4d74ae	0.20064041
38	0xbeca12a1	-0.39467338
39	0xbe06d686	-0.13167772
40	0x3eae35eb	0.3402551
41	0xbf33b02a	-0.7019068
42	0xbe618ad5	-0.22025616
43	0x3f0f6444	0.5601237
44	0xbf65f0f7	-0.8982081
45	0xbe8c693a	-0.27424031
46	0x3f1a0cf2	0.60176
47	0xbf7ed184	-0.99538445
48	0xbc9c166d	-0.019053662
49	0xbe31ab1a	-0.17350426
50	0x3e9f3052	0.31091553
51	0x3e1c913c	0.15289778
52	0xbee25b44	-0.44210255
53	0x3ea0588f	0.31317565
54	0x3ecfe909	0.4060748
55	0xbf1ee52b	-0.6206843
56	0x3e2bb147	0.16766845
57	0x3f141509	0.578446
58	0xbf47bb4e	-0.7802018
59	0x3ce94351	0.028474482
60	0xb9cc4d4e	-0.0003896751
61	0xbdbd948d	-0.092568494
62	0x3ea16539	0.3152254
63	0x3e16f77a	0.14742842
64	0xbed09036	-0.40735024
65	0x3ea02165	0.31275478
66	0x3ed789fd	0.42097464
67	0xbf25e570	-0.6480322
68	0x3dd0df16	0.101988
69	0x3f156b02	0.58366406
70	0xbf528a49	-0.82242256
71	0xbc9adc56	-0.018903892
72	0x3dc7db7d	0.09758661
73	0xbedc8af2	-0.43074757
74	0x3ed7ae0f	0.42124984
75	0x3e2f56d4	0.17122966
76	0xbf3bcd1a	-0.73359835
77	0x3f6590b4	0.89673924
78	0x3e585e85	0.21129806
79	0xbf5c79fe	-0.86123645
80	0x3fa130ab	1.2592977
81	0x3e72dc74	0.23716909
82	0xbf559fd2	-0.8344699
83	0x3fb77ecb	1.4335569
84	0x3de99183	0.11404707
85	0xbeedeedf	-0.46471307
86	0x3eed0e57	0.46300003
87	0x3e4ea1c3	0.20178895
88	0xbf3819b9	-0.7191425
89	0x3f6b2d51	0.9186602
90	0x3e684714	0.22683364
91	0xbf4baa2d	-0.7955654
92	0x3fa354ad	1.2760216
93	0x3e751846	0.23935041
94	0xbf5508b1	-0.8321639
95	0x3fbb401b	1.4628938

decoder.2.bias f4 [8]
0	0x3de1fdc5	0.11034731
1	0x3e9d7088	0.30749917
2	0x3ebd53fe	0.36978143
3	0x3e4663e4	0.19374043
4	0x3e23f23c	0.16010374
5	0x3ea6e4d7	0.32596466
6	0x3e2ffced	0.17186327
7	0x3e671e4a	0.22570148

mapping.weight f4 [400, 199]
0	0x36ae1925	5.1885313e-06
1	0x3611b452	2.1711644e-06
2	0x364e3148	3.0725078e-06
3	0x3688b91e	4.0746663e-06
4	0x3695ca70	4.464113e-06
5	0x36754b6c	3.6551746e-06
6	0x367d14f3	3.7712132e-06
7	0x368e6008	4.2431093e-06
8	0x368ede57	4.2578135e-06
9	0x369776d9	4.5139864e-06
10	0x36972911	4.5049314e-06
11	0x368b9904	4.160336e-06
12	0x36902113	4.2953848e-06
13	0x3699eef2	4.587572e-06
14	0x3690a0e2	4.3102636e-06
15	0x369701b7	4.5003503e-06
16	0x369b610b	4.6306573e-06
17	0x368eea8f	4.259236e-06
18	0x368d4f2e	4.211345e-06
19	0x36929281	4.3681944e-06
20	0x369998eb	4.5775573e-06
21	0x369f145d	4.74094e-06
22	0x3696cfa1	4.4945195e-06
23	0x3688629f	4.064597e-06
24	0x3696ee08	4.498059e-06
25	0x36a7322b	4.982828e-06
26	0x368fafff	4.2822207e-06
27	0x368c5f90	4.18345e-06
28	0x369ff360	4.766902e-06
29	0x3691f0f3	4.349387e-06
30	0x36957986	4.454693e-06
31	0x369b1140	4.621368e-06
32	0x3692bff7	4.3734867e-06
33	0x36893fe0	4.090354e-06
34	0x3691b90b	4.3428786e-06
35	0x3695cdd8	4.4645094e-06
36	0x369e68e5	4.7209783e-06
37	0x36995705	4.5698857e-06
38	0x368ccaf3	4.1959515e-06
39	0x3696b889	4.491831e-06
40	0x3691d927	4.3466166e-06
41	0x36961d62	4.473769e-06
42	0x36aac1c7	5.0889535e-06
43	0x36a61285	4.9493415e-06
44	0x368af6ee	4.141467e-06
45	0x368dadc6	4.2223573e-06
46	0x36a11d27	4.8015677e-06
47	0x36a6c1d6	4.969751e-06
48	0x36a63e02	4.954404e-06
49	0x369f15e7	4.741119e-06
50	0x3698f3ff	4.558358e-06
51	0x3690b36a	4.312421e-06
52	0x369a3397	4.5955635e-06
53	0x36a703b0	4.977417e-06
54	0x36a7ef88	5.004873e-06
55	0x36a56521	4.929156e-06
56	0x3691d86f	4.346533e-06
57	0x36897e5c	4.0976283e-06
58	0x36a8eb23	5.0341637e-06
59	0x36ac4b04	5.1347324e-06
60	0x369e524c	4.7183476e-06
61	0x369cc4ad	4.6720584e-06
62	0x369bb5c1	4.640519e-06
63	0x36995673	4.5698193e-06
64	0x369df576	4.70754e-06
65	0x369a03e9	4.590013e-06
66	0x36a67c42	4.961651e-06
67	0x36a50229	4.9176347e-06
68	0x36987fdd	4.5448382e-06
69	0x368d8554	4.217649e-06
70	0x369dbb6c	4.7007834e-06
71	0x369f6b48	4.7510584e-06
72	0x369fb158	4.759215e-06
73	0x3699a903	4.579431e-06
74	0x368d0867	4.2031056e-06
75	0x36968841	4.4862104e-06
76	0x3697acb0	4.520254e-06
77	0x3691dfd5	4.347394e-06
78	0x369592eb	4.4576495e-06
79	0x3698d466	4.5546794e-06
80	0x368dd1cf	4.2265524e-06
81	0x36854443	3.9716556e-06
82	0x36975fbf	4.511297e-06
83	0x36a043f8	4.776284e-06
84	0x3696ff24	4.5000506e-06
85	0x368e4060	4.239424e-06
86	0x368ec5ca	4.2549555e-06
87	0x368fef77	4.2896095e-06
88	0x368f1082	4.263654e-06
89	0x368e68b5	4.2441193e-06
90	0x369b9b14	4.6374134e-06
91	0x36976954	4.5124125e-06
92	0x36895765	4.0930922e-06
93	0x368b2398	4.1466665e-06
94	0x368e583c	4.2422016e-06
95	0x36947336	4.424156e-06
96	0x36a90604	5.037293e-06
97	0x3695b0d0	4.4611297e-06
98	0x366c696e	3.5228109e-06
99	0x367d8801	3.7779103e-06
100	0x36a06775	4.7804156e-06
101	0x36918a11	4.33741e-06
102	0x368ecbad	4.2556408e-06
103	0x369403f3	4.4112035e-06
104	0x36929693	4.368668e-06
105	0x367c60ee	3.7607347e-06
106	0x368d492e	4.2106467e-06
107	0x3690dced	4.3172536e-06
108	0x369b1595	4.6218724e-06
109	0x369a067e	4.5903134e-06
110	0x368ef119	4.2599972e-06
111	0x36747cb9	3.6431431e-06
112	0x36881234	4.055235e-06
113	0x369f8e18	4.755111e-06
114	0x369cdb1e	4.674671e-06
115	0x36937619	4.3946898e-06
116	0x3687e2ef	4.049732e-06
117	0x36874ed9	4.0324926e-06
118	0x36962c8e	4.475535e-06
119	0x36950da2	4.442133e-06
120	0x369af8ec	4.618536e-06
121	0x3690c670	4.3146356e-06
122	0x3680464f	3.8228823e-06
123	0x36880756	4.05397e-06
124	0x36a0d577	4.793222e-06
125	0x369f5489	4.7484104e-06
126	0x36950ac7	4.4418007e-06
127	0x3688a253	4.072013e-06
128	0x368ee767	4.2588686e-06
129	0x369084ee	4.3070095e-06
130	0x369c6f8b	4.6621476e-06
131	0x36956b77	4.4530566e-06
132	0x369c8e3b	4.66572e-06
133	0x3698ea4a	4.557228e-06
134	0x3696068c	4.4711105e-06
135	0x368dfa76	4.231285e-06
136	0x368e015d	4.2320885e-06
137	0x369935ec	4.5660327e-06
138	0x36a1f570	4.8267466e-06
139	0x368efe02	4.2615e-06
140	0x36842099	3.9377014e-06
141	0x368c468a	4.180537e-06
142	0x36979f40	4.51869e-06
143	0x368e403f	4.239409e-06
144	0x3697e7c9	4.527134e-06
145	0x36914cbb	4.3302693e-06
146	0x368fc708	4.2849024e-06
147	0x3693918b	4.397885e-06
148	0x368be1ea	4.1688227e-06
149	0x3685e159	3.989943e-06
150	0x3691544a	4.3311493e-06
151	0x36a263e5	4.8396055e-06
152	0x368f6a7e	4.2741294e-06
153	0x36829695	3.891832e-06
154	0x3683922c	3.921121e-06
155	0x3693e16b	4.4071835e-06
156	0x369a0c51	4.5909915e-06
157	0x3697f607	4.528792e-06
158	0x36894386	4.090779e-06
159	0x368b3519	4.148704e-06
160	0x36831366	3.9063625e-06
161	0x36943988	4.4174412e-06
162	0x3693247c	4.3851887e-06
163	0x3699c71d	4.582935e-06
164	0x3692fcc6	4.3805658e-06
165	0x368ad4ae	4.1374797e-06
166	0x3686a628	4.0128543e-06
167	0x36946abf	4.4231706e-06
168	0x369a493a	4.5980823e-06
169	0x36961dc5	4.473814e-06
170	0x3692e11e	4.377346e-06
171	0x368c8448	4.1877247e-06
172	0x368e137b	4.2341976e-06
173	0x368fa09b	4.280429e-06
174	0x369b45b9	4.6274768e-06
175	0x36922cd1	4.3563564e-06
176	0x368bd541	4.167349e-06
177	0x368fcde1	4.2856996e-06
178	0x36918c4f	4.337671e-06
179	0x368fe6de	4.2886086e-06
180	0x369c0a12	4.6503346e-06
181	0x36962bd0	4.475449e-06
182	0x369226d9	4.3556615e-06
183	0x36880ad9	4.0543787e-06
184	0x368a8856	4.128592e-06
185	0x36982918	4.534737e-06
186	0x36a03729	4.774793e-06
187	0x3694cb52	4.4344133e-06
188	0x36881b4c	4.0562936e-06
189	0x36803a9c	3.8215203e-06
190	0x3687b2da	4.0441346e-06
191	0x36907cc5	4.3060595e-06
192	0x367d21dd	3.7719649e-06
193	0x36675647	3.4471902e-06
194	0x367a783d	3.732289e-06
195	0x361b69b7	2.3158334e-06
196	0x365a9ebe	3.2576932e-06
197	0x36b143b4	5.2828927e-06
198	0x35f30a71	1.810795e-06
199	0xb6d52dd3	-6.3532293e-06
200	0xb62ce261	-2.5761767e-06
201	0xb6777bc5	-3.6877911e-06
202	0xb6aab85c	-5.087857e-06
203	0xb6b903ef	-5.5138876e-06
204	0xb6921c07	-4.354402e-06
205	0xb6951c0e	-4.443812e-06
206	0xb6abcfd6	-5.1203924e-06
207	0xb6b08e9b	-5.26181e-06
208	0xb6bd514b	-5.6421027e-06
209	0xb6b68f64	-5.4407155e-06
210	0xb6a72c4c	-4.9821447e-06
211	0xb6b0dbe7	-5.2708087e-06
212	0xb6bb310c	-5.578744e-06
213	0xb6aad104	-5.0907274e-06
214	0xb6b97e60	-5.5281416e-06
215	0xb6c29027	-5.798432e-06
216	0xb6b2551b	-5.314721e-06
217	0xb6ab6c2a	-5.108789e-06
218	0xb6b60e32	-5.425675e-06
219	0xb6bfb9fa	-5.713894e-06
220	0xb6bca749	-5.622311e-06
221	0xb6b2e305	-5.331242e-06
222	0xb6b569fa	-5.4065576e-06
223	0xb6c59a86	-5.8890464e-06
224	0xb6c38dce	-5.827961e-06
225	0xb6a631c5	-4.9529795e-06
226	0xb6b21613	-5.307383e-06
227	0xb6d18a4b	-6.244785e-06
228	0xb6bcc89c	-5.6261906e-06
229	0xb6b8b658	-5.504855e-06
230	0xb6baf7b1	-5.572067e-06
231	0xb6afa664	-5.234777e-06
232	0xb6a94532	-5.044648e-06
233	0xb6c24691	-5.7898656e-06
234	0xb6c4e5ae	-5.8679934e-06
235	0xb6bc9c16	-5.6210074e-06
236	0xb6afd878	-5.2406067e-06
237	0xb6a9a733	-5.056057e-06
238	0xb6ba37dd	-5.5497353e-06
239	0xb6bce1a7	-5.629106e-06
240	0xb6b7f57b	-5.4824027e-06
241	0xb6c275bf	-5.795358e-06
242	0xb6bec3c7	-5.6852327e-06
243	0xb6acb822	-5.1474353e-06
244	0xb6b61cc5	-5.427372e-06
245	0xb6c052ce	-5.7316856e-06
246	0xb6b62bc0	-5.429116e-06
247	0xb6b9e8df	-5.5405394e-06
248	0xb6c273c3	-5.795127e-06
249	0xb6be9bd0	-5.68058e-06
250	0xb6a77a06	-4.9911932e-06
251	0xb6acd0b2	-5.150295e-06
252	0xb6c35645	-5.821496e-06
253	0xb6c5c31d	-5.8937717e-06
254	0xb6b82fbd	-5.489185e-06
255	0xb6a79971	-4.9948508e-06

mapping.bias f4 [400]
0	0x3e4a28b6	0.19742092
1	0xbe75165e	-0.23934314
2	0x3e313cdf	0.17308377
3	0xbed21275	-0.41029707
4	0x3e0bc05d	0.136476
5	0x3ec033fa	0.37539655
6	0x3e93bea6	0.2885639
7	0xbe12d4fb	-0.14339058
8	0xbb9073ef	-0.0044083516
9	0x3dd5fbca	0.104484156
10	0xbd23c8ef	-0.039986547
11	0xbeb498ab	-0.35272726
12	0xbd9e75ba	-0.07737298
13	0x3d625950	0.055260956
14	0xbebf1566	-0.37321013
15	0x3b09a0bf	0.0021000353
16	0x3e2c4e0c	0.16826648
17	0x3f4f54b9	0.8098865
18	0xbf294d7a	-0.66133845
19	0xbecc2180	-0.39869308
20	0x3ef3cca7	0.47617075
21	0x3ef4f101	0.4784012
22	0xbe9003d8	-0.28127933
23	0xbe08153f	-0.13289355
24	0x3f0b74bf	0.54475015
25	0x3e829740	0.2550602
26	0x3ebf9991	0.3742185
27	0xbed8df4b	-0.4235786
28	0x3e128df7	0.14311968
29	0x3f01e84a	0.5074507
30	0xbdb6718e	-0.089083776
31	0xbef05216	-0.46937627
32	0xbe1f3b1e	-0.15549895
33	0xbea4f328	-0.32216763
34	0x3ea3c859	0.3198879
35	0x3e6579fd	0.22409816
36	0x3ea39628	0.31950498
37	0xbdd220c0	-0.10260153
38	0xbe13cae6	-0.14432868
39	0x3eeeb63f	0.46623418
40	0x3d09d95f	0.033654567
41	0xbe950b07	-0.29109976
42	0x3c80e478	0.015733942
43	0xbda36c88	-0.07979685
44	0x3ef54aa7	0.47908518
45	0xbeb370a4	-0.35046875
46	0x3c939ac8	0.018018141
47	0xbe9bafac	-0.30407465
48	0x3e629908	0.2212869
49	0xbeb33ed4	-0.35008872
50	0x3e4c7122	0.19965032
51	0x3df77c47	0.12084251
52	0x3ee4c521	0.44681647
53	0xbee5fd16	-0.44919652
54	0xbd8595ef	-0.06522738
55	0x3f0d3c19	0.55169827
56	0x3e3ed0e4	0.18634373
57	0xbdbe6ad9	-0.09297723
58	0xbe1add7c	-0.15123552
59	0x3ed1cebf	0.40978047
60	0xbd99771a	-0.0749342
61	0xbe430f64	-0.1904884
62	0xbebf7364	-0.37392724
63	0x3e8353b5	0.256498
64	0xbdfc3750	-0.123152375
65	0xbeefd3c4	-0.46841252
66	0x3ce8c1bd	0.028412694
67	0xbecc9457	-0.39956924
68	0x3dd5f836	0.10447733
69	0xbf01488e	-0.50501335
70	0xbea32409	-0.3186343
71	0x3e037165	0.12836225
72	0x3e034aed	0.1282155
73	0x3f02594f	0.50917524
74	0xbabbac96	-0.0014318402
75	0x3eeea1e5	0.4660789
76	0xbf2f3d22	-0.68452656
77	0xbf352933	-0.7076599
78	0x3d9f1ac7	0.07768779
79	0xbe53111e	-0.20611998
80	0xbd6dea62	-0.058084853
81	0xbe20c4a4	-0.15700012
82	0x3df1d101	0.118074425
83	0xbe8a534f	-0.27016684
84	0xbdf1b190	-0.118014455
85	0xbe2b1bfb	-0.16709892
86	0xbee336af	-0.44377658
87	0x3e713c0d	0.23558064
88	0x3e77c495	0.24196084
89	0xbe54c7b0	-0.207793
90	0xbeae8118	-0.34082866
91	0xbefeddbc	-0.49778545
92	0x3d179a9a	0.037012674
93	0xbec4c548	-0.38431764
94	0x3e9ba433	0.30398712
95	0x3e766100	0.2406044
96	0xbef770b0	-0.4832816
97	0xbe71bfda	-0.23608342
98	0xbf1feae8	-0.62467813
99	0xbdcb1491	-0.09916032
100	0x3e82290d	0.25421944
101	0x3e3d28fe	0.18472669
102	0x3eac106e	0.33606285
103	0xbf23278c	-0.6373222
104	0x3e51b121	0.20477726
105	0xbd2fcd45	-0.04292037
106	0x3dca9c57	0.09893101
107	0x3f03b21a	0.51443636
108	0xbe949999	-0.29023436
109	0x3e847171	0.258678
110	0x3e4e4a6e	0.2014558
111	0xbc8c00f4	-0.017090298
112	0x3e386888	0.18008626
113	0xbe932abf	-0.2874355
114	0x3e4e8dc2	0.20171264
115	0x3ccc7778	0.02495931
116	0x3d4e235b	0.050326686
117	0xbcef547e	-0.029215094
118	0x3d3a5709	0.04549316
119	0x3e90fb71	0.28316835
120	0xbe92aaae	-0.28645843
121	0xbeba0f44	-0.36339772
122	0x3c4fc2e7	0.012680746
123	0x3f19fb04	0.60148644
124	0xbe0f4fd6	-0.13995299
125	0xbe954150	-0.29151392
126	0xbe9425ec	-0.28935182
127	0xbe839ee3	-0.25707158
128	0x3e547ea3	0.20751433
129	0xbf1d0b42	-0.61345303
130	0xbe99e42e	-0.300569
131	0xbb1a2e35	-0.0023526077
132	0xbddce857	-0.10786503
133	0xbf06a7a8	-0.52599573
134	0xbf076e34	-0.5290253
135	0xbd4385cb	-0.047735017
136	0x3e06f612	0.13179806
137	0x3e590f71	0.21197297
138	0xbef8b826	-0.48577994
139	0xbdb958b6	-0.090501234
140	0xbf150562	-0.5821134
141	0xbec35304	-0.38149273
142	0x3e8dd9ea	0.27705318
143	0xbd8fece3	-0.070276044
144	0xbebd91c2	-0.37025267
145	0xbf1313c2	-0.57452023
146	0x3e9bf788	0.3046229
147	0x3e99a133	0.30005798
148	0x3eb2f62b	0.34953436
149	0xbe0a7dcb	-0.13524549
150	0x3eb8d365	0.3609878
151	0xbec7b4e0	-0.39005184
152	0x3f1f44ff	0.62214655
153	0xbe9aefee	-0.30261177
154	0xbeb6bca8	-0.35690808
155	0x3e10c94e	0.14139292
156	0xbd1f3d83	-0.03887702
157	0x3f168276	0.5879282
158	0xbe0c0396	-0.13673243
159	0xbe95a494	-0.29227126
160	0x3e8ba58f	0.2727475
161	0x3e533189	0.20624365
162	0xbe96f8ad	-0.294866
163	0x3e895a5a	0.26826745
164	0xbee693f1	-0.45034745
165	0x3f18d64b	0.59701985
166	0x3dba057c	0.09083077
167	0xbd8cb9e3	-0.068713926
168	0xbf13fe1a	-0.57809603
169	0x3e572995	0.21011956
170	0xbec3a42e	-0.38211197
171	0x3eaeef22	0.3416682
172	0xbd9f613d	-0.077822186
173	0x3dcf38c5	0.1011825
174	0xbf2825b1	-0.6568251
175	0xbea28c2f	-0.31747577
176	0xbea8fae2	-0.33003908
177	0x3e98cfed	0.29846135
178	0xbe5d7b93	-0.21629171
179	0x3ea2d3fb	0.31802353
180	0xbed05dcc	-0.4069656
181	0x3f00d343	0.5032236
182	0xbe2c54c8	-0.16829216
183	0xbeb85595	-0.36002794
184	0x3c432578	0.011910789
185	0x3d29f07a	0.041489102
186	0xbefac734	-0.48980105
187	0xbd86f2b2	-0.06589259
188	0xbd8a7f29	-0.06762535
189	0x3e197eea	0.1498982
190	0xbe923dfd	-0.28562918
191	0x3e802b43	0.25033006
192	0xbe83c217	-0.25734016
193	0xbeb69725	-0.3566219
194	0x3ea7ada8	0.32749677
195	0xbccc5885	-0.024944553
196	0xbf1454e2	-0.5794202
197	0x3f32e2f7	0.6987757
198	0xbe3f554c	-0.18684882
199	0x3d16bdd8	0.036802143
200	0xbe3c00fe	-0.18359753
201	0xbed55163	-0.41663656
202	0xbccc8b49	-0.02496876
203	0xbed4ba03	-0.41548166
204	0xbe3d8227	-0.1850668
205	0xbf196aa5	-0.5992835
206	0x3e54757f	0.20747946
207	0xbe897f41	-0.268549
208	0xbebada18	-0.36494517
209	0xbe298b4e	-0.16557047
210	0x3ee74347	0.45168516
211	0xbee7632e	-0.45192856
212	0xbdff910d	-0.12478838
213	0xbe82f0d0	-0.2557435
214	0xbb5c3770	-0.003360238
215	0x3d1b4903	0.037911426
216	0xbd41046d	-0.04712336
217	0x3f0bd35b	0.5461938
218	0x3f15d8fe	0.5853423
219	0x3ec5ec80	0.38656998
220	0x3e501519	0.20320548
221	0xbdd3ad39	-0.10335774
222	0xbe9bf083	-0.30456933
223	0xbc937724	-0.018001147
224	0xbeb41279	-0.35170344
225	0x3f20e00d	0.62841874
226	0x3ef45b05	0.47725692
227	0xbe9295c5	-0.2862989
228	0xbe71ff6e	-0.23632595
229	0xbe5e0abf	-0.21683787
230	0x3ed6f0eb	0.4198068
231	0x3dc5441f	0.09632134
232	0xbecdbb1b	-0.40181813
233	0xbe6009b0	-0.21878695
234	0x3ecf6571	0.4050708
235	0x3ef44d44	0.477152
236	0x3c67bb76	0.014143815
237	0xbdab844b	-0.08374842
238	0x3ef2cb73	0.47420844
239	0xbdf73c06	-0.120719954
240	0x3f07db78	0.5306926
241	0xbef96293	-0.4870802
242	0xbe393468	-0.18086398
243	0x3f24e0f9	0.6440578
244	0x3f2347bd	0.6378134
245	0xbf08d9ca	-0.5345732
246	0xbef834d7	-0.48477814
247	0x3e3a85fd	0.18215175
248	0xbe3fdbc6	-0.1873618
249	0x3e202201	0.15637971
250	0x3f1d69da	0.6148964
251	0xbd88a135	-0.06671373
252	0x3d0ab80b	0.033866923
253	0x3eaf70fc	0.34265888
254	0xbcf15339	-0.029458629
255	0x3d2e0cf5	0.042492826

predictor.0.weight f4 [104, 199]
0	0xbe0e9c8d	-0.13926907
1	0xbdb445a8	-0.088023484
2	0x3cb92c86	0.022604238
3	0x3d294b33	0.04133148
4	0x3e0f73e2	0.1400905
5	0x3de39240	0.11111879
6	0x3cabcb3d	0.020970935
7	0xbc40f5a2	-0.011777313
8	0xbe82cabe	-0.25545305
9	0xbceb11c1	-0.02869499
10	0xbd4baabd	-0.049723376
11	0xbbee87f5	-0.007279391
12	0x3c724582	0.01478708
13	0xbcefde5f	-0.02928084
14	0x3cc173e5	0.023614833
15	0x3c8d9a57	0.017285509
16	0xbcf948b9	-0.030430185
17	0xbda964e7	-0.08271199
18	0xbdba6d2d	-0.09102855
19	0x3d19fd36	0.037594996
20	0xbcc91b88	-0.02454926
21	0xbd95edeb	-0.0732077
22	0xbc90e0e7	-0.017685367
23	0x3d4f0f2a	0.05055157
24	0x3d0b2caa	0.03397814
25	0xbd985c74	-0.07439509
26	0x3dc0d69f	0.09415936
27	0x3df0d50f	0.11759388
28	0xba87d87d	-0.0010364201
29	0x3db7d265	0.089756764
30	0xbca6deb9	-0.020369874
31	0xbe1715bd	-0.14754386
32	0x3cac1565	0.021006295
33	0xbbf500f4	-0.0074769203
34	0x3d83a9e0	0.064288855
35	0x3dad4b6f	0.084616534
36	0x3c89b9bc	0.016812198
37	0xbdb6964c	-0.089153856
38	0x3c2a05ea	0.010377387
39	0xbda2f224	-0.07956341
40	0xbdb6dd0e	-0.089288816
41	0x3b45cb02	0.0030180817
42	0x3d6a27e8	0.057166964
43	0x3d6e80c3	0.058228265
44	0x3d88f991	0.06688226
45	0x3d8cfd89	0.068842955
46	0x3e1c26c9	0.1524917
47	0x3da05727	0.07829123
48	0xbdf73c4b	-0.12072047
49	0xbd353edc	-0.0442494
50	0xbd6247ad	-0.055244137
51	0xbc5ff7a1	-0.013669879
52	0x3d24f646	0.040273927
53	0xbe142a22	-0.14469197
54	0xbd0616b2	-0.032736488
55	0xbb1949ec	-0.0023390008
56	0x3d6cae68	0.057783514
57	0x3cf11e43	0.029433375
58	0xbda08092	-0.07837023
59	0xbe238462	-0.15968469
60	0xbd6a04bf	-0.057133432
61	0x3dd08749	0.101820536
62	0x3db09035	0.08621255
63	0xbdd78b60	-0.105246305
64	0x3c38e62e	0.011285348
65	0x3de595d4	0.11210218
66	0xbdce0212	-0.10058989
67	0xbc76be53	-0.015060025
68	0x3d046963	0.032327067
69	0xbdb14f46	-0.08657698
70	0x3dee758f	0.11643516
71	0xbdadd2f4	-0.08487502
72	0x3d2e9396	0.042621218
73	0x3de5acbf	0.11214589
74	0x3c17c857	0.009264073
75	0x3da88507	0.08228498
76	0x3cca1f70	0.024673194
77	0x3cd0f710	0.025508434
78	0x3def115e	0.116732344
79	0xbd82b228	-0.06381637
80	0xbdc92cad	-0.09822974
81	0xbdd035fc	-0.10166547
82	0x3ccc88e1	0.024967613
83	0xbd66f9d1	-0.056390587
84	0x3d81d3ba	0.06339212
85	0xbda899df	-0.082324736
86	0x3d5cd41d	0.053913224
87	0xbd9eb0a0	-0.07748532
88	0xbc9ead21	-0.019369664
89	0x3da424e4	0.08014849
90	0x3cae54c5	0.021280656
91	0xbdce0d11	-0.10061086
92	0x3c368861	0.011140914
93	0xbc05aae9	-0.008158424
94	0xbd5bc03a	-0.05365012
95	0xbd9ee0a7	-0.07757693
96	0xbdd6398b	-0.10460194
97	0xbd514286	-0.051088832
98	0xbdad1256	-0.08450763
99	0xbdf06187	-0.11737352
100	0x3cdc1301	0.02686453
101	0x3daa1566	0.08304863
102	0x3d221949	0.039574895
103	0x3d86e34b	0.065863214
104	0x3c9cb8b4	0.019131042
105	0x3df7df2a	0.12103112
106	0xbe0484a3	-0.12941222
107	0x3ddafcdb	0.106927596
108	0x3cfabc2a	0.030607302
109	0xbde29abf	-0.11064672
110	0xbd8a2c4e	-0.06746732
111	0xbd3b5b8c	-0.045741603
112	0x3da65aa3	0.08122756
113	0x3d498d10	0.049206793
114	0xbd37052e	-0.044682674
115	0x3da44304	0.08020595
116	0x3b74ed82	0.003737301
117	0xbd42c157	-0.047547664
118	0xbbc6af89	-0.006063406
119	0x3e60760d	0.21920033
120	0x3cead26f	0.028664796
121	0x3c4e126c	0.012577634
122	0xbd1ee707	-0.038794544
123	0xbdf66b07	-0.120321326
124	0x3deeab55	0.11653773
125	0xbc6936e8	-0.014234282
126	0xbd9ea4b3	-0.07746258
127	0xbd507aee	-0.050898485
128	0xbd839a89	-0.064259596
129	0x3c9f3db6	0.019438606
130	0xbcfff7ee	-0.031246152
131	0xbe1bc047	-0.15210067
132	0xbcbf0d55	-0.023321787
133	0x3d25af1a	0.040450193
134	0x3d53ca1c	0.05170642
135	0xbb815fce	-0.0039481884
136	0xbca8c66f	-0.020602433
137	0x3e044f94	0.12920982
138	0x3c5c1a5e	0.013434021
139	0x3dcc170d	0.09965334
140	0x3e2b9d48	0.16759217
141	0x3d24c875	0.040230233
142	0x3d980c22	0.07424189
143	0x3b51af25	0.0031995263
144	0xbd446443	-0.04794718
145	0xbc710498	-0.014710568
146	0xbdfab4c9	-0.12241513
147	0x3e339782	0.17538264
148	0x3ce6e63d	0.028185958
149	0x3d41df23	0.04733194
150	0xbca87e79	-0.02056812
151	0xbd6e0ecc	-0.05811958
152	0x3d907093	0.07052722
153	0xbb6ad3cc	-0.0035831807
154	0xbdd8e7e9	-0.10591108
155	0xbceda3b9	-0.029008733
156	0xbc5f9007	-0.013645179
157	0xbd03ad85	-0.032147903
158	0xbcf35cad	-0.029707277
159	0xbd0ffd65	-0.035153765
160	0xbafa91df	-0.0019116959
161	0x3cce5d43	0.025190955
162	0xbca414e9	-0.020029502
163	0xbd5b6e96	-0.05357226
164	0x3bcf7d34	0.006332064
165	0x3de293cf	0.110633485
166	0x3cfc797e	0.03081965
167	0xbce05053	-0.027382052
168	0xbd03a24b	-0.032137197
169	0xbdd970c0	-0.106172085
170	0xbd8a7f2a	-0.06762536
171	0xbdef0bae	-0.116721496
172	0x3d9f16dd	0.07768033
173	0x3d463ab8	0.048395842
174	0xbc6315f0	-0.013860211
175	0xbd5c0565	-0.053716082
176	0xbe231b62	-0.15928414
177	0xbd8d5c9a	-0.06902428
178	0xbd8df2fc	-0.06931111
179	0xbd31d9ae	-0.043420486
180	0x3d25ea77	0.040506806
181	0x3dcd1553	0.10013833
182	0xbcefb94f	-0.029263167
183	0xbd26674e	-0.040625863
184	0x3ddf0db0	0.108912826
185	0xbdcca849	-0.09993035
186	0xbcced968	-0.025250152
187	0x3d397e44	0.045286432
188	0xbd0e889b	-0.034798246
189	0xbc6cdfc9	-0.014457651
190	0xbd815aba	-0.06316133
191	0xbda3f856	-0.08006351
192	0x3d70c220	0.058778882
193	0xbda60884	-0.08107093
194	0x3c2419c8	0.010015912
195	0x3d406f3d	0.046981085
196	0x3dfd2586	0.12360673
197	0x3de5693f	0.11201715
198	0xbe598989	-0.21243872
199	0x3bbd6c08	0.0057807006
200	0xbd83179b	-0.06400987
201	0x3d0b68f3	0.034035634
202	0x3c80a5f1	0.015704127
203	0x3c610683	0.013734463
204	0x3d89b142	0.06723262
205	0x3d76f65b	0.060293537
206	0x3daf914e	0.085726365
207	0x3cdaf3a6	0.026727509
208	0xbd08280c	-0.033241317
209	0x3ca2f854	0.019893803
210	0xbd1345c5	-0.03595521
211	0x3c1ea5b6	0.009683063
212	0xbbec871f	-0.007218256
213	0xbca94a39	-0.020665275
214	0x3bc8d501	0.0061289077
215	0xbc974bbc	-0.01846873
216	0xbbbb82de	-0.0057223877
217	0x3d725809	0.059165988
218	0x3d86ec68	0.0658806
219	0xbc9d0ed2	-0.019172106
220	0x3ca08054	0.019592442
221	0x3d52d71a	0.051474668
222	0xbaf2c3d4	-0.0018521496
223	0x3ce22e1b	0.027609875
224	0x3c7a0a4e	0.015261246
225	0x3d7c560b	0.061605494
226	0x3c152703	0.009103539
227	0x3c64b652	0.013959484
228	0x3c8c64b0	0.017137855
229	0x3d41171a	0.047141172
230	0x3d26d994	0.040734842
231	0x3ca5ff69	0.02026339
232	0x3d4695b9	0.04848263
233	0xbb2e51e5	-0.0026599106
234	0xbc579789	-0.013158687
235	0x3ce507ec	0.027957879
236	0x3abb75b8	0.0014302051
237	0x3c923da6	0.017851662
238	0xbcc051bb	-0.023476472
239	0xbcd61ae1	-0.026135864
240	0xbc910dfe	-0.017706867
241	0xbd7b6fc5	-0.06138589
242	0x3c2164a7	0.009850658
243	0xbb6c06a4	-0.00360147
244	0xbd2a17dd	-0.041526664
245	0xbd05bc84	-0.032650486
246	0xbcc7a8a1	-0.0243724
247	0x3d32deb8	0.043669432
248	0x3e1f685a	0.1556715
249	0x3d8fd5a1	0.07023168
250	0x3cf6765f	0.03008574
251	0xbbb9b751	-0.005667605
252	0x3b8b9f33	0.0042609214
253	0x3cb43902	0.02199984
254	0xbd4e7f12	-0.050414152
255	0xbc9d295c	-0.01918476

predictor.0.bias f4 [104]
0	0x396735c9	0.00022049913
1	0xbd49fda3	-0.049314152
2	0x3d12e812	0.03586585
3	0x3d3f6c61	0.046734218
4	0xbda52da2	-0.080653444
5	0xbcf53680	-0.029933214
6	0x3d9f797b	0.077868424
7	0x3e6a750d	0.22896214
8	0x3d195dec	0.037443087
9	0xbcaa50a0	-0.020790398
10	0x3c9140d0	0.0177311
11	0x3d508fcb	0.05091838
12	0x3e02f296	0.12787852
13	0x3d920999	0.07130737
14	0x3dab46bf	0.08363103
15	0x3c0efd4a	0.008727381
16	0x3cd7177a	0.026256312
17	0xbd5cc069	-0.053894434
18	0xbcbd3fbf	-0.023101686
19	0x3e10887b	0.14114563
20	0xbd0c4665	-0.03424682
21	0xbde24030	-0.11047399
22	0x3bedf51f	0.0072618867
23	0x3d919f48	0.071104586
24	0xbe109b71	-0.14121796
25	0x3de94a22	0.11391093
26	0x3d3708ad	0.04468601
27	0x3d240de6	0.040052317
28	0xbb970e35	-0.004609848
29	0xbd9a0181	-0.07519818
30	0x3dc2d75e	0.09513734
31	0x3d5a7d24	0.053342
32	0x3de6b622	0.11265208
33	0x3d2d04f3	0.042241048
34	0x3d053c9b	0.0325285
35	0x3d5eba84	0.054377094
36	0xbdba706f	-0.09103476
37	0x3dd2d65a	0.102947906
38	0xbd27f61d	-0.041006196
39	0xbd50d0af	-0.050980266
40	0xbcfc1f45	-0.03077663
41	0x3bad54ab	0.005289634
42	0x3d4fea59	0.0507606
43	0x3cd8d39c	0.02646809
44	0xbd0d2360	-0.034457564
45	0xb9d88872	-0.0004130039
46	0x3d826ea6	0.06368761
47	0x3d2919d7	0.04128441
48	0xbda37b64	-0.07982519
49	0xbd07185b	-0.03298221
50	0x3cd136db	0.025538852
51	0xbd85e6cc	-0.06538162
52	0x3c8c9950	0.017162949
53	0x3d18c885	0.037300605
54	0x3d99ecfb	0.075159036
55	0x3e0a8828	0.13528502
56	0x3bcdfc74	0.0062861983
57	0x3d2fbe37	0.042906012
58	0xbd133ba3	-0.035945546
59	0x3db10e69	0.08645327
60	0xbb134b87	-0.0022475438
61	0x3e01e5a3	0.12685256
62	0x3d1d6d09	0.038434062
63	0x3c23e0af	0.010002299
64	0xbd690591	-0.056890074
65	0xbc6d1a5a	-0.014471615
66	0xbcd6a903	-0.026203638
67	0x3d30f0d9	0.04319844
68	0x3dc2858c	0.09498128
69	0x3dae59f2	0.085132495
70	0x3d9fa70d	0.07795534
71	0x3dc0f0ef	0.094209544
72	0x3d8abd4f	0.06774389
73	0x3d0fec5e	0.035137527
74	0xbd1f7f97	-0.03894004
75	0x3cc608fe	0.02417421
76	0xbd8285f9	-0.063732095
77	0xbd3216c1	-0.04347873
78	0x3bdc9b70	0.006732397
79	0x3afbbf87	0.001920686
80	0x3cc4176c	0.02393695
81	0x3d9f16bc	0.07768008
82	0xbd9c1898	-0.076218784
83	0x3d504be8	0.05085364
84	0x3dd6f4ea	0.104959324
85	0x3d46bee2	0.048521884
86	0x3dd38191	0.10327447
87	0x3d8a4f35	0.06753389
88	0x3d2aea90	0.041727602
89	0x3c46e607	0.012139804
90	0xbd043bda	-0.03228364
91	0x3d0951bb	0.03352521
92	0x3dc0c79e	0.09413074
93	0x3d01dd6a	0.031705298
94	0x3d89b328	0.067236245
95	0x3d9eff42	0.0776353
96	0x3d59e063	0.053192507
97	0x3c7770c3	0.015102568
98	0xbd1c70a5	-0.038193364
99	0xbc91f4f8	-0.017817006
100	0x3dfd2eb6	0.12362425
101	0x3dbfa0bb	0.09356829
102	0x3dac8cc5	0.08425287
103	0xbc845011	-0.01615146

predictor.2.weight f4 [8, 104]
0	0xbcb2996a	-0.02180167
1	0xbdbf45c6	-0.0933948
2	0xbd9f14eb	-0.07767662
3	0xbe1455e5	-0.14485891
4	0x3e28a20f	0.1646807
5	0xbdb3b4ef	-0.08774745
6	0xbd35d5cf	-0.044393357
7	0x3e0640d8	0.13110673
8	0x3e63b5bf	0.222373
9	0x3dda48da	0.106584266
10	0xbe0ddcf4	-0.13853818
11	0x3be7c040	0.0070724785
12	0xbd72e87d	-0.05930375
13	0x3de92273	0.11383524
14	0x3d6942b0	0.056948364
15	0x3e9aa0c5	0.30200782
16	0xbe51d549	-0.20491518
17	0xbd92ed76	-0.07174198
18	0x3e482be1	0.19547988
19	0x3cf7264d	0.03016963
20	0xbe5eeea4	-0.21770722
21	0x3e763cd3	0.2404664
22	0xbd842c86	-0.06453805
23	0x3d8e94d4	0.069619805
24	0x3e9c658b	0.3054622
25	0x3e291047	0.16510116
26	0xbdc4b03b	-0.09603926
27	0xbcf2900e	-0.029609706
28	0xbe08cc1c	-0.13359112
29	0xbdb914e9	-0.090371914
30	0x3da64cfb	0.081201516
31	0xbdcda75c	-0.10041687
32	0xbd5cf36a	-0.053943075
33	0xbdc1c447	-0.09461265
34	0x3d1938a9	0.03740755
35	0x3d6a9fe4	0.05728139
36	0x3dce092b	0.100603424
37	0xbdeda72f	-0.11604153
38	0xbdb72681	-0.08942891
39	0xbc23f059	-0.010006034
40	0x3d8e06b1	0.0693487
41	0x3e2ee2fd	0.17078777
42	0xbdd33fbf	-0.10314893
43	0xbd38325e	-0.04496991
44	0x3ddd661f	0.10810494
45	0xbd338421	-0.04382718
46	0x3d00857a	0.031377293
47	0xbdf28f19	-0.118437
48	0xbe6df6bd	-0.23238654
49	0xbe126254	-0.14295322
50	0x3e2d77e1	0.16940261
51	0x3d8be14f	0.068300836
52	0x3d5851c1	0.05281234
53	0x3d99aca4	0.07503632
54	0x3d1b05fd	0.037847508
55	0x3e2c17a0	0.16805887
56	0xbdc2b0bc	-0.09506366
57	0xbd6f5d3a	-0.058438517
58	0xbe2eba63	-0.17063288
59	0x3b92e449	0.00448278
60	0x3d8dac37	0.06917613
61	0x3c560ddd	0.013064829
62	0xbc966651	-0.018359335
63	0xbe08c972	-0.13358095
64	0xbd2ab11d	-0.041672815
65	0xbca31afd	-0.01991033
66	0xbc9b9a67	-0.018994523
67	0x3e66c143	0.22534661
68	0x3cb6405d	0.022247488
69	0xbe131057	-0.14361702
70	0x3e1e8558	0.15480554
71	0xbcf0c749	-0.029391902
72	0xbf03dbbf	-0.5150718
73	0xbc24c000	-0.010055542
74	0xbdcc8574	-0.09986392
75	0xbd8bb196	-0.06820981
76	0x3e69522c	0.22785252
77	0x3ee3c9b1	0.44489816
78	0xbece3174	-0.40272105
79	0xbdfe7cfd	-0.124261834
80	0x3cf075be	0.029353019
81	0x3c945922	0.018108908
82	0x3e1d55ab	0.15364711
83	0x3dacc787	0.08436494
84	0x3e7d582a	0.24740663
85	0x3da2c286	0.07947259
86	0xbe0e7107	-0.13910304
87	0xbd8c5ef6	-0.0685405
88	0xbabc8d6b	-0.0014385408
89	0x3ddc92f9	0.1077022
90	0x3da73740	0.08164835
91	0xbe2c2f19	-0.16814841
92	0xbd1033d8	-0.035205692
93	0xbd3691cc	-0.044572636
94	0x3e40b49a	0.18818894
95	0x3f1c6148	0.6108594
96	0x3dda7bf9	0.10668177
97	0x3e099358	0.13435113
98	0xbf022745	-0.5084117
99	0x3d343635	0.04399701
100	0x3de5d5b4	0.11222401
101	0x3d972141	0.073793896
102	0x3b1e3a2f	0.0024143567
103	0xbc787397	-0.0151642775
104	0x3de887cc	0.11354026
105	0xbeb8772e	-0.36028427
106	0xbe0442f1	-0.12916161
107	0xbea39e07	-0.31956503
108	0x3e89b763	0.26897725
109	0xbe2507bb	-0.1611623
110	0xbe11dc82	-0.14244273
111	0x3eaa010b	0.3320392
112	0x3e08506a	0.13311926
113	0x3e3023ed	0.17201205
114	0xbe333e09	-0.17504133
115	0xbd3d23a4	-0.046176568
116	0xbc659af4	-0.0140139945
117	0x3d149d90	0.036283076
118	0x3d1d6a66	0.038431548
119	0x3f36b93c	0.71376395
120	0xbe18e11f	-0.14929627
121	0xbe4bf90a	-0.1991922
122	0x3eb41916	0.3517539
123	0x3db8bd77	0.090205126
124	0xbe7340f1	-0.23755242
125	0x3ec62106	0.3869707
126	0xbdca0e4d	-0.09866009
127	0x3bb600e3	0.005554305
128	0x3f523546	0.8211254
129	0x3e4f57ef	0.20248388
130	0xbc072962	-0.0082496125
131	0x3de55ae2	0.11198975
132	0xbe339db6	-0.1754063
133	0xbe8a0f87	-0.2696497
134	0x3dafc29d	0.085820414
135	0xbe14f328	-0.14545882
136	0x3ca9d001	0.020729067
137	0xbe1e24e7	-0.15443765
138	0x3e137edc	0.14403862
139	0x3d6de2f7	0.05807778
140	0x3e43aae2	0.19108155
141	0xbda292e2	-0.07938172
142	0xbe43927f	-0.19098853
143	0xbe497b20	-0.19675875
144	0x3e2d5d7b	0.16930191
145	0x3d2d6ade	0.042338245
146	0xbe25d313	-0.161938
147	0xbe03ea09	-0.12882246
148	0x3e9445e0	0.2895956
149	0xbe09ca34	-0.1345604
150	0xba95e1d7	-0.0011435103
151	0xbe017078	-0.1264056
152	0xbeae6bd1	-0.34066632
153	0xbe5a03be	-0.2129049
154	0x3e752f63	0.23943858
155	0x3e642710	0.22280526
156	0x3e4a3303	0.19746022
157	0x3e2c0875	0.16800101
158	0x3e07e2aa	0.13270059
159	0x3dae24a0	0.085030794
160	0xbe1d7404	-0.15376288
161	0xbdf57f91	-0.11987222
162	0xbec95f65	-0.39330593
163	0x3c65d4db	0.0140277995
164	0xbcbe3217	-0.023217244
165	0x3d3a981e	0.045555227
166	0x3d892191	0.066958554
167	0xbe779c36	-0.24180683
168	0xbe922a30	-0.28547812
169	0xbdee8887	-0.11647134
170	0xbe146edc	-0.14495414
171	0x3e4b109a	0.19830552
172	0x3d6eca9b	0.05829869
173	0xbd8a9284	-0.06766227
174	0x3ddf27ff	0.108963005
175	0xbdb24437	-0.08704417
176	0xbf6da0aa	-0.9282328
177	0x3da39b92	0.07988657
178	0xbe95dd9c	-0.29270637
179	0xbe29cd42	-0.16582206
180	0x3e27973b	0.16366284
181	0x3f574bf7	0.8410029
182	0xbf5c9f0d	-0.8618019
183	0xbe208dfa	-0.1567916
184	0xbd1abf25	-0.037779946
185	0x3e0effd6	0.13964781
186	0x3e9b407e	0.3032264
187	0x3e147766	0.14498672
188	0x3e895210	0.2682042
189	0xbddce4c1	-0.10785819
190	0xbdbeaf95	-0.09310833
191	0xbe0c136c	-0.13679284
192	0xbdabcd0c	-0.08388719
193	0x3e434992	0.19071034
194	0x3e5afc96	0.21385416
195	0xbe2b77e8	-0.1674496
196	0x3b0132a6	0.0019714027
197	0xbcdffa62	-0.027341072
198	0x3e46663f	0.19374941
199	0x3f9b82f7	1.2149342
200	0x3de2c886	0.11073403
201	0x3e74e618	0.23915899
202	0xbf8b83df	-1.0899619
203	0x3de9f5ad	0.11423812
204	0x3d20c0eb	0.03924648
205	0x3dbefe2a	0.09325822
206	0x3da6de48	0.081478655
207	0xbdc8008c	-0.09765729
208	0x3e7db09e	0.24774405
209	0xbf02157d	-0.5081404
210	0xbe092aa1	-0.13395168
211	0xbeefa074	-0.46802104
212	0x3eb4fbb2	0.35348278
213	0xbe4ba16b	-0.19885795
214	0xbd86a47b	-0.06574341
215	0x3eda995a	0.42695123
216	0xbdcb8f6c	-0.09939465
217	0x3e4aec9a	0.19816819
218	0xbe6336d1	-0.2218888
219	0xbdfa6605	-0.1222649
220	0x3daf6f90	0.08566201
221	0x3e1447bd	0.14480491
222	0x3df9c6e6	0.1219614
223	0x3f77f9ef	0.96865743
224	0xbda33b41	-0.07970286
225	0xbe922bf7	-0.28549168
226	0x3ed55a1b	0.41670308
227	0x3dc49b1c	0.09599897
228	0xbdeacfc4	-0.114654094
229	0x3ec21597	0.37907097
230	0xbe4afaa9	-0.19822182
231	0xbdcf9be3	-0.10137155
232	0x3f8ce61a	1.1007721
233	0x3ea03e70	0.31297636
234	0x3df6badc	0.12047359
235	0xbcc361c8	-0.023850337
236	0xbe4a8af5	-0.1977957
237	0xbeca7c29	-0.39547852
238	0x3d3ddd35	0.046353538
239	0xbe258ee4	-0.1616779
240	0x3d275550	0.040852845
241	0xbe1bde8c	-0.15221614
242	0x3e81ca51	0.25349668
243	0x3e1948a2	0.14969113
244	0x3df8d7cd	0.12150536
245	0x3dccdefa	0.10003467
246	0xbe5143ca	-0.20436016
247	0xbec8dbdf	-0.39230248
248	0x3e7a54a4	0.2444635
249	0xbe0f885f	-0.14016865
250	0xbd981aab	-0.074269615
251	0xbe2c69a0	-0.16837168
252	0x3efc5b62	0.4928847
253	0xbe8179a7	-0.25288126
254	0xbe3dad3b	-0.18523113
255	0xbe1b29f0	-0.15152717

predictor.2.bias f4 [8]
0	0x3c9bc176	0.019013148
1	0x3d3d9ef3	0.046294164
2	0x3bc0c085	0.005882325
3	0x3d4f919d	0.050675977
4	0x39d1f104	0.00040043157
5	0x3d06db92	0.032924242
6	0x3ca4a87d	0.020099873
7	0x3c0d9023	0.008640322

classifier.0.weight f4 [101, 199]
0	0x3c65f322	0.014035018
1	0x3ed11be9	0.40841606
2	0xbcb27d1c	-0.021788172
3	0xbd5c69c2	-0.053811796
4	0xbd768537	-0.060185637
5	0x3d4ba3a2	0.0497166
6	0xbe3b3f29	-0.18285812
7	0x3cab6ba2	0.020925347
8	0x3de12622	0.109936014
9	0xbe4cb790	-0.19991899
10	0x3d940f97	0.07229536
11	0xbe1942dc	-0.14966911
12	0xbde55b4f	-0.11199056
13	0xbe67f381	-0.22651483
14	0xbe51ce44	-0.2048884
15	0xbe6b8916	-0.23001513
16	0xbe84d836	-0.25946206
17	0xbe1904bf	-0.14943217
18	0xbe5776b6	-0.21041378
19	0xbdb94c86	-0.09047799
20	0xbe3280b9	-0.17431916
21	0xbd6267aa	-0.055274643
22	0x3dbe21e7	0.0928381
23	0xbdd53671	-0.104107745
24	0xbd1be403	-0.038059246
25	0xbe49d8b7	-0.19711576
26	0x3d5719e7	0.052514937
27	0xbe44eabd	-0.1923017
28	0xbe925f9e	-0.28588575
29	0x3d05dea9	0.03268305
30	0xbe523416	-0.20527682
31	0x3e774857	0.24148689
32	0xbd3ef59d	-0.046620954
33	0x3ecff8ea	0.40619594
34	0xbf0b8525	-0.5450004
35	0x3e171ef9	0.14757909
36	0xbe974b73	-0.2954975
37	0x3cea6423	0.028612202
38	0x3cd516d3	0.02601186
39	0xbd70630d	-0.058688212
40	0xbdd06095	-0.101746716
41	0xbeb1c691	-0.34721807
42	0x3dd2aee7	0.10287266
43	0xbdd5d066	-0.104401395
44	0xbd381bbe	-0.044948332
45	0xbd93d369	-0.07218058
46	0xbd1c9fcd	-0.038238335
47	0x3dc18926	0.09449987
48	0xbdc5a644	-0.09650853
49	0xbb66886c	-0.0035176529
50	0xbe802ef3	-0.2503582
51	0xbed9a571	-0.42509034
52	0xbd9cb390	-0.07651436
53	0xbd94107b	-0.07229706
54	0x3d8445e4	0.06458643
55	0x3dd4beef	0.1038798
56	0xbe0f6972	-0.14005068
57	0xbe249c1d	-0.16075177
58	0xbe42f992	-0.19040516
59	0x3da9ff11	0.08300603
60	0xbe8fd750	-0.28093958
61	0xbdd7e4ee	-0.10541712
62	0xbf1098a1	-0.56482893
63	0xbd887550	-0.066630006
64	0xbe947f42	-0.2900334
65	0xbd9bb7b1	-0.07603396
66	0xbe1d3f0b	-0.1535608
67	0xbe7a38c3	-0.24435715
68	0xbd6ba8c0	-0.05753398
69	0xbda44889	-0.080216475
70	0xbda207d1	-0.07911647
71	0xbea004b9	-0.31253603
72	0x3e08b278	0.1334933
73	0xbe43e15d	-0.19128938
74	0x3de4db33	0.111746214
75	0x3eae9de2	0.3410483
76	0x3bc97de6	0.0061490415
77	0xbe48b55b	-0.19600432
78	0xbe3f1839	-0.18661584
79	0x3e0c0c3e	0.13676545
80	0xbdaf3854	-0.085556656
81	0x3c37e6ca	0.011224458
82	0x3c3112f1	0.010807739
83	0xbde03667	-0.109478764
84	0xbe607332	-0.21918944
85	0xbb967b28	-0.004592318
86	0xbe6df68c	-0.23238581
87	0xbd8a12b6	-0.0674185
88	0xbe9ffef5	-0.31249204
89	0x3e277bf4	0.16355878
90	0xbf10928a	-0.564736
91	0x3e486e15	0.19573243
92	0xbe96108d	-0.29309502
93	0x3d1fd263	0.039019
94	0xbe903eec	-0.28173006
95	0x3d5e08c6	0.054207586
96	0xbe3482c9	-0.17628016
97	0x3c3dde69	0.011588671
98	0xbeca403b	-0.3950213
99	0x3e226123	0.15857367
100	0xbeb63d07	-0.35593435
101	0x3d8e89e9	0.06959898
102	0xbd9ae5a7	-0.07563334
103	0xbd932fbb	-0.07186838
104	0xbe8a1a6b	-0.2697328
105	0xbca56d2c	-0.020193659
106	0xbda1db80	-0.079031944
107	0x3dd1492d	0.10219035
108	0xbd2c71b7	-0.042100634
109	0xbd338951	-0.043832127
110	0x39d9b0d3	0.0004152121
111	0xbd8c42ab	-0.068486534
112	0x3e2cde9d	0.16881795
113	0xbe2fff36	-0.17187199
114	0xbe2bbd6f	-0.16771482
115	0x3d38c8bd	0.045113314
116	0x3c54fd81	0.012999893
117	0xbe4150db	-0.188785
118	0xbd841a4c	-0.06450328
119	0xbe0f725f	-0.14008473
120	0x3e28a5f1	0.16469552
121	0xbe29ed7c	-0.165945
122	0x3c2313a7	0.009953416
123	0xbd3d5d42	-0.046231516
124	0xbd90c993	-0.07069697
125	0xbe28570f	-0.1643946
126	0xbd931e51	-0.07183517
127	0xbdd85abe	-0.10564183
128	0xbe8bdc5b	-0.27316555
129	0xbc9ea6ac	-0.019366585
130	0x3d705ec0	0.05868411
131	0xbcc4466f	-0.023959367
132	0xbd4b9ec2	-0.04971195
133	0x3e1f242b	0.1554114
134	0xbedc409f	-0.43018052
135	0x3e3e70d6	0.18597731
136	0xbe2484d7	-0.160663
137	0xbc805ea5	-0.01567013
138	0xbec4e694	-0.38457167
139	0xbcc3f4b5	-0.023920396
140	0xbf04a26b	-0.5181033
141	0x3d88977b	0.066695176
142	0xbecadbd6	-0.39620847
143	0x3d71fc76	0.059078656
144	0xbf099daf	-0.5375623
145	0xbd4dbb64	-0.050227538
146	0xbdbb28ed	-0.09138665
147	0xbe3d4ac4	-0.18485552
148	0xbe9b061e	-0.30278105
149	0x3d5fd57e	0.05464696
150	0xbdac59dc	-0.08415577
151	0x3dc7b309	0.09750945
152	0xbe6e463a	-0.23268977
153	0x3dd9182d	0.10600314
154	0xbe7c8a72	-0.24662188
155	0x3c9e8f79	0.019355522
156	0xbe20b835	-0.1569527
157	0x3db8c4d7	0.09021919
158	0x3d481235	0.04884549
159	0xbd84a9b3	-0.0647768
160	0x3e0d6a06	0.13809976
161	0xbeef2b0d	-0.46712533
162	0x3e86eb1e	0.26351255
163	0xbf117af2	-0.56828225
164	0x3d5114a9	0.051045094
165	0xbe0c5562	-0.13704446
166	0xbd829a1b	-0.063770495
167	0xbd1b733a	-0.037951685
168	0x3d14a06a	0.036285795
169	0xbdf0e031	-0.11761511
170	0x3d81d000	0.06338501
171	0xbd9ec6a7	-0.07752734
172	0xbe782fd7	-0.24237
173	0xbe25c88e	-0.16189787
174	0xbd9fa320	-0.077947855
175	0xbdf3ab6a	-0.11897929
176	0xbb37deed	-0.0028056458
177	0x3d1d13e0	0.038349032
178	0xbeb00537	-0.3437898
179	0xbcbc526b	-0.022988519
180	0xbdbc37e2	-0.09190346
181	0xbad18324	-0.0015984518
182	0xbd3a1ccb	-0.045437615
183	0x3e103cb9	0.14085664
184	0xbe00b95a	-0.12570706
185	0x3df81fad	0.12115417
186	0xbe31e63a	-0.1737298
187	0x3df5b2ce	0.11996995
188	0xbe73a530	-0.23793483
189	0x3dbefbce	0.09325372
190	0x3d07bdc0	0.033139944
191	0xbe017ad9	-0.12644519
192	0x3bbd5ae1	0.005778656
193	0xbe0d9d18	-0.13829458
194	0xbe92fd75	-0.28708997
195	0x3b10dc96	0.0022104136
196	0x3d1a241c	0.037632093
197	0x3d7365d8	0.059423298
198	0xbd8d2b31	-0.06893004
199	0x3be9fe51	0.0071409126
200	0x3e01b47e	0.12666509
201	0xbe9eebf0	-0.3103938
202	0x3db473d0	0.08811152
203	0xbe206750	-0.1566441
204	0x3e392d5d	0.18083711
205	0xbcf0311d	-0.029320294
206	0x3da8f4e2	0.08249833
207	0xbd6ce473	-0.057835054
208	0x3dac1fa8	0.084044755
209	0xbd0c0ef2	-0.03419394
210	0xbd04fd4b	-0.03246812
211	0xbe32f0a5	-0.17474611
212	0xbcab07eb	-0.020877799
213	0xbe398222	-0.18116048
214	0x3cc437ff	0.023952482
215	0xbdb48fee	-0.08816515
216	0x3d70cb61	0.058787707
217	0xbe81bf0a	-0.25341064
218	0x3d761740	0.060080767
219	0xbe2c3117	-0.16815601
220	0x3e2f5df6	0.17125687
221	0xbda498bd	-0.08036945
222	0xbdc4d699	-0.09611244
223	0xbdb9c73a	-0.090712026
224	0xbda6f8a8	-0.08152896
225	0x3de36ddd	0.11104939
226	0xbda737bd	-0.08164928
227	0x3cc6cc58	0.02426736
228	0x3c98b1ea	0.018639524
229	0xbe218f0a	-0.15777221
230	0x3d74324d	0.059618283
231	0xbd1f4d7f	-0.038892265
232	0xbd93c346	-0.0721498
233	0xbe1c8bf8	-0.15287769
234	0x3e05c031	0.13061596
235	0xbdaa684e	-0.08320676
236	0x3d5e6f97	0.05430564
237	0xbd6794f3	-0.056538533
238	0xbe01c9bd	-0.12674613
239	0xbe303fa8	-0.17211783
240	0xbcb16065	-0.02165241
241	0xbda41c8c	-0.080132574
242	0xbe32f3cf	-0.17475818
243	0xbda58567	-0.08082085
244	0xbe574bed	-0.21025057
245	0xbcf2b6da	-0.029628206
246	0xbe037f54	-0.1284154
247	0xbdc43d9a	-0.09582062
248	0xbdb68b9b	-0.089133464
249	0xbd707efb	-0.058714848
250	0xbdcd2121	-0.100160845
251	0x3df1458e	0.11780845
252	0xbe96dca7	-0.2946522
253	0x3e0514c8	0.12996209
254	0xbdbfe821	-0.09370447
255	0xbd738b9c	-0.059459314

classifier.0.bias f4 [101]
0	0x3f2ba254	0.6704457
1	0x3f36d82b	0.71423596
2	0xbf25c100	-0.6474762
3	0xbf34ceda	-0.7062813
4	0xbf2b841f	-0.66998476
5	0x3f4d54d5	0.8020757
6	0xbf3ab3c6	-0.7293056
7	0xbf11d462	-0.56964695
8	0xbf27a0e3	-0.6547987
9	0x3f3ab5bf	0.7293357
10	0x3f36c15f	0.7138881
11	0xbf20b8b9	-0.62781864
12	0xbf2a7bb9	-0.66595036
13	0xbf338643	-0.7012674
14	0xbf30454e	-0.6885575
15	0xbf1e05a5	-0.6172736
16	0xbf15964c	-0.5843246
17	0xbf190e0f	-0.59787077
18	0x3f6448ca	0.8917357
19	0xbf362f9c	-0.71166396
20	0x3f403be7	0.75091404
21	0x3f54b655	0.83090717
22	0xbf1b2f00	-0.6061859
23	0x3f4eee67	0.80832523
24	0xbf39ca22	-0.72574055
25	0x3f2998ae	0.66248596
26	0x3f369cb3	0.71332854
27	0x3f353444	0.70782876
28	0xbf1ca566	-0.6118988
29	0xbf2e06b8	-0.67979
30	0xbf2e3667	-0.6805176
31	0x3f481f42	0.78172696
32	0x3f3579ba	0.70888865
33	0xbf24f853	-0.6444141
34	0xbf2039da	-0.62588274
35	0xbf24fb6b	-0.64446133
36	0x3f504c38	0.813663
37	0xbf2c1550	-0.6722002
38	0xbf259999	-0.64687496
39	0xbf26bae8	-0.65128946
40	0xbf1448ae	-0.579234
41	0xbf0f2bf4	-0.5592644
42	0xbf1ee38b	-0.62065953
43	0x3f358de2	0.7091962
44	0x3f4fcd4b	0.8117263
45	0x3f5e2f0d	0.86790544
46	0xbf3b4b6d	-0.73161966
47	0xbf2fdc6f	-0.6869573
48	0xbf249a4d	-0.64297944
49	0xbf23e192	-0.6401607
50	0x3f3841b2	0.71975243
51	0x3f52c044	0.82324624
52	0x3f644bbb	0.89178056
53	0x3f64d6fd	0.89390546
54	0xbf2bd03c	-0.67114615
55	0xbf2c064d	-0.67197114
56	0xbf1e6f4d	-0.6188858
57	0xbf32bff4	-0.6982415
58	0x3f482fc4	0.78197885
59	0xbf2e143f	-0.67999643
60	0x3f3d96a6	0.74057996
61	0x3f6e2b7f	0.9303512
62	0x3f3309f5	0.6993707
63	0x3f5cf30e	0.8630837
64	0x3f4bf0dd	0.79664403
65	0x3f5b6500	0.8570099
66	0x3f30d7e4	0.6907942
67	0x3f2b2b00	0.6686249
68	0x3f449f48	0.76805544
69	0x3f4f32a4	0.80936646
70	0xbf142565	-0.5786956
71	0xbf296764	-0.66173387
72	0xbf315923	-0.69276637
73	0xbf1c55e7	-0.61068577
74	0x3f3b86e0	0.7325268
75	0x3f3e555c	0.74349
76	0xbf414dd6	-0.75509393
77	0xbf33d039	-0.702396
78	0xbf310255	-0.69144183
79	0x3f26b5cc	0.6512115
80	0x3f4c4fea	0.7980944
81	0x3f4287d7	0.75988525
82	0x3f64990c	0.8929603
83	0x3f4847aa	0.7823435
84	0xbf259020	-0.6467304
85	0xbf1a48c3	-0.60267276
86	0x3f50dc79	0.81586415
87	0xbf2cd54f	-0.67512983
88	0xbf274eda	-0.6535469
89	0x3f426c9c	0.75946975
90	0x3f52fd59	0.8241783
91	0xbf3871d8	-0.7204871
92	0x3f3b5010	0.7316904
93	0x3f46e2f4	0.77690053
94	0xbf212278	-0.6294322
95	0xbf21d692	-0.63218033
96	0x3f4ba356	0.79546106
97	0x3f6ae734	0.9175904
98	0x3f410979	0.7540508
99	0xbf1d103b	-0.6135289
100	0x3f3e8bf5	0.7443231
