Trained_Models_CLODC/6/ConvAutoencoder_200.pth (torch, 494319 bytes, 17 tensors)

encoder.0.weight f4 [4, 8, 3]
00000000: 8ab9 313e 89ce cdbd 4678 d63c 61ea b53d
00000010: a8e1 79bd b18c 723d af7a cc3d 11ce 31bd
00000020: b83c cd3b fb21 08bd 4880 c63b 3791 a43d
00000030: 4c7e 9dbd 5a6f 1b3e aad7 1bbe bb1d c6bd
00000040: cc2e 8e3d 8363 c3ba cde4 c0bc eba3 8b3d
00000050: 114c a2be ba23 d83b 7853 773e 4466 2dbe
00000060: a03e 7bbe dc8c 983e 30a0 80bd 9df8 6cbe
00000070: 8de6 cd3e 1cd5 d3bc 5bdb e3bc 8ede c53e
00000080: 527d 49bd ff9b 68be c503 b93e 6583 97bd
00000090: 409f 00be a95f a53d d7f0 23be cb98 e0bb
000000a0: d9c9 583e 2275 53be 69d9 a8bc f7f4 1d3e
000000b0: 55ad e0bd 56cb 6e3d 236d 953e 14ed 093e
000000c0: 9f23 d6bd af07 753d 60fc 73bb 590b d63c
000000d0: 0bf8 cebd db1c df3c 2db5 82bd 0d2c f93d
000000e0: e506 153d 2161 75bd 85f1 c4bd fde8 67bd
000000f0: 9cf9 fb3c 927c 5abd 1dd3 06bd 0ca0 293e
00000100: 8fd9 5bbe 8048 1a3e c439 523e f0c7 3abe
00000110: c7f9 f63d ad83 fabc f31d ddbd dd6c fcbc
00000120: 625a edbd 8222 08bd 6f9f 7a3d 4fde f43d
00000130: 68b1 023e aca6 3a3e a036 17bd 98f8 903e
00000140: fcfd fe3d 5fdc 023e 5182 c93b fdb2 e53d
00000150: 9638 b03d 6b0d bd3b 8c07 c3bd 4dc0 9f3d
00000160: 84cb 8d3e 988f 98bb b7d6 abbb ba55 513e
00000170: 633a 293e d143 053e fa41 5f3e c535 b43b
0.17355934 -0.10049159 0.026180398 0.08882595 -0.06100622 0.059216205 0.099843375 -0.04340941
0.0062633418 -0.03323553 0.006057773 0.0803551 -0.07690105 0.15179196 -0.15218988 -0.096736394
0.069425195 -0.0014906976 -0.0235466 0.06818374 -0.3169866 0.006596056 0.24152935 -0.16933542
-0.24535608 0.29794967 -0.06280553 -0.23141713 0.4021496 -0.025858454 -0.027814558 0.38646358
-0.04919178 -0.22715758 0.36135688 -0.073981084 -0.12560749 0.08074886 -0.16009842 -0.006854152
0.21170749 -0.20650151 -0.020611482 0.15425478 -0.109705605 0.058299385 0.29184827 0.13469344
-0.10456013 0.05982178 -0.0037229285 0.026128458 -0.10105904 0.027235439 -0.06382213 0.12166605
0.03638353 -0.059907082 -0.09616379 -0.05661868 0.030758671 -0.053341456 -0.032916177 0.1656496
-0.21469711 0.15066719 0.20529848 -0.18240333 0.1205936 -0.030580366 -0.10796728 -0.030813629
-0.11589505 -0.033236034 0.061187204 0.119564645 0.12762988 0.18227643 -0.03691733 0.28314662
0.124507874 0.12779377 0.006149568 0.1121578 0.08604543 0.005769422 -0.09522924 0.0780035
0.27694333 -0.0046557896 -0.005244102 0.20442858 0.16526179 0.13014151 0.21802512 0.005499574

encoder.0.bias f4 [4]
00000000: 6c0a 5bbe d7e9 4dbc fa61 813e 9c86 d0bc
-0.21390694 -0.012567959 0.25270063 -0.025454812

encoder.2.weight f4 [1, 4, 3]
00000000: dd62 4a3d f5ad 98be e13b 6d3d 1b7e 71bf
00000010: f5d0 303e a688 06be bdb5 f0bd 2ad3 353e
00000020: d05d 5ebe fa95 7d3d 0aeb 53bd 9a46 c33e
0.04941069 -0.2982022 0.057918433 -0.94333047 0.17267211 -0.13138065 -0.11753414 0.17756334
-0.21715474 0.061910607 -0.051737823 0.38139802

decoder.0.weight f4 [1, 4, 3]
00000000: b7fb df3e 391c 173e 0024 48bf d671 e0be
00000010: b55e 373f 4fbe 013e 4574 d63f faea ec3d
00000020: e2de dbbf 7e2f 953f fb39 71be 4634 c53e
0.4374673 0.1475686 -0.7817993 -0.4383685 0.71628886 0.12670253 1.6754233 0.11568256
-1.7177393 1.1655118 -0.23557274 0.38516444

decoder.0.bias f4 [4]
00000000: 2220 dc3e 8e6f ab3f 48b8 5e3e 227d 4d3f
0.42993265 1.3393419 0.21749985 0.8026906

decoder.2.weight f4 [4, 8, 3]
00000000: a91a c93e 054a e33d 8c4c 5fbe 1816 f93e
00000010: 27f2 0cbc 6167 74be 76d7 0a3f e609 06be
00000020: 5ca9 85be ba28 e23e e61a abbd 0da0 4fbe
00000030: c8e0 b53e 7b76 8f3d b2d8 53be cb22 e03e
00000040: 8421 7fbd eb90 7dbe 7f06 063f 6133 c5bc
00000050: 1064 7cbe f4f4 0f3f e30f c9bd 4fcf 4ebe
00000060: 2c3f d4bd 746b 313e 8603 8fbe d932 88be
00000070: b2fd 443e 2ded 14bf a674 c9be 7d63 8b3e
00000080: a13e 4bbf 52ce f5be 0350 b23e 7bcc 60bf
00000090: 6eca f8bd 2164 0c3e fda8 90be 2e1a 8fbe
000000a0: 9be2 333e 41a6 11bf d960 d3be 629e ac3e
000000b0: 239f 45bf 3958 02bf 37a6 a93e 7087 68bf
000000c0: 95b4 8b3d 1fcd 9fbe 7f73 fd3e c890 e43e
000000d0: 91e7 0ebf ac7c 003f ba22 543f 18fd 31bf
000000e0: d28c c23e e2e8 8d3f 3136 56bf 7d75 423e
000000f0: 741c db3d fcc2 91be 42ee e43e af14 fa3e
00000100: 0080 ffbe 754a f43e 4780 5d3f b685 3dbf
00000110: 403e 9c3e 47a8 8b3f b404 61bf e7e0 1d3e
00000120: 2d67 203e ffa9 fcbe dbe7 ca3e f8d7 b93e
00000130: fe16 39bf 432c 5a3f faba f83e d3f9 57bf
00000140: 9153 9a3f 354e 183f 082d 4fbf 4bcb ac3f
00000150: 1e7d 383e cd57 ebbe 6a4b d13e 1f52 c63e
00000160: 4801 35bf 642a 583f 0d7f 003f 9674 48bf
00000170: fdf7 973f 5fab 153f 565f 48bf 6ea0 b33f
0.39278153 0.110981025 -0.21806544 0.4864967 -0.0086026555 -0.23867561 0.5423502 -0.13089713
-0.26105773 0.44171697 -0.0835474 -0.20275898 0.35523057 0.0700502 -0.20688131 0.43776545
-0.062287822 -0.24762313 0.5235366 -0.024072351 -0.24647546 0.56233144 -0.09817483 -0.2019627
-0.103636116 0.17326146 -0.27932376 -0.26601294 0.19237402 -0.581744 -0.39346808 0.2722434
-0.7939244 -0.48008972 0.3482667 -0.8781201 -0.121479854 0.13710071 -0.28253928 -0.2794966
0.17566912 -0.5689431 -0.41284826 0.33714586 -0.7719595 -0.5091587 0.33134624 -0.9083166
0.06821553 -0.31211182 0.4950218 0.4464171 -0.5582209 0.50190234 0.8286549 -0.69526815
0.37998062 1.1086695 -0.8367644 0.1899013 0.106987864 -0.28469074 0.44713026 0.48843905
-0.49902344 0.47713056 0.8652386 -0.7403215 0.30516243 1.0910729 -0.878978 0.15417825
0.15664358 -0.49348447 0.39630017 0.36297584 -0.7230071 0.8522379 0.48580152 -0.84365577
1.2056752 0.59494334 -0.8092809 1.349954 0.18016478 -0.45965424 0.4087785 0.38734528
-0.7070508 0.8443968 0.50193864 -0.78302896 1.1872555 0.58464617 -0.7827047 1.4033334

decoder.2.bias f4 [8]
00000000: 6eff 623d 66c3 8e3e bafa ac3e e192 6c3e
00000010: a8e4 c93d a404 9c3e ba2e 313e 6dfa 803e
0.055419378 0.27883452 0.3378504 0.23102905 0.09858066 0.3047229 0.17302981 0.2519106

mapping.weight f4 [400, 199]
00000000: 3d93 30b8 5a5d 49b8 3d8b 77b7 9e0d 0039
00000010: e616 cb37 02e5 feb8 8c9e b836 1917 9638
00000020: 5bed 37b8 aaa3 0638 6cfb 5339 8e10 0739
00000030: 7cfc 09b9 6fbe 15b9 8c23 4c39 7dba 8639
00000040: 9dc9 9d38 5cf6 9338 4aa8 c138 3c04 4039
00000050: 6c2c bc39 2bf0 0c39 8e95 0db9 3d49 9839
00000060: 8ac2 743a a295 9939 64ae 0bba 8bec 8139
00000070: 0f83 673a 67bf af39 b85e 8a39 a9d6 e439
00000080: f65c 4b39 ad2c f338 c181 8439 6439 9339
00000090: c98b 6539 c856 ad39 7c12 38b8 8542 d7b9
000000a0: 86b2 f739 bdd4 663a 0070 b0b9 e194 2dba
000000b0: dbd7 8e39 3ae0 bb39 ada4 3cb9 8433 cfb7
000000c0: 1781 f137 3772 e0b9 32e1 b337 572c 2d3a
000000d0: a187 fcb9 45ed 86ba c02d bc39 5ad4 233a
000000e0: 256a 09ba e4dd 07ba d5cb 3938 037f 8e37
000000f0: aaf9 52b8 e00c e8b7 cbdf dab8 7c2f 16b9
00000100: a691 c5b7 0a24 0837 f188 21b9 7211 66b8
00000110: 2dd8 9538 1365 55b8 142a e137 14c1 5036
00000120: 3c9e 86b9 1822 4eb8 bfc6 7739 37a5 0138
00000130: 91fc 1db9 04b4 ba37 f628 5839 8bec 1839
00000140: a1de eab7 a68a 9438 5cda 0639 f530 2db8
00000150: f5c5 8339 82ea fd39 3c1e e537 ee19 08b9
00000160: 8c5a 6039 702c b839 733d bf38 547e 2cb7
00000170: b471 6139 9ea4 6c39 d65a 37b8 a80d 8534
00000180: 3b36 2d39 2d0f 0639 3f3d 09b8 eae3 9fb8
00000190: 3456 8cb5 be90 ad37 be5a 8ab8 f75c 6db8
000001a0: a43e 2d39 2fe8 deb8 4523 39ba 3066 01b9
000001b0: 52d4 513a 3572 f4b7 3a84 82ba 6a45 5db9
000001c0: 168d c139 9b05 b4b8 f9a9 7eb9 0e86 dfb8
000001d0: b1ca 42b8 b5ea e2b8 64db 76b9 ce3d 0eb9
000001e0: 75da 4b39 7764 3c37 43da 06ba 04cc 3fb9
000001f0: 82c2 a939 ae97 84b8 49f9 adb9 6686 31b9
00000200: 57fb 1238 8013 b939 2065 e236 826f 29ba
00000210: 3d6f 84b9 e1e0 1d3a 6fd9 073a b4ad 9eb9
00000220: e85f 0eba f3e1 1f39 0c75 053a 6c13 8bb7
00000230: d018 3eb9 97b7 1b38 65b8 d737 cebd 2e38
00000240: cad5 ae38 2246 16b9 9419 19b9 e1b8 b038
00000250: 1c57 c936 e23f 93b9 5504 85b9 8a30 e1b8
00000260: 9c4c d736 5a11 ebb5 d715 48b9 fa58 84b9
00000270: 8557 f2b8 8550 6ab8 faf9 fcb8 b17f a7b8
00000280: 0b31 73b8 6b47 7bb8 74d4 96b8 8fa9 acb8
00000290: b079 11b9 e64f c237 419e 2a38 955e 6bb9
000002a0: 8cb3 4fb9 335c 4c39 7592 6939 2d8c 57b9
000002b0: f0b5 c3b9 30e9 3938 b725 d939 871d 2d38
000002c0: 82be d2b9 3dab 2bb8 8453 8339 98aa 5938
000002d0: f1ee 16b8 a780 b0b7 db72 ca38 9764 5339
000002e0: 9521 b4b8 8a02 5bb9 3083 3739 eac1 6139
000002f0: 1cd8 9a37 8c8c 25b8 bfae b2b7 f98d bc38
00000300: dd56 7b38 496e 5638 6ec1 13b8 9402 b9b8
00000310: 0f53 9538 2a8a 9538 6226 cb35 20ce 4138
00000320: 204a 7037 41e2 5f37 90be 95b6 4c66 c737
00000330: b603 8038 8d0c 4335 05cd 5f38 cc7f 1939
00000340: d1af 6b38 2137 8cb8 a076 6c38 0203 4a39
00000350: 6236 0438 e408 9fb8 69fc 9e37 6651 a738
00000360: 61f6 b438 0114 8ab7 e07c 86b8 dbe0 5938
00000370: c06f 8b38 c0bc 12b8 8a57 1ab7 e31f 6538
00000380: 4208 bfb4 0735 83b8 85a6 37b8 582d 7137
00000390: ff47 8138 42c1 f1b8 12dc 37b9 716c 0ab6
000003a0: a38f d836 63a7 4db8 cbb7 87b8 fa53 7fb9
000003b0: a4b7 88b9 aba8 0639 fe49 3539 22bf b4b9
000003c0: e7e7 d0b9 cdf4 8938 4b62 fc38 3f3a 47b9
000003d0: 9522 60b9 0078 72b8 ab1e c6b8 1c6a 0cb9
000003e0: 12f8 0eb9 0aa6 2eb9 4ceb 31b8 494e f7b8
000003f0: e987 70b9 4437 e4b8 c00c 49b8 8c0d 73b9
-4.2098796e-05 -4.8009075e-05 -1.4754766e-05 0.00012212104 2.4210149e-05 -0.0001215432 5.5020846e-06 7.15686e-05
-4.3851654e-05 3.2100514e-05 0.0002021619 0.0001288077 -0.00013159396 -0.0001428069 0.00019468198 0.00025697416
7.523897e-05 7.055394e-05 9.2343034e-05 0.00018312124 0.0003589125 0.0001344091 -0.00013502521 0.00029046266
0.000933685 0.0002929392 -0.00053284154 0.00024781036 0.000883148 0.00033521207 0.00026391982 0.00043647483
0.00019394219 0.000115954645 0.00025273676 0.00028080784 0.00021891216 0.00033061788 -4.3886233e-05 -0.00041057557
0.00047244522 0.0008805504 -0.00033652782 -0.0006621611 0.00027245175 0.0003583448 -0.00017990424 -2.4700312e-05
2.8789551e-05 -0.00042809706 2.1443328e-05 0.00066060334 -0.00048166237 -0.00102941 0.0003589224 0.00062495994
-0.0005241952 -0.00051829056 4.429727e-05 1.6986864e-05 -5.030042e-05 -2.766255e-05 -0.00010436735 -0.00014322804
-2.3552053e-05 8.114623e-06 -0.00015405171 -5.485252e-05 7.1451395e-05 -5.087729e-05 2.6841684e-05 3.1106802e-06
-0.00025676365 -4.914598e-05 0.00023629794 3.0909865e-05 -0.00015066775 2.2256754e-05 0.00020614624 0.00014583969
-2.7998643e-05 7.083015e-05 0.00012860581 -4.129201e-05 0.00025133757 0.00048430642 2.7313006e-05 -0.0001297963
0.00021396036 0.00035128323 9.1190355e-05 -1.0281412e-05 0.0002150003 0.00022568039 -4.3715198e-05 2.4783117e-07
0.00016518768 0.00012784889 -3.2720385e-05 -7.624163e-05 -1.0455901e-06 2.0690608e-05 -6.597255e-05 -5.6591784e-05
0.00016521901 -0.000106290325 -0.00070624455 -0.00012340466 0.00080043555 -2.9140248e-05 -0.000995762 -0.00021102061
0.00036916946 -8.584113e-05 -0.00024286647 -0.00010658438 -4.6441975e-05 -0.000108202374 -0.00023542118 -0.000135652
0.0001944097 1.12290645e-05 -0.0005144218 -0.00018291181 0.00032379112 -6.322503e-05 -0.00033182863 -0.00016930103
3.504319e-05 0.00035300478 6.7470974e-06 -0.00064634543 -0.0002525988 0.0006022584 0.00051822414 -0.00030265527
-0.0005431161 0.00015247594 0.00050909887 -1.6579135e-05 -0.00018129055 3.712586e-05 2.5715863e-05 4.1661602e-05
8.336788e-05 -0.00014331241 -0.00014600746 8.4267704e-05 6.0004077e-06 -0.0002808562 -0.00025370964 -0.00010737877
6.416418e-06 -1.7513914e-06 -0.00019081622 -0.00025243295 -0.00011555761 -5.5864937e-05 -0.00012062858 -7.986965e-05
-5.798139e-05 -5.9909577e-05 -7.19213e-05 -8.233182e-05 -0.0001387361 2.3163808e-05 4.0678544e-05 -0.00022446581
-0.00019807945 0.00019489303 0.00022275171 -0.00020556217 -0.00037328852 4.432461e-05 0.00041417565 4.1273914e-05
-0.0004019626 -4.0929055e-05 0.0002504849 5.189571e-05 -3.598532e-05 -2.1040743e-05 9.653504e-05 0.0002016
-8.589324e-05 -0.00020886413 0.00017501111 0.00021529911 1.8458864e-05 -3.946996e-05 -2.1300626e-05 8.990983e-05
5.992396e-05 5.1124287e-05 -3.5227677e-05 -8.821968e-05 7.1203445e-05 7.130609e-05 1.513585e-06 4.6206755e-05
1.4322373e-05 1.3344515e-05 -4.4627304e-06 2.3770284e-05 6.104207e-05 7.2661425e-07 5.3358282e-05 0.00014638825
5.6192108e-05 -6.685989e-05 5.6377263e-05 0.00019265342 3.15219e-05 -7.583367e-05 1.8952605e-05 7.978342e-05
8.6289605e-05 -1.6460197e-05 -6.412878e-05 5.1946245e-05 6.6488516e-05 -3.49849e-05 -9.199497e-06 5.462755e-05
-3.558253e-07 -6.256444e-05 -4.3785683e-05 1.4375277e-05 6.16461e-05 -0.000115277726 -0.00017534223 -2.0626724e-06
6.454023e-06 -4.90317e-05 -6.471536e-05 -0.00024349979 -0.00026076764 0.0001284207 0.0001728907 -0.0003447468
-0.00039845632 6.578267e-05 0.00012034605 -0.00018999817 -0.00021375187 -5.7809055e-05 -9.447088e-05 -0.00013390969
-0.00013634589 -0.00016655787 -4.2419226e-05 -0.000117924596 -0.00022938814 -0.00010882181 -4.793401e-05 -0.00023179332

mapping.bias f4 [400]
00000000: fcd4 5e3e d909 7bbe 47ac 5b3e 6737 dabe
00000010: b831 213e 23ed d63e 1933 a63e b22b 01be
00000020: b902 223b 690f f63d d9b2 9bbc e9c4 dabe
00000030: 7996 a8bd 52a8 a83d 7a49 c9be 657f e9bc
00000040: a7c7 443e f846 4d3f e5ad 2cbf 46d8 d7be
00000050: 4637 0e3f 1f8f 043f 47bf 94be 893f 3dbe
00000060: 4cfa 153f 7449 8c3e 8e50 e13e 907c f6be
00000070: d7f1 2f3e 5fba 043f 1dc4 f3bd c637 06bf
00000080: dad5 2abe b31a b3be 1c32 af3e 0bb5 6d3e
00000090: de02 bb3e bcf5 c1bd 8ede 02be 6d0f 043f
000000a0: 6e65 003d a4ad acbe 7da4 bebc 11d8 f7bc
000000b0: 0f27 023f 3559 c4be 4150 ed3c 6d60 aabe
000000c0: 210f 833e 870b cabe 5ccf 4c3e 4786 1d3e
000000d0: ec8b f13e 3659 03bf d508 dabc 9395 113f
000000e0: 2a92 773e 14ee 08be 7e0d 1fbe acb3 e13e
000000f0: 5ec9 a0bd 2810 5abe ef60 efbe d128 883e
00000100: ded6 a5bd d282 0abf 9e67 153d 762e debe
00000110: 152f ca3d e3cf 13bf 91a4 c3be 2c39 1b3e
00000120: 1802 083e f513 133f f52f 03bb f74b 083f
00000130: 13a2 2fbf dc8a 30bf e03b ad3d 363e 79be
00000140: 88fa 9dbd 6c2e 3dbe 5d2a 133e 8fa8 93be
00000150: e841 e6bd f9c6 45be c74d 04bf fd30 833e
00000160: 39c3 8c3e 91b6 7bbe 254b adbe d650 0dbf
00000170: 34f6 ad3c 7c70 ddbe 2eba bc3e f29e 853e
00000180: 3cd9 03bf 2210 85be 0543 23bf 7d77 dbbd
00000190: 4212 983e 451f 573e a277 b43e faea 28bf
000001a0: 7f13 753e 00ae 63bd 5784 f83d 1d10 153f
000001b0: a555 8fbe d93b a33e 5557 573e 6372 2ebd
000001c0: 25b0 573e f2bb a7be e00d 5a3e 8b75 073c
000001d0: 4282 1c3d 948d 18bd e662 433d 61d7 a13e
000001e0: c21e a6be f14b cabe 0411 1b3d ab9c 183f
000001f0: 1a65 2bbe 21bf a3be 15b4 8ebe 49c7 97be
00000200: ad6a 3e3e fded 26bf e72d 9fbe 56fc b73b
00000210: a901 ccbd 9925 16bf 7b55 11bf e70d 7abd
00000220: d520 3e3e 7084 483e 6cd3 02bf 4d77 aebd
00000230: acd0 22bf 7cf2 d6be 72a9 943e c393 a5bd
00000240: 3239 b7be fde8 28bf 4004 a33e a5f5 b13e
00000250: 6bd5 c33e b038 23be 30be da3e cac2 e4be
00000260: 5362 2a3f 1ff1 94be 1e51 ccbe dba7 133e
00000270: f451 aebc 0525 263f b475 23be 5067 9bbe
00000280: 6ce2 8c3e b7c1 7d3e bcc4 adbe 18ae 943e
00000290: 4547 eebe 4122 243f e171 c43d aaad 82bd
000002a0: 3663 12bf dedc 673e 44d0 d1be aa8a d43e
000002b0: 3ad2 a9bd 5427 863d dbfb 30bf 86da a3be
000002c0: f5fa babe ef37 9f3e be02 86be 1867 a83e
000002d0: c483 fcbe e128 083f b9d6 23be e66c d5be
000002e0: f6cf 193d d79c 183d 97a7 00bf 5459 92bd
000002f0: 98a8 9bbd bb9d 473e 5a4b 99be 402c 9b3e
00000300: f564 82be d6fd c9be af64 c53e 90d9 533a
00000310: a50d 24bf 5019 373f 8002 30be bb15 2b3d
00000320: 131b 33be 6e50 d4be 1639 68bb fcc0 ccbe
00000330: 0d65 33be 3ae9 29bf ae45 383e a646 a8be
00000340: 1d96 d6be 56f9 2dbe b8d2 063f c73e 03bf
00000350: 7e82 25be 72dd 7dbe cb80 13bc fde1 773c
00000360: ab7f b2bd 1dfd 153f ca08 203f 21ed e13e
00000370: 5d23 593e cd39 c0bd 5078 c1be 2f95 4abc
00000380: ed63 cfbe f545 2e3f 1650 f53e f26d a5be
00000390: 142c 9abe e7db 47be d59c 003f 28c1 943d
000003a0: c0d1 e7be 9977 60be c2d9 ca3e 052f fa3e
000003b0: 69fd d93c 47b5 c4bd c23a 023f edbf e4bd
000003c0: d098 113f 4eff 09bf 60f1 2dbe 48ca 293f
000003d0: d44d 2e3f 70fb 12bf f272 09bf 2130 273e
000003e0: 83fa 51be a918 2b3e f311 1d3f 482a a5bd
000003f0: 0fe8 c03c b242 cb3e d877 8bbd 84aa f13c
0.21760935 -0.24515475 0.21452437 -0.42620394 0.15741622 0.41977796 0.3246086 -0.12614325
0.002472086 0.12014658 -0.01900618 -0.42728356 -0.082318254 0.082352296 -0.3931387 -0.02850313
0.19216786 0.80186415 -0.6745284 -0.4215719 0.5555309 0.51780885 -0.29052183 -0.18481268
0.5858505 0.2739979 0.4400677 -0.4814191 0.17182098 0.5184688 -0.1190264 -0.52428854
-0.1668314 -0.34981307 0.34217918 0.23213594 0.36525625 -0.09470698 -0.1278021 0.5158604
0.03134673 -0.33726227 -0.023271793 -0.030254396 0.5084085 -0.3834931 0.028968932 -0.33276692
0.2559748 -0.3946192 0.20000976 0.15383254 0.47177064 -0.51308 -0.02661554 0.5686886
0.24176851 -0.1337207 -0.1553249 0.4408239 -0.07850908 -0.21295226 -0.46753642 0.2659364
-0.08097623 -0.54105866 0.03647577 -0.43394822 0.098722614 -0.57739085 -0.38211492 0.15158528
0.13282049 0.57452327 -0.0020017598 0.53240913 -0.6860668 -0.6896188 0.08458686 -0.24340138
-0.07713801 -0.1847474 0.14371629 -0.28839538 -0.11243039 -0.19314183 -0.5168118 0.25623313
0.27492693 -0.24581362 -0.33846393 -0.5520147 0.021235563 -0.4324988 0.36860794 0.26097828
-0.5150335 -0.2598887 -0.6377414 -0.1071615 0.2970143 0.21008022 0.35247523 -0.65983546
0.23933218 -0.05558586 0.12134617 0.5822771 -0.2799503 0.31881598 0.21029408 -0.042589556
0.21063288 -0.32760578 0.21294355 0.0082677705 0.03821016 -0.037244394 0.04770174 0.31609634
-0.3244534 -0.39511064 0.037858024 0.59614056 -0.16737786 -0.31981757 -0.27871767 -0.2964423
0.18595381 -0.6520689 -0.31089708 0.0056147976 -0.09961254 -0.5865112 -0.5677106 -0.061048415
0.18567212 0.19581771 -0.51103854 -0.085188486 -0.6359966 -0.41981876 0.29035527 -0.08084824
-0.35785824 -0.6598051 0.3183918 0.34757724 0.38248762 -0.15939593 0.42723227 -0.44679862
0.6655628 -0.2909021 -0.39905638 0.144195 -0.021279313 0.6490024 -0.15962869 -0.3035226
0.27516496 0.24780928 -0.3393916 0.29039073 -0.4653875 0.6411477 0.09592033 -0.0638078
-0.57182634 0.22642848 -0.40979207 0.41512042 -0.08292051 0.0655047 -0.691343 -0.32002658
-0.3651959 0.3109736 -0.26173967 0.32891154 -0.4931928 0.53187376 -0.15999879 -0.41684645
0.037551843 0.03725895 -0.5025572 -0.07145944 -0.07600516 0.19493763 -0.299403 0.30307198
-0.2546765 -0.39451474 0.38553378 0.00080814306 -0.6408332 0.71523 -0.17188454 0.04176877
-0.17490797 -0.41467613 -0.0035434416 -0.39990985 -0.17519017 -0.663715 0.1799533 -0.328664
-0.41911402 -0.16989645 0.5266528 -0.51267666 -0.1616306 -0.24791506 -0.009002875 0.015129563
-0.08715757 0.58589345 0.6251341 0.44126227 0.21204896 -0.093860246 -0.37787104 -0.01236467
-0.40505925 0.68075496 0.47912663 -0.32310444 -0.30111754 -0.1951748 0.50239307 0.07263404
-0.45277214 -0.21920623 0.3961926 0.48863998 0.026610093 -0.096048884 0.5087091 -0.111694194
0.568738 -0.5390519 -0.16986609 0.6632428 0.68087506 -0.57414913 -0.5369102 0.16326953
-0.20505719 0.16708626 0.61355513 -0.08064705 0.023548154 0.39699322 -0.06809968 0.029500253

predictor.0.weight f4 [104, 199]
00000000: d14f d1bc d23a 573d 8352 6dbd d5ec 833b
00000010: c841 433c 0730 8f3d b65e bd3d 7514 9abd
00000020: 3e36 dd3d 19e2 53bd 7586 85b9 f9af d3bb
00000030: 9fcb 7dbd 03ea 90bc e285 abbc 615e 8c3d
00000040: 525b 45bc 7cf5 efbb 28b9 b33d 67ae 92bd
00000050: a1de 563d 94d5 24bd 963e bb3d 0236 7bbd
00000060: c02b 7d3c ba33 233c 18f3 e83c 41a6 0a3d
00000070: 263a 13ba 14e4 67bc c0bf 8f3d 6af7 d73c
00000080: e18b fe3b a4e2 9bbc 8201 e43d d92b 783d
00000090: 2690 a23c b27c 88bd 33eb 5dbc caf4 aa38
000000a0: f3c1 06bd eb01 883c 0de1 a33c a002 713d
000000b0: 070f e33c 1c7c e73d 5d77 323d 4ca1 42bd
000000c0: 293a bc3d 0007 4ebc d81a f6bc 1a3e 3c3c
000000d0: 5c76 a7bb 86c1 803d 9420 6ebd 7336 a13d
000000e0: db7a e4bd 544a 0f3e db07 9ebd 471f 1b3d
000000f0: 2db9 c5bc 3c6a 2c3d 36b2 6d3d 78fe 72bd
00000100: f352 bd3c 3e89 b33d 2832 54bd 4b9b ef3c
00000110: a140 20bd 8d4a b73c 5c70 913d 3f60 85bd
00000120: 85ef 603d 5962 88bd ce88 5f3d d53e 8ebb
00000130: 83d0 d23c 4b91 b33c e45c 8bbc ade1 403d
00000140: 24c3 fabc 840f 8c3d b8a2 fc3c ec1d 24bd
00000150: 39b9 503d 0001 28bc d348 c53d a488 3dbd
00000160: 2dd2 d33d 4db5 d3bc 0a7a b73c a4c6 3b3d
00000170: 5fe2 863c fe25 ba3c 09b4 c2bd 015f 443d
00000180: 57bc 273c af90 6fbd 7e6f 80bd 595a 26bd
00000190: 072f 0b3b d085 113d a5ff 8d3d 466d 903d
000001a0: ad8a 823d 73cb 4a3d d781 15bd d059 1c3d
000001b0: ddfb 923d a41c 1fbb 5f1c 07bb a626 563b
000001c0: af35 1b3c 55b6 7f3b 86a9 25bc ddbf 363d
000001d0: 6fd7 0b3d 27a9 69bc dd98 083d 2c6a d03b
000001e0: aafc 543d af6a dc3c abf3 90bd 6a7d a83d
000001f0: 12ed 92bd 652c cb3d b32b a83d 6755 a93d
00000200: e224 823d 8850 923d cbdb b73c 9979 a3bb
00000210: da98 a73c bf45 9cbd 6b55 bdbc f760 803d
00000220: 8d5a 46bd f49e 203e fa81 dbbc 8aad 1b3e
00000230: cf93 633d e5fc b1bc 6f73 c73d b5a4 303c
00000240: cc3b 1f3d 8175 2ebd aff1 cdbc 9744 d03d
00000250: 411e b9bd 6556 b33c 6e1f 26bd 96b1 d93c
00000260: 01e0 203d ce3d a23c 48c3 933c 88a4 863d
00000270: a9f4 3cbd 8014 54bd c04d e2ba 4deb d3bb
00000280: 61bc 423a 016d dfbd bc5d 943d f38e dfbc
00000290: bffd ef3b ed7a fbbc b31a 57bc 18fb bebc
000002a0: 1f14 2b3d 0686 0e3d 6dd5 febc 0bb9 f5bc
000002b0: 2a35 823c b908 783d 8ce8 38bd 6ad9 bc3c
000002c0: 6014 8b3b 05ed 0b3d ad44 263d 1926 cc3c
000002d0: 5ba5 7ebd 758c e2bc a009 623c 0e7a c03d
000002e0: 2674 44bc c092 103d 187a 3c3d ba77 913d
000002f0: 9f52 31bb 666a b43d 0a0e 023d 51c5 c3bd
00000300: d33e a03d 6012 25be 21ea 453c 0e85 423c
00000310: 0fef f13d f07e 7ebd 53ec 41bd 8c2b 0a3b
00000320: 37b0 a8bb 11f6 013c b015 54bd 399c 88bb
00000330: 90b5 82bc c48b 9e3c 3846 12bc 4159 e73c
00000340: 9276 8f3b 178e 763b 6338 093d fca6 a43b
00000350: 9e36 8fbd 4892 1c3d 5af6 59bd cd99 49bb
00000360: 2310 783c cb2f 39bb feec fb3c a599 86bc
00000370: 70b4 b3bc 53b8 37bb b3f7 2ebc e376 cabc
00000380: fb36 063d 801a b0bb 6ce0 bd3b d1f7 e43c
00000390: 4e6c 0fbc fbe7 bd3d f8db 4c3d 5cbd 123c
000003a0: daac e1bc 1322 953d 336b 773c 9950 9bbc
000003b0: 9495 0cbd 6ec3 09be d5b7 dd3c ed90 f03c
000003c0: fb6c 9f3d 8148 903d 331f 8abb 3dec ed3d
000003d0: ba1b f3bd 5427 dabc 2e55 49bd 5bfc 92bd
000003e0: f153 6e3d 6d24 72bd f9a7 193d 3b19 41bd
000003f0: 3dc4 733d 1e7f 4fbd 0777 043d 9eaa 433d
-0.025550755 0.05254633 -0.057940017 0.0040260353 0.011917539 0.06991582 0.0924658 -0.07523433
0.108013615 -0.051729295 -0.00025467915 -0.0064601866 -0.061961766 -0.01768971 -0.020937864 0.06853939
-0.012045698 -0.007322965 0.0877555 -0.07162171 0.05245841 -0.040242746 0.09142797 -0.061330803
0.015452325 0.009961063 0.028436229 0.03384996 -0.000561627 -0.014153499 0.07018995 0.026363093
0.0077681397 -0.01902897 0.111331 0.06058869 0.019844126 -0.06664409 -0.013544845 8.151827e-05
-0.03289981 0.016602477 0.020004774 0.058840394 0.027717127 0.11302969 0.043570865 -0.047517106
0.09190781 -0.012574911 -0.030042097 0.011489416 -0.005110545 0.06286912 -0.058136538 0.078717135
-0.11156245 0.13993198 -0.07716342 0.037871625 -0.02413615 0.0420935 0.058031283 -0.05932471
0.023110842 0.08766411 -0.051805645 0.029248854 -0.039124135 0.022374416 0.07101509 -0.06512498
0.054915924 -0.06659383 0.054573826 -0.0043409863 0.025734192 0.021919867 -0.017012067 0.04709022
-0.030610628 0.06838897 0.03083931 -0.0400676 0.050957892 -0.010254145 0.09633031 -0.04627289
0.10342822 -0.025843287 0.02239706 0.045843735 0.016465364 0.022723194 -0.09506995 0.047942165
0.010237775 -0.05848759 -0.062712654 -0.040613506 0.0021237747 0.035528004 0.06933526 0.07052092
0.063741066 0.04951043 -0.036500778 0.03817159 0.07176945 -0.0024278546 -0.0020616276 0.0032676845
0.009473248 0.003901859 -0.010111218 0.04461657 0.034141 -0.0142615205 0.033348907 0.006360313
0.05199877 0.02690634 -0.07077726 0.08227046 -0.07174124 0.09920577 0.0821146 0.08268242
0.06354691 0.07144266 0.022443673 -0.004988861 0.020458627 -0.076304905 -0.02311202 0.062684946
-0.0484262 0.15685636 -0.026795376 0.15202919 0.055560883 -0.021727035 0.09738814 0.010781457
0.038875386 -0.04259253 -0.025139658 0.101693325 -0.090389736 0.021891782 -0.040557317 0.026573937
0.039276127 0.019804861 0.018037453 0.065743506 -0.046131764 -0.051777363 -0.0017265603 -0.006467259
0.00074285833 -0.10909463 0.07244441 -0.027289843 0.00732395 -0.030698264 -0.013128924 -0.02331309
0.041767236 0.034795783 -0.031107629 -0.029995462 0.015894491 0.060555194 -0.04514365 0.02305289
0.0042443722 0.034161586 0.040592838 0.02492051 -0.062169414 -0.027654866 0.01379624 0.0939828
-0.011990583 0.0352962 0.046014875 0.07102914 -0.0027057303 0.088093564 0.03175167 -0.095591195
0.07824483 -0.16120291 0.012079746 0.011872543 0.11813175 -0.062132776 -0.047344517 0.0021083085
-0.0051479596 0.007932202 -0.051778495 -0.004169014 -0.015955716 0.019353755 -0.008927874 0.028240802
0.0043781484 0.0037621313 0.03350104 0.005024789 -0.06992839 0.038225442 -0.053213455 -0.0030761838
0.015140566 -0.0028257247 0.030752655 -0.016430685 -0.021936625 -0.002803345 -0.010679173 -0.024714893
0.032767277 -0.005374253 0.0057945754 0.0279502 -0.008753849 0.092727624 0.050014466 0.00895628
-0.027548242 0.0728189 0.015101242 -0.01895933 -0.034322336 -0.13453457 0.027065197 0.029365981
0.07784458 0.07045079 -0.004215145 0.116173245 -0.11870523 -0.026630081 -0.0491535 -0.07177039
0.05818552 -0.05911677 0.037513707 -0.047143202 0.05951332 -0.050658338 0.032340076 0.047770135

predictor.0.bias f4 [104]
00000000: 8a66 fb3c 305b 6f3d 9582 0a3d ae3f 383d
00000010: a61b 313d d81c cb3c a6f9 9a3d 68bc 983d
00000020: fbf4 c53c 283e a3bc 7783 623c 15d8 a13d
00000030: cdef be3d 5684 d03c 1961 4e3d 7170 383e
00000040: 1edc 513d c8a9 06bd c8d9 aa3b d28c a03d
00000050: 525b f0bb 7820 83bd 56e8 cd3c 6423 8f3d
00000060: 1942 123d af1b 723d d5df 3d3d a23a f83c
00000070: 3882 5e3c ac10 d6bd 038f 853d 09b3 383d
00000080: ebcb 8a3d dfe7 283d dd05 2fbd 376b 2b3c
00000090: 88ce 29bd f2af 9f3d 6039 92bc 2548 113d
000000a0: 8f5a f0bb b32e 0b3c 8915 8e3d 4fc6 163d
000000b0: dd07 0abe 6fb4 f73b 48ff 443d 2c9e 3f3d
000000c0: 2160 a13d f943 e93c dbb4 403d e03e 0d3d
000000d0: e73a 6c3d 7966 703d 15e7 2ebd 3559 443e
000000e0: 78b6 513d a132 7e3d 9822 29bd 9f1d 863d
000000f0: bd35 b23c 4a43 9a3d 2bf7 12bb ebbb fcbc
00000100: dfde 43bc 6dd9 743d 016c 683c 8f37 acbd
00000110: 2359 3a3d 506e 883d 9bd5 283d 0c55 963d
00000120: 05c5 06bd d4a3 0fbe 44ca 3ebd f3b3 893d
00000130: 592b 19bd 2002 6dbd 77f5 56bd 54de 953c
00000140: eee5 a13c d416 9b3d 7521 5bbd 33a2 313d
00000150: 4450 813d c88f f4bc d4d5 773d e90f 5a3d
00000160: dd65 c63c 4868 97bc 6070 84bc 7feb 023d
00000170: 8059 943d 05e8 833c 179b 703d 1a69 1a3e
00000180: a545 be3c 5ac2 e53c 3211 a33c bae1 39bc
00000190: 16b4 993d af33 a03d 163e 963c 4b17 c4bc
0.030688543 0.058436573 0.03381594 0.044982605 0.04323926 0.024794027 0.07567148 0.07457811
0.024164667 -0.0199271 0.013825289 0.079025425 0.09323082 0.025453728 0.05038557 0.18011643
0.05123531 -0.03287676 0.00521395 0.07839359 -0.007335105 -0.06402677 0.0251352 0.06989172
0.035707567 0.059108432 0.04635604 0.030301396 0.013580851 -0.10452399 0.06521418 0.045092616
0.067771755 0.041236755 -0.0427302 0.010462574 -0.04145673 0.07797231 -0.017849624 0.035469193
-0.007335014 0.008495021 0.06937701 0.036810216 -0.13479562 0.007559351 0.048095018 0.046781704
0.07879663 0.028474795 0.047047477 0.03448379 0.05767336 0.058691476 -0.042700846 0.19174655
0.051199406 0.062060002 -0.041292757 0.065486185 0.02175414 0.075323656 -0.0022425156 -0.030851325
-0.011954992 0.059777666 0.014185906 -0.084090345 0.045495164 0.066616654 0.041219335 0.0734044
-0.032902736 -0.14027339 -0.046579614 0.06723776 -0.037394855 -0.057863355 -0.052480187 0.01829449
0.01976296 0.075727135 -0.053498704 0.043367576 0.063141376 -0.029853716 0.060506657 0.05323783
0.024218494 -0.018482342 -0.016166866 0.031962868 0.07243633 0.016101846 0.058741655 0.15079156
0.023226568 0.028046776 0.01990566 -0.011345321 0.07505052 0.07822358 0.018340152 -0.023936888

predictor.2.weight f4 [8, 104]
00000000: 81c7 0e3d a540 f43d cc16 a9bd 40ef 0bbe
00000010: 43ee b93d e879 acbd 6014 06bd 54e0 19bd
00000020: 528a c63d 1687 d03d e4b1 ffbd 4a21 39bd
00000030: 0486 41bd efd7 a63d 9bc5 3e3d 0384 753e
00000040: cea2 eabd 69be 9cbb 2f7f 743e dc82 dd3c
00000050: 4ed8 10be 137a 103e 64ca 78bd 6e3a ebbc
00000060: 81cd d5be 9a80 5ebc 5118 25bc 14a8 683c
00000070: 88e3 f8bd 49ac 06be 9ad1 073d 6bef 72bd
00000080: 930f dd3b b144 95bd cc77 9b3e ea6d d93c
00000090: c355 a13d 0311 a3bd 494c 36bb 852f bfbd
000000a0: 4d7f 323d 5891 9f3c 1f22 61bd bbd6 d3bd
000000b0: 51aa 9c3d b881 0fbd 904a f03b 6866 99bd
000000c0: e414 753f 8807 a0bd 6c00 2dbd df91 b9bd
000000d0: e5f3 ee3b 46d5 aa3d a972 9d3e 3412 763e
000000e0: 7bae 97bd fe49 a0bd d07a 44be 8d30 183c
000000f0: e76a 703c b1ff 313d 4395 5abc 6033 eabe
00000100: 7e93 1abe de6e e2bc 862a 96bc 1809 9fbd
00000110: ddf7 b43d 92fe 5bbd 3c63 d83d 9d33 4fbc
00000120: 0473 55be e920 6e3d e7ff 1bbe 8e50 83bd
00000130: 3828 513d 7fa7 363e 9752 abbe d971 0abe
00000140: 2781 66bc 37e3 2abd e2bd 873d a9d5 d63d
00000150: 7a18 053d 8adc 95be 668e 54bd 6636 debc
00000160: 1d34 343c 2610 853e b902 463c ad8b c7bd
00000170: ac5a c6bc a5de 92bc b575 8fbd 9246 2b3e
00000180: 81b3 d13d f663 1abd 28a0 ec3e 6e3c 743d
00000190: f4cb f53d bb78 413d ae88 863d 9c6c c93c
000001a0: ee2d c53d 7303 9c3d ee29 d6bd 8041 81be
000001b0: 8513 b13c c234 e1bd 4047 d7bd 50ac 9e3d
000001c0: be03 863c 3e2f 4b3e 818e 7bbd 9a34 dbbd
000001d0: 3806 4b3c 0a73 4f3d 965b f2bc 2126 e53e
000001e0: 00ca e8bd dd35 d6bd e482 903e 306b 873d
000001f0: ef1f 1abe 3327 8f3e 42d6 44bd 57a8 033c
00000200: 9ac2 24bf 8cc3 323d b1e3 223d 38d3 dc3d
00000210: 3416 eebd df2a c3be 96a0 cb3c f290 0cbe
00000220: 1aaa 873d 8c60 eebd 66ef cb3e 9c4a 3dbb
00000230: 1171 333e a36b d3bd 52c9 09be 81f0 70be
00000240: 7844 1f3d 0d99 6fbd c01d debd 0fbe cfbd
00000250: d1db 983e f7bd afbd caf0 d5bb 6889 19bd
00000260: 2fd5 d63f 79d2 cbbd 570c f0bd cfe4 523d
00000270: 55a2 823c 54c8 063e 8132 453f 19b7 c13e
00000280: c6d1 e3bc 5bd7 e1bd 0642 bbbe 83ba 10bd
00000290: 1c32 a0bc 0567 a33b ae7c 703d a3f6 49bf
000002a0: 0416 aabe 43c7 0cbd 143a 08bd e7a5 7ebe
000002b0: 9e97 283c f2b6 913c 6f4f 8a3d 2ec5 2dbd
000002c0: 0e0e adbe 43b2 1a3e 1994 90be f83b b5bd
000002d0: c89d 073e bf45 f33e 185c 34bf 9310 1dbe
000002e0: 87b5 a6bd a485 1dbc 04ed 043e 57ba f33d
000002f0: 060f c23d 57ae 13bf 7da4 4abd dbcf d0bd
00000300: 4020 1ebd 54e9 9b3e 5c75 993d 3f70 a1bd
00000310: 9b04 b7bd d1b8 383c 9a8b 3fbc 314c b03e
00000320: a6e6 b23d 41c2 193d 895e e63e b122 bf3d
00000330: 9c99 8e3d 6acc f23d f14b b53d e6f3 63bd
00000340: fe94 f23d 7f0e 20bd 7db3 a6bd 8f12 b5be
00000350: a6e7 e43d 66ac a7bd 87b8 b43c d2b6 cd3c
00000360: a11e afbd c4fc 5d3e 3f58 13be 7e2f 81bd
00000370: 32f6 623d d9a2 e33d ea1d cd3d 1264 153f
00000380: 0120 ecbd 936b 41be 4fbf 593e 5ad0 59bb
00000390: 5ad5 e3bb d74e 913e d16b ecbd 0968 3bbd
000003a0: 94f6 4abf c977 b63d 2525 bc3d 1861 613c
000003b0: 9952 f7bd ccfd 00bf d70a 39bd 6c7a 09be
000003c0: df16 f8bc 6964 1dbe fa0d b83e d332 033e
000003d0: e146 703e bd95 e3bb ce9d 3cbd ff2a 90be
000003e0: 0493 5d3d eecc f7bd 7d86 e4bd 94fb c5bd
000003f0: aca3 ed3e 4052 19be 800a efbd d0fd 8dbd
0.03485823 0.119263925 -0.08256301 -0.13665485 0.09078648 -0.08421689 -0.032734275 -0.03756745
0.09694351 0.101820156 -0.12485102 -0.045197763 -0.047246948 0.08146655 0.04657517 0.2397614
-0.11456834 -0.004783441 0.23876642 0.027039938 -0.14145014 0.14109068 -0.06073989 -0.028714385
-0.4175835 -0.013580466 -0.010076598 0.014200229 -0.12152773 -0.13151659 0.033158876 -0.059310358
0.0067462414 -0.072884925 0.30364835 0.026541669 0.07877686 -0.07962229 -0.0027816466 -0.093352355
0.043578435 0.019478485 -0.05496418 -0.10343691 0.07649673 -0.03503582 0.0073331073 -0.074902356
0.95735 -0.078139365 -0.04223673 -0.09061026 0.007292258 0.0834146 0.3075154 0.24030381
-0.074063264 -0.07826613 -0.19187474 0.009288919 0.014673925 0.043456737 -0.013341251 -0.4574232
-0.15095326 -0.027640756 -0.018330824 -0.07765406 0.08836339 -0.053709574 0.105658025 -0.012646583
-0.20844656 0.058136854 -0.15234338 -0.06411849 0.051063746 0.17837332 -0.3346145 -0.13519992
-0.014068878 -0.041720595 0.06628014 0.10489971 0.032494046 -0.2926982 -0.051893614 -0.027125549
0.010998753 0.25988883 0.01208561 -0.09743438 -0.024213158 -0.01792843 -0.07004873 0.16726139
0.10239316 -0.037692986 0.4621594 0.059627943 0.120017916 0.04723428 0.06569038 0.024587922
0.09627901 0.076178454 -0.10457216 -0.25245285 0.021615753 -0.10996391 -0.10511637 0.0774771
0.016359206 0.1984224 -0.0614152 -0.10703392 0.012391619 0.05064682 -0.029584687 0.44755653
-0.113666534 -0.10459492 0.28224862 0.06612241 -0.15051244 0.27959594 -0.048055895 0.008035741
-0.6435944 0.04364352 0.039767925 0.10782474 -0.11625329 -0.38118646 0.024856847 -0.13727167
0.06624241 -0.116395086 0.39831084 -0.0028883582 0.175236 -0.103232644 -0.13455704 -0.23529245
0.038883656 -0.05849557 -0.10845518 -0.10143673 0.29855207 -0.08581155 -0.0065289484 -0.037484556
1.6783808 -0.09952254 -0.11721104 0.05148774 0.015946547 0.13162357 0.7703019 0.37835005
-0.027809989 -0.11027404 -0.3657381 -0.03533412 -0.019555144 0.004986646 0.058712654 -0.7889196
-0.33219922 -0.03436972 -0.033258513 -0.24867974 0.010290055 0.01778743 0.06753432 -0.042424373
-0.33799785 0.15107064 -0.2823799 -0.08849329 0.13243783 0.4751415 -0.70453024 -0.15338354
-0.08140092 -0.009614382 0.1298104 0.11900776 0.09475522 -0.57687896 -0.049473274 -0.10195895
-0.038604975 0.30451453 0.07493088 -0.07882737 -0.08936425 0.011274532 -0.011690998 0.3443313
0.08735399 0.03753877 0.44994 0.09332789 0.069628924 0.11855395 0.08852375 -0.05565252
0.11844824 -0.039076325 -0.081397034 -0.35365722 0.11176996 -0.08187179 0.022060646 0.02511159
-0.08550764 0.21678454 -0.14389132 -0.063078865 0.05541057 0.11115045 0.10015471 0.5835582
-0.11529542 -0.18888693 0.21264385 -0.003323576 -0.0069529237 0.28380463 -0.11544002 -0.045753513
-0.792825 0.08909566 0.09186772 0.013756059 -0.12076301 -0.50387263 -0.045176353 -0.13425606
-0.030284343 -0.15370335 0.35948163 0.12812357 0.23464538 -0.0069453404 -0.04604893 -0.28157803
0.054095283 -0.12099634 -0.11158464 -0.09667125 0.46413934 -0.14972782 -0.116719246 -0.069331765

predictor.2.bias f4 [8]
00000000: 4004 a4bb ba96 79bb f1fa 55bc 7658 d03c
00000010: 98ce 03bd d614 e7bb f1ea 72bb 5945 0ebd
-0.0050053895 -0.0038084225 -0.013060317 0.025432806 -0.032179445 -0.0070520444 -0.0037066306 -0.034734104

classifier.0.weight f4 [101, 199]
00000000: 2ede 8e3c 1eed b73e 9e60 e2be 46b4 163e
00000010: 9e20 f6bc a749 92bd dcaa 89be f8b8 aebd
00000020: c477 8bbe 6d3f 21bd 707d afbd 1ffd ae3d
00000030: f8a1 11be 6600 08be f2df 563d 187b 98bd
00000040: 29f4 04bd 3d86 3cbc cab4 733c 6723 eabe
00000050: 0d11 c93c 8fad 4bbe 3c64 dfbd 3496 a83c
00000060: 8ec8 83be fc46 8e3c 040c 69be 2b0f 20bc
00000070: 163b 9ebe 13b0 973d dc99 9fbe 7ee8 163e
00000080: 0a00 0fbf b781 023e 0657 e4bd a801 6cbe
00000090: d5c9 2bbd c88d a2bd 0d87 e9bd 9bef 5bbe
000000a0: fe11 2fbd d7e9 adbd c26c f23c eeff 20bd
000000b0: ab81 d3bc 39a4 04be 60bb 3abd 6085 0abe
000000c0: 6380 75bd a5c1 55be 95c2 853d 5f79 65be
000000d0: 54be 06bd f224 973d 82fc 19be 996c b73b
000000e0: be7b 943d 0de1 a0bd 903b 99be e82c be3d
000000f0: f249 b1be c9a6 b73c 20b1 18bf fa2c 103d
00000100: 038f adbe 0855 5cbd 4f25 52be 94d7 7b3c
00000110: 3895 76be 37fe d8bd 9517 1a3e 4cc6 95bd
00000120: 5e11 d93d 0ab6 9abc f482 213b 6eea 92bd
00000130: f426 4ebd 7151 d13d 3ab9 ca3d 0b38 b7be
00000140: f7cd 083e 5fb0 20be b205 063c b3b8 a2bc
00000150: c9a4 b4bd e142 f1bd aa0a cfbb 160b 0fbe
00000160: 6c6f 83be 0cc4 75bd 0267 19bf 7c72 903d
00000170: 5197 0cbe 6d3f e3bc 69de 27be 9ff1 b9bc
00000180: 35bd babe 4d7b c83c 91c9 b4be 03ec f03d
00000190: 23b6 3bbd 825a cbbd fc22 1ebe 919f 1cbc
000001a0: 6151 47bd aca6 813e ac7d 2dbe 00e3 713e
000001b0: 927d 2bbe eb30 0dbe 4c9f 2dbd 1167 54bd
000001c0: f4b5 923d 37b1 6fbb 3486 58be d1c5 92bd
000001d0: 50aa 99bd 5cb3 29be 931c 41be 3522 063d
000001e0: 5ce9 95be 2549 e83c 7aa7 d2be 8fe3 4bbc
000001f0: 7e8a 24be c002 e6bd af7e dfbd 9b03 5abd
00000200: 0bf0 84be 8a74 c1bd 28b3 aabc 36eb de3c
00000210: f7f3 67be 27d0 0f3d 1bd7 373c 7f2f 11bd
00000220: 847c 61bd 30dd be3c eb7b 6ebe ae92 7cbd
00000230: d7a6 c33c 97d0 6ebe 3a18 0d3c cb62 03be
00000240: 989b adbd dad1 233d 6de0 d9bc a204 18be
00000250: 8ce8 cdbd 5126 c3bc 3623 d5bc e907 f6bd
00000260: cd1b cfbd d37f 783d db34 42be e348 0dbe
00000270: 6c33 75be 04a1 31be cacc ebbd 94dc af3b
00000280: 52a6 60be 67fd 2f3d ced2 af3b 13c5 32be
00000290: 2066 bd3d 7a2e 8cbe 3e90 1ebd 36ed a8bd
000002a0: 43fa cdbd 1d72 60bd 1556 f6bd 848c 64be
000002b0: 1f49 393d 3167 10be f57a e2bc 4d87 5a3d
000002c0: 6523 f3bd 70f7 1ebe 57f7 433d 012d 18be
000002d0: 78c9 bcbd 3d21 16bd 7796 1abe 8f1a b93c
000002e0: 9117 79be 984d 853b 1215 58be 5491 ca3d
000002f0: 7258 49be be8d 4e3d 0e9e b1be 0193 85bd
00000300: 74b3 17be 6814 2fbe 8839 ddbd 6466 e5bd
00000310: ff69 63be 7038 15bd eebd 12be 52cd a6bd
00000320: 6095 6c3d 3ab6 7abe 9d33 323d 03fe 95be
00000330: 8e10 123e 222e b3be 987f 523d 1a69 6bbe
00000340: 383e f13d fcf5 9bbe 1c47 513d 3a9b 85be
00000350: bcd3 2b3d 00e0 3abe a584 fcbc 6c7e 26be
00000360: 3bf0 6b3d 5d1c b5be c566 8fbc 2926 a9be
00000370: fa08 cabd 96d9 d7bc e947 19be 2653 17bd
00000380: dc01 c6bd 4c04 54be fe1c 883c 9527 933c
00000390: f68a 1abe a09a fbbd 34f1 f2bd 20dc 79be
000003a0: cedd c3bd 2545 e1bd d0a3 82be 76b9 c43d
000003b0: 7014 87be 72b6 273d fd82 e9bd acc5 223c
000003c0: 2fe4 66bd 0534 8e3d 4f66 e5bd ae5e 8939
000003d0: fe3d d5bd b201 c1bc e55b afbc fdee bebd
000003e0: 180f b0bc 878f c9ba 7666 22bd d6fc 48bc
000003f0: 587c febd 38d1 c1bd 028e 96bc e3a0 98be
0.017439928 0.35923094 -0.44214338 0.14717206 -0.03004485 -0.07142954 -0.26888168 -0.08531374
-0.2723981 -0.03936713 -0.08568847 0.08544373 -0.14221942 -0.13281402 0.052459665 -0.07445353
-0.03245941 -0.011506614 0.014874646 -0.45730135 0.024544263 -0.19890426 -0.1090779 0.020579435
-0.2573895 0.017367832 -0.2275849 -0.009769241 -0.30904454 0.0740663 -0.31172073 0.14737126
-0.55859435 0.12744795 -0.11149411 -0.23047507 -0.04194053 -0.07937199 -0.11402712 -0.21478121
-0.042741768 -0.08491867 0.029592875 -0.039306574 -0.025818666 -0.12953271 -0.04558885 -0.13527441
-0.059936892 -0.20874651 0.06531254 -0.2240958 -0.032896355 0.07380094 -0.1503773 0.0055976626
0.072501644 -0.07855425 -0.29928255 0.09285909 -0.34626728 0.022418397 -0.5964527 0.035199143
-0.33898172 -0.05379203 -0.20522045 0.015371222 -0.2408036 -0.10595363 0.15048058 -0.07313213
0.10599016 -0.018885631 0.0024644705 -0.0717362 -0.050330117 0.10220612 0.098986104 -0.35784945
0.1335982 -0.1569228 0.008180069 -0.019863462 -0.08820493 -0.11780334 -0.00631841 -0.13969073
-0.25670946 -0.060001418 -0.599228 0.07053086 -0.13729598 -0.027740205 -0.16393436 -0.022698222
-0.36472479 0.024472857 -0.35310033 0.11763766 -0.045827996 -0.09929372 -0.15443033 -0.009559528
-0.048661593 0.25322473 -0.16942471 0.2362175 -0.1674712 -0.13788192 -0.042388245 -0.051856104
0.07163611 -0.0036574134 -0.21144944 -0.07166637 -0.07503188 -0.16572326 -0.18858556 0.032747466
-0.29279602 0.02835519 -0.411434 -0.012444391 -0.16068456 -0.11230993 -0.10912835 -0.053226095
-0.25964388 -0.09446056 -0.020837381 0.027211767 -0.22651659 0.03511062 0.011220719 -0.035445686
-0.055050388 0.02329883 -0.23289458 -0.061663322 0.023883266 -0.23321758 0.008611733 -0.12830655
-0.08476943 0.039995052 -0.026596272 -0.14845517 -0.100541204 -0.023821982 -0.026017766 -0.120132275
-0.101127245 0.060668778 -0.18965475 -0.13797335 -0.23945397 -0.17346579 -0.1151367 0.005366871
-0.21938446 0.042966273 0.005365706 -0.1745799 0.092479944 -0.2737921 -0.03871178 -0.082483694
-0.10057499 -0.054796327 -0.120281376 -0.22319227 0.04523575 -0.14101864 -0.027646521 0.05335169
-0.11871985 -0.15524077 0.047843304 -0.14860918 -0.092181146 -0.036652792 -0.1509646 0.022595672
-0.24325396 0.004068088 -0.21101788 0.098910004 -0.19662645 0.050428145 -0.346909 -0.065221794
-0.1481455 -0.17097628 -0.10801989 -0.1120117 -0.22208403 -0.036430776 -0.14330265 -0.081446305
0.057759643 -0.24483576 0.043506254 -0.29295358 0.14264128 -0.34996134 0.051391214 -0.22989312
0.117794454 -0.3046111 0.051093206 -0.2609499 0.041949973 -0.18249512 -0.030824969 -0.16259164
0.05760215 -0.35373202 -0.017505059 -0.33036926 -0.098649934 -0.02634887 -0.14968838 -0.03694453
-0.096683234 -0.20704764 0.016615387 0.01796321 -0.15092072 -0.12285352 -0.11862412 -0.24400377
-0.0956379 -0.109995164 -0.25515604 0.09605686 -0.2638278 0.040945478 -0.11401937 0.009934824
-0.056369957 0.06943516 -0.112011544 0.00026201218 -0.10412215 -0.023560379 -0.021406123 -0.09322927
-0.021491572 -0.0015377857 -0.039648496 -0.012267312 -0.124260604 -0.094637334 -0.018378261 -0.29810247

classifier.0.bias f4 [101]
00000000: b77e 3e3f af65 3b3f aef7 1dbf 6f82 2dbf
00000010: c729 2bbf 5918 293f 050f 2ebf ea2c 23bf
00000020: d31b 09bf c2f1 483f 3af5 493f ce35 42bf
00000030: f4d0 2fbf 8380 33bf d2d9 34bf 1985 31bf
00000040: ff6e 25bf d544 23bf 9077 4a3f 666e 31bf
00000050: b76c 5b3f 34ce 5d3f 21ed 3fbf b5f5 403f
00000060: fd61 45bf e959 4a3f 8052 403f 35ba 413f
00000070: 3099 2abf 26b6 31bf a774 1fbf 1af6 533f
00000080: febc 373f bdb5 1bbf 714e 38bf 7942 26bf
00000090: 772a 583f 87e3 30bf 1420 2dbf 99a2 23bf
000000a0: 73bc 48bf dbc4 22bf 8227 25bf 6eb6 6c3f
000000b0: ec7d 2d3f 443c 40bf a073 22bf f4ab 2bbf
000000c0: 4deb 25bf a3e3 37bf ac8c 453f 1569 6f3f
000000d0: 0422 6b3f a15f 733f 21d9 3bbf a189 4abf
000000e0: 5852 2fbf a74c 3dbf e956 503f c472 38bf
000000f0: 2004 3a3f 879b 503f 0568 4b3f 93d3 373f
00000100: 055c 393f 6edb 633f 9b68 2d3f f369 573f
00000110: d590 2e3f 9a2e 2a3f e0a7 27bf 15a8 26bf
00000120: c489 40bf 76b8 3cbf 70dd 513f 5086 3e3f
00000130: f792 3ebf 0fb6 3bbf f36b 47bf 600a 273f
00000140: 7efc 583f b150 463f 629c 3c3f e9bf 533f
00000150: cef9 39bf 6538 23bf 1d4c 503f 28ad 49bf
00000160: 9538 2dbf c929 783f e74f 473f 6623 2fbf
00000170: 099e 403f 952c 2c3f 8e15 1cbf a8bc 2fbf
00000180: cb87 713f 4328 413f a810 4b3f 9668 2fbf
00000190: 8086 313f
0.744121 0.7320203 -0.61706054 -0.6777715 -0.6686062 0.66052777 -0.6799167 -0.6374041
-0.5355808 0.78493893 0.7888981 -0.7586335 -0.6867821 -0.7011797 -0.7064487 -0.69343716
-0.6462249 -0.63776904 0.7908869 -0.6930908 0.8571276 0.86642766 -0.74971205 0.7537492
-0.77102643 0.7904344 0.75125885 0.75674754 -0.66639996 -0.6941856 -0.6228737 0.82797396
0.71772754 -0.60824186 -0.7199469 -0.6494518 0.84439796 -0.6909718 -0.6762707 -0.6391998
-0.7841255 -0.6358163 -0.6451341 0.92465866 0.67770267 -0.7509196 -0.6345768 -0.67059255
-0.64812165 -0.7183172 0.77167773 0.9351972 0.9184878 0.95067793 -0.7337819 -0.79116255
-0.6848502 -0.7394509 0.81382614 -0.7205012 0.72662544 0.81487316 0.79455596 0.7180721
0.72406036 0.890067 0.6773774 0.8414604 0.68189746 0.6647736 -0.6549053 -0.6510022
-0.75210214 -0.73718965 0.8197851 0.74423695 -0.74443 -0.73324674 -0.7789909 0.65250206
0.8476027 0.77466875 0.7367612 0.82714707 -0.72646797 -0.63757926 0.8136614 -0.7877984
-0.6766446 0.9693876 0.77856296 -0.6841339 0.7524114 0.67255527 -0.6097039 -0.6864724
0.9434783 0.7545206 0.7932229 -0.6851896 0.69345856

classifier.2.weight f4 [2, 101]
00000000: d01b 743f 67a9 553f 24b5 a9bf c61a a1bf
00000010: 5863 dabf 7f6d 503f 1e38 6dbf 4b81 6ebf
00000020: d444 5cbf 7010 4c3f ade6 5e3f 5911 c6bf
00000030: 2733 d0bf 88fe c9bf b363 aebf eb1d 95bf
00000040: 6b62 89bf f746 afbf 3591 733f ae44 80bf
00000050: bcc4 383f de94 843f d782 9abf 7002 443f
00000060: bde5 d8bf 2280 483f 62e7 4c3f 827a 483f
00000070: 2b67 e5bf 746b 8dbf 4511 8cbf 8f21 553f
00000080: 50c1 353f 2b3f 79bf eed5 fabf 0f27 a2bf
00000090: 2fd1 4c3f d57f 84bf 8d79 bfbf 9803 7fbf
000000a0: 3345 d6bf 21c2 9abf 10e6 3dbf c4ef 653f
000000b0: 196e 413f 21f8 fcbf 883f 7ebf 8a77 9cbf
000000c0: f747 bdbf f253 bcbf ccbe 3f3f 134d 713f
000000d0: 4388 533f dbbc 233f 28dc 82bf e403 cabf
000000e0: 14d5 97bf 53db d5bf 9203 533f 12f4 d8bf
000000f0: 0e24 543f 2cb4 613f ad0d 343f de5f 3e3f
00000100: 30d0 433f ab40 2a3f b04a 643f 36c4 823f
00000110: e43b 2f3f 85bb 273f 8af4 b2bf 9b6c a6bf
00000120: 4d90 b3bf f140 c8bf 0761 623f 0b4b 3a3f
00000130: f5e9 a5bf 2262 bfbf 46de dbbf 7ead 813f
00000140: 00a2 703f 17d6 4c3f 9ca9 503f 90bd 423f
00000150: 7d7c b3bf 0e3a bfbf cf6b 503f 2082 c1bf
00000160: fa57 a7bf 61d7 823f 2891 3a3f 720d 97bf
00000170: 474e 303f 3aa2 343f 4f5f 59bf 0ccd d4bf
00000180: 051e 533f 81ef 563f a6c6 2f3f f569 b2bf
00000190: 72b0 403f ae10 58bf 26c1 56bf 30f3 aa3f
000001a0: 9d8c 9c3f cfda cd3f f707 61bf 2d02 4d3f
000001b0: 6fba 8a3f 0cc9 5a3f 4223 3ebf 8184 46bf
000001c0: 4aea cf3f a744 d03f fc15 da3f 6c9d b73f
000001d0: 09e0 a13f b93b 943f f536 a13f a88f 5cbf
000001e0: 551b 953f 2c74 61bf 875f 76bf 53c8 933f
000001f0: df8c 3fbf 4f48 e93f d504 47bf 3f25 63bf
00000200: 61cf 4dbf 7234 e33f c170 9d3f 45f0 893f
00000210: 528f 42bf 325f 5abf f76a 7c3f 2a21 0340
00000220: c72d a13f 6483 68bf a3c4 873f 1371 d53f
00000230: 6809 733f 0ac7 d53f 38e7 9c3f 1a56 553f
00000240: 2a5c 85bf 724d 1fbf f22c e73f 3ee1 8c3f
00000250: 51d6 9c3f cafb ae3f 82cf b83f 9f99 41bf
00000260: 4da2 6cbf d1c5 6dbf 657e 4bbf 3d34 833f
00000270: a2a2 c13f 222b a33f cb66 d53f b9b2 4abf
00000280: 6c2f d93f 46dd 5bbf ee5e 5fbf 4998 20bf
00000290: b94d 4bbf 543d 42bf fedf 2cbf f5c9 58bf
000002a0: fee5 70bf de0a 22bf 5d4e 40bf 662b b23f
000002b0: 8601 a13f fa8f c43f be20 ce3f 0718 75bf
000002c0: 449b 28bf 33d1 b53f 474d b83f 308a eb3f
000002d0: 6abd 5bbf 3acf 82bf 2957 34bf 96aa 4cbf
000002e0: 7469 3abf cf1e b63f 5633 be3f e374 49bf
000002f0: 7164 c33f c736 ac3f afd9 8bbf a94a 3abf
00000300: 8635 923f a350 52bf 1144 3fbf e393 503f
00000310: 5ab6 d93f 3f39 74bf d7e9 54bf afd9 3dbf
00000320: ef83 a93f ad4f 2fbf
0.9535494 0.8346161 -1.3258405 -1.2586296 -1.7061567 0.8141708 -0.92663753 -0.93166035
-0.86042523 0.7971258 0.87070733 -1.5474044 -1.626561 -1.5780802 -1.3624176 -1.1649755
-1.073316 -1.3693532 0.95143443 -1.0020959 0.7217519 1.0357931 -1.2071179 0.7656622
-1.694511 0.78320515 0.8004056 0.7831193 -1.7922109 -1.1048417 -1.094277 0.8325433
0.70998096 -0.9736201 -1.9596536 -1.266817 0.8000669 -1.0351511 -1.4958969 -0.9961486
-1.6739868 -1.2090493 -0.7417917 0.8981898 0.7555862 -1.9763223 -0.9931569 -1.222398
-1.4787587 -1.4713118 0.7490051 0.9425823 0.82629794 0.63960046 -1.0223436 -1.5782437
-1.1861901 -1.6707557 0.8242732 -1.6949484 0.82867515 0.88165545 0.7033337 0.7436503
0.76489544 0.66504925 0.89176464 1.0216129 0.6845076 0.6552051 -1.3980877 -1.3001894
-1.4028412 -1.5644819 0.884293 0.72770756 -1.2962023 -1.4951823 -1.7177207 1.0131071
0.9399719 0.80014175 0.81508803 0.760705 -1.4022366 -1.4939592 0.814145 -1.5117836
-1.3073723 1.0221978 0.7287774 -1.1800978 0.6886944 0.7056004 -0.84911054 -1.6625075
0.8246768 0.83959204 0.6866249 -1.3938586 0.75269234 -0.8440045 -0.8388847 1.3355465
1.2230412 1.60824 -0.8790278 0.80081445 1.0838145 0.85463023 -0.7427255 -0.77545935
1.6243374 1.6270951 1.7037959 1.4344916 1.2646495 1.1580726 1.2594897 -0.861567
1.1648966 -0.8806789 -0.96239513 1.1545509 -0.7482433 1.8225192 -0.7774175 -0.8872871
-0.8039456 1.775038 1.2300035 1.077645 -0.7599994 -0.85301507 0.98600715 2.0488992
1.2592095 -0.90825486 1.0606884 1.6675133 0.9493623 1.6701367 1.2258062 0.83334506
-1.0418751 -0.6222755 1.8060591 1.1006238 1.2252904 1.367059 1.4438326 -0.7562503
-0.9243515 -0.9287997 -0.7948974 1.0250317 1.5127757 1.2747538 1.6671995 -0.7917896
1.6967597 -0.8588451 -0.87254226 -0.6273237 -0.7941547 -0.7587483 -0.67529285 -0.8468316
-0.9410094 -0.6329783 -0.7511957 1.3919494 1.257859 1.5356438 1.6103742 -0.9573979
-0.65861917 1.4204468 1.4398583 1.8401546 -0.858359 -1.021949 -0.70445496 -0.79947793
-0.7281716 1.4228152 1.4859416 -0.7869398 1.5265027 1.3454217 -1.0925807 -0.7277017
1.1422584 -0.8215429 -0.74713236 0.8147566 1.7008774 -0.9539985 -0.8316931 -0.74160284
1.3243388 -0.6848095

classifier.2.bias f4 [2]
00000000: 83f4 243f 573a 44bf
0.64435595 -0.7665152
