Trained_Models_CLODC/2/ConvAutoencoder_200.pth (torch, 494319 bytes, 17 tensors)

encoder.0.weight f4 [4, 8, 3]
000000 a8 f4 73 3e 94 33 8a bc 60 0a a1 bc b8 66 74 3c
       0.23823798 -0.016870297 -0.019658267 0.014917068
000010 d9 f4 73 bd 7e 94 88 3d b4 37 06 3e e1 55 90 bd
       -0.059559677 0.06668948 0.13107187 -0.0704763
000020 fa 53 98 3d e9 12 44 bd c5 dc 01 3d 3e f8 b2 3d
       0.07437892 -0.047869597 0.031704683 0.08738755
000030 b0 7d 12 be 21 cc 22 3e e0 f6 43 be 64 8a 06 be
       -0.14305758 0.15898181 -0.19137144 -0.1313873
000040 7e e1 c7 3c 9d 8b 2f 3d 06 2d 05 3b ab 13 5a 3d
       0.024399515 0.042857755 0.0020321026 0.053241413
000050 fa 35 a0 be bf 7f 41 3d ba 21 79 3e a6 db 09 be
       -0.3129118 0.04724097 0.24329272 -0.13462695
000060 bd d9 ac be 34 a3 61 3e 12 ae 9a bd fb 5d 2a be
       -0.3375987 0.22034913 -0.075527325 -0.16637413
000070 31 c5 cd 3e c7 7d ab 3b f5 7f 81 bb 9d 05 cb 3e
       0.40189508 0.0052334997 -0.0039520212 0.3965272
000080 8b cb b4 bd 3c 63 46 be 17 03 98 3e 85 50 45 bd
       -0.08827885 -0.19373792 0.29689857 -0.048172493
000090 c8 72 5e bd 94 f6 9a bd 4a 4a 40 be 20 33 2d 3d
       -0.054308683 -0.07566562 -0.18778339 0.042285085
0000a0 bb 7f 32 3e 20 23 77 be d3 ba cf 3c bc 1d ba 3c
       0.17431538 -0.24134493 0.02535764 0.022719257
0000b0 d4 5c d4 bc f5 7f 96 3d 12 d1 4a 3e c1 b9 3c 3e
       -0.02592317 0.073486246 0.19806316 0.18430234
0000c0 d3 1a 97 bd 07 c7 f9 3c 46 5b 07 3d 22 a5 68 3c
       -0.07378163 0.030490411 0.03304603 0.014199527
0000d0 17 60 0d be 51 5d ef 3c 25 b0 f0 bd 67 e7 21 3e
       -0.13806187 0.029219301 -0.11752347 0.15810929
0000e0 a5 e8 ac 3c 56 68 86 bd ca 68 e6 bd 63 b8 6a bd
       0.021107027 -0.06562869 -0.11250456 -0.05730475
0000f0 36 2a ec 3c 49 da d0 bd 4f 36 9b bd 06 e6 21 3e
       0.028828721 -0.101978846 -0.07578718 0.15810403
000100 62 5f 6f be 5f 1b 26 3e 4e fd 50 3e 0e 67 62 be
       -0.2337623 0.16221379 0.20409128 -0.22109625
000110 a3 f9 01 3e 9a 6f 46 bd 1a da e9 bd d4 a9 1e bd
       0.12692885 -0.048446275 -0.11418553 -0.03873618
000120 05 f6 5c bd 42 d5 ef bc 67 88 ed 3d 4f cf ce 3d
       -0.05394556 -0.029276494 0.11598282 0.10098135
000130 83 93 ba 3d 34 c9 6f 3e e8 64 83 bd 05 a9 83 3e
       0.09110167 0.23416597 -0.06415731 0.2571489
000140 4d 12 12 3e 43 62 dd 3d 18 32 9d bc c6 20 0e 3e
       0.14264794 0.108097576 -0.019188926 0.1387969
000150 e0 ce cc 3d 94 0f f6 3c 0c 51 a0 bd 15 10 64 3d
       0.10000396 0.030036725 -0.078279585 0.0556794
000160 a8 2a 8c 3e 04 39 b9 3c 09 ed 8a bd 25 2d 80 3e
       0.27376294 0.022610195 -0.06783492 0.25034443
000170 cf 0c 1f 3e 55 2a dc 3d 84 d8 61 3e 53 f8 80 3c
       0.1553223 0.10750262 0.2205525 0.01574341

encoder.0.bias f4 [4]
000000 4b bc 44 be f5 4c 79 3d 8e 9b 86 3e bc 06 19 bd
       -0.19212453 0.060864408 0.26290554 -0.037359938

encoder.2.weight f4 [1, 4, 3]
000000 5b 0a d0 3d 9f ce 99 be ce 21 db 3d 47 85 2e bf
       0.10158225 -0.30040452 0.10699807 -0.68172115
000010 12 54 5c 3e 3a 7b 50 be fa af ad bd 36 0b 86 3e
       0.21516445 -0.20359507 -0.084808305 0.26180428
000020 c0 db 76 be 1a cd 6d 3d d0 af ad bd f0 9f c8 3e
       -0.24107265 0.05805693 -0.08480799 0.39184523

decoder.0.weight f4 [1, 4, 3]
000000 ad d9 22 3f d3 ed aa 3e e0 66 94 bd 40 fb 47 be
       0.63613397 0.3338457 -0.07246184 -0.19529438
000010 4b b1 22 3f 26 0e 3e bd 4d 5f fe 3f 5b e4 7a be
       0.6355178 -0.04640021 1.9872833 -0.24501173
000020 fc 24 02 c0 dd 0d 8b 3f 54 eb 1a be 45 ad 7a 3f
       -2.0335073 1.0863606 -0.15128833 0.9792064

decoder.0.bias f4 [4]
000000 2b 64 c9 3e ef ee 83 3f 08 7b 08 3e 04 a9 07 3f
       0.39334235 1.0307292 0.13328183 0.5299227

decoder.2.weight f4 [4, 8, 3]
000000 f1 0b b1 3e ba 2c 2a be 6b 4d 91 be 99 1c a5 3e
       0.34579423 -0.16618624 -0.28379378 0.3224838
000010 08 a9 41 be 90 34 8a be eb a4 b3 3e 3b 8d 91 be
       -0.18912137 -0.26993227 0.3508676 -0.28428063
000020 ee 5b ab be 36 5b 81 3e c9 5d c5 bd 36 87 82 be
       -0.33468574 0.252649 -0.09637029 -0.25493783
000030 e8 15 7b 3e 40 a4 63 be 99 7c 71 be 2d cd 77 3e
       0.24520075 -0.22230625 -0.23582686 0.24199362
000040 2e 86 80 be 0d 36 a3 be 02 bb 9f 3e 68 a9 b3 bd
       -0.2510237 -0.31877175 0.31197363 -0.08772546
000050 67 18 85 be 9c cf d8 3e b1 8a 94 bd 13 a6 90 be
       -0.2599518 0.42345893 -0.07253016 -0.28251705
000060 8a e4 ff bd 62 91 50 3d 3d 70 87 be 20 f2 86 be
       -0.12494762 0.050919898 -0.2645282 -0.26356602
000070 e4 86 fe bc 1d c9 05 bf 93 02 c1 be 00 23 8d 3d
       -0.03107018 -0.5226 -0.37697276 0.06891441
000080 20 c4 32 bf ef e7 e7 be da 4a e6 3d e9 50 40 bf
       -0.69830513 -0.4529414 0.112447456 -0.7512346
000090 12 ff f4 bd 3e e8 9b 3c fa 82 8d be 79 0f 8b be
       -0.11962713 0.01903164 -0.2763899 -0.27160242
0000a0 83 7b 4c bc 7b 4f ff be e4 cd b7 be 45 21 fb 3d
       -0.012480619 -0.49865326 -0.3589927 0.12262205
0000b0 6b 9e 30 bf e3 ad 01 bf 58 b4 b6 3d cb d1 3d bf
       -0.68991727 -0.50655955 0.089211166 -0.74148244
0000c0 32 70 bb 3e a0 e7 f4 be 2a e1 0d 3f 5b de 64 3f
       0.36609036 -0.47832966 0.554217 0.8940179
0000d0 bb 6d 52 bf 17 ca 3a 3f 88 2e ac 3f 29 1e 89 bf
       -0.82198685 0.72964615 1.34517 -1.0712329
0000e0 23 64 3d 3f dc 88 d1 3f 1b 07 9c bf 8f ae 1c 3f
       0.7398092 1.6369891 -1.2189668 0.61203855
0000f0 92 b9 c4 3e 67 a2 de be 04 cd 08 3f 4d c4 67 3f
       0.3842283 -0.43483278 0.5343783 0.90533906
000100 28 f9 47 bf a7 4d 37 3f 2a 41 b2 3f 92 ca 8a bf
       -0.7811456 0.71602863 1.3926136 -1.084307
000110 fa 5d 2f 3f 81 1c cd 3f bf d7 9d bf be ad 19 3f
       0.6850277 1.6024324 -1.2331465 0.60030735
000120 eb 8a 53 3e f6 27 cb be ac f2 01 3f 66 93 05 3f
       0.20658462 -0.39678925 0.5076091 0.5217804
000130 3b 80 25 bf 0f 4d 63 3f a8 3f 33 3f 56 76 40 bf
       -0.6464879 0.8878946 0.70019007 -0.75180566
000140 ce a8 9a 3f 8a 2b 5a 3f f2 2b 58 bf 77 7f a3 3f
       1.2082765 0.85222685 -0.84442055 1.2773274
000150 34 64 81 3e d8 f4 b7 be ec 03 00 3f bf e1 12 3f
       0.2527176 -0.35928988 0.50005984 0.5737571
000160 5d 7a 19 bf 89 b8 62 3f 4f fd 2f 3f 2d 17 4f bf
       -0.59952337 0.8856283 0.68745893 -0.8089474
000170 c2 37 95 3f 21 71 50 3f 38 2b 5e bf 63 d4 a3 3f
       1.1657641 0.8142262 -0.86784697 1.279919

decoder.2.bias f4 [8]
000000 5c c2 14 3e cf 4d ad 3e 56 45 a5 3e 80 f0 83 3e
       0.14527267 0.33848426 0.32279462 0.25769424
000010 4d c4 38 3e e5 84 a4 3e 9e 18 57 3e 8e 24 99 3e
       0.18043633 0.3213264 0.21005484 0.29910702

mapping.weight f4 [400, 199]
000000 20 a9 76 3b 32 af 3d bb 63 9c b1 ba 05 8a bd 3b
       0.0037637427 -0.0028943536 -0.0013550635 0.0057842755
000010 e7 95 fc 3b 4a fa 7b 3a 76 b2 01 bb 6e e7 10 3b
       0.0077082994 0.0009612186 -0.001979021 0.00221106
000020 e1 ad 08 3b 9c cb 86 3b 50 6d 36 3c c4 00 a4 3a
       0.0020855593 0.0041136276 0.011134461 0.0012512435
000030 f8 06 1e bc b6 7f cd 3b e6 a8 8f 3c 1e 0d b0 3a
       -0.009645216 0.006271328 0.017536592 0.0013431644
000040 af 18 51 bb 05 b6 f3 3b af 0c e9 3b b4 8e 3a 3b
       -0.0031905582 0.00743747 0.0071121077 0.0028466405
000050 80 f5 0d 3c 86 02 f0 3b 7a d6 03 bb 49 f4 ac 3b
       0.008664489 0.0073245196 -0.0020116852 0.0052781445
000060 6a e6 92 3c 19 f7 ea 3b 87 83 43 bb d4 1a ed 3b
       0.017932136 0.0071705696 -0.0029833035 0.007235864
000070 cb 25 22 3c 48 c3 b6 3b dd 61 6e 3c 70 5c 55 3c
       0.009896706 0.0055774786 0.0145497 0.013022527
000080 bf 42 8f bb 16 cc 8d bb a7 55 4f 3c 0b c2 64 3c
       -0.0043719704 -0.0043273075 0.012654698 0.013962279
000090 2f 4a 80 3b ef fb e2 3a ae a9 34 bb ee 1b 1b bb
       0.0039150934 0.0017317514 -0.0027566957 -0.002366777
0000a0 ff 7c 7a 3c 87 de 6e 3c 05 76 41 bc 50 36 56 bc
       0.01528859 0.014579422 -0.011807923 -0.013074473
0000b0 20 2f 50 3c 22 e7 35 3c 43 da 1d bc fd a2 83 bb
       0.012706548 0.01110247 -0.009634557 -0.0040172325
0000c0 f9 c4 fc 3b 6b 52 af bb df 80 f0 bb 1c c6 19 3c
       0.0077139107 -0.005350401 -0.0073395814 0.009385612
0000d0 6a ff 0d ba 76 ec 56 bc cb eb bb 3b 71 4b 21 3c
       -0.0005416783 -0.0131179 0.005734896 0.009844647
0000e0 d9 eb 12 bc e0 5d 0f bc 25 69 8d 3b 2e 93 85 3b
       -0.008967363 -0.008750409 0.0043155127 0.004076383
0000f0 5a 56 16 bb cb ea 76 3a 39 4b bc 3a 03 2a 8c bb
       -0.0022939653 0.0009419142 0.001436568 -0.004277469
000100 3e 2c 1c ba aa 9b a1 3b 5c b2 8f ba f6 3b 5c bb
       -0.00059575203 0.0049318867 -0.0010963189 -0.0033605075
000110 93 1d 22 3b 43 20 74 3b 9a 4b 74 3b da 5c 87 3b
       0.0024736866 0.0037250675 0.0037276507 0.004130942
000120 28 d0 86 bb ec 38 a3 bb a8 91 42 3c e7 92 66 3c
       -0.0041141696 -0.004981151 0.0118755475 0.01407311
000130 96 25 57 38 be 9c a6 ba 28 9b a6 3b 4e df 1a 3c
       5.1295e-05 -0.0012711508 0.005084414 0.009452654
000140 c7 f4 2a 3c 6d 62 2a 3b 23 82 5b 3a f8 42 1c 3c
       0.010434336 0.0025998608 0.0008373579 0.009537451
000150 e1 95 53 3c 56 be 25 3c dd 9b 48 3b a3 d3 0c ba
       0.012914152 0.01011618 0.003061048 -0.00053721125
000160 a6 2a ac 3b ea 20 3c 3c 51 07 fa 3b b2 57 cf 3a
       0.0052541075 0.011482457 0.0076302667 0.0015818982
000170 51 87 c3 3b ec 0c 22 3c 61 b7 89 ba c6 95 98 bb
       0.0059670587 0.009890776 -0.0010506922 -0.0046565263
000180 16 f5 2b 3c 12 ef 5f 3c e7 0c ba ba 2e 72 9c bb
       0.010495445 0.013667839 -0.0014194519 -0.0047743535
000190 2d e3 e2 3b 7b 95 fa 3b 30 7f 6f bb 40 78 49 bb
       0.006924054 0.007647214 -0.0036544316 -0.003074184
0001a0 6f 28 26 3c 44 cd da 3b b1 07 45 bc 33 fd 07 ba
       0.010141476 0.0066773016 -0.01202576 -0.0005187571
0001b0 8d cf 87 3c 6e 77 47 bb f4 ca 14 bc c2 84 a5 3b
       0.01657846 -0.0030436176 -0.009081591 0.0050512264
0001c0 40 96 b3 bb e9 94 eb bb 6e 24 34 3c 4e 4f 4a 3b
       -0.0054805577 -0.0071893823 0.010995014 0.0030870023
0001d0 cd e1 61 bc 18 11 7e ba 22 0a ca 3b 3b 0e a7 bb
       -0.013786745 -0.0009691878 0.0061657587 -0.005098132
0001e0 27 4b fc 3a dc 9c a4 3b a7 3e 31 bc e1 c6 25 b9
       0.0019248471 0.005023582 -0.01081816 -0.00015809714
0001f0 5b d5 3f 3c a4 8f b0 bb 10 e6 c0 bb 01 11 03 3c
       0.011708583 -0.005388217 -0.0058868006 0.0079996595
000200 41 67 8c 3b a9 77 17 3b 18 ff 12 3b 6e 9a 1f bc
       0.0042847698 0.0023112094 0.002242988 -0.009741409
000210 50 34 c5 bb 06 2a 80 3c 6c af 74 3c 5c 62 18 bb
       -0.006018199 0.015645038 0.014934402 -0.0023251986
000220 48 5f e3 bb 12 bf 68 bb 59 2a 6c b8 89 c5 84 3b
       -0.0069388486 -0.0035514277 -5.6306224e-05 0.0040518683
000230 fc 4d da 3b e3 53 a8 3a c1 e0 7d bb 7d 52 21 3a
       0.0066621285 0.0012842383 -0.00387387 0.00061539543
000240 01 7e a9 3b 22 b1 c3 ba 9a 55 dc bb 19 9b ad 3b
       0.0051724915 -0.0014930109 -0.0067240717 0.00529803
000250 df 29 3a 3c 01 18 86 ba 53 76 1e bb e4 ac 44 3b
       0.011362522 -0.0010230542 -0.0024179413 0.0030010277
000260 8d 11 08 ba 30 cf 6f 3a d4 25 96 3b 47 6c ac ba
       -0.00051906036 0.0009148 0.004582146 -0.0013154828
000270 ce d8 81 3a b1 35 8e 3b cc 21 4f ba b6 02 43 bb
       0.0009906532 0.0043398966 -0.00079014595 -0.0029756255
000280 dd ae d9 3a 4e 55 b2 3b fb 92 a7 3a 79 fb f1 bb
       0.00166079 0.005442298 0.0012784892 -0.007384714
000290 95 e9 8e 39 2e 3e 59 3c 3a 84 06 3b 92 8b 10 bc
       0.00027258383 0.013259454 0.002052559 -0.008822339
0002a0 1d ce bf ba aa 45 e0 3b e1 00 1a 3c 44 22 98 3a
       -0.001463357 0.006844242 0.009399624 0.0011606892
0002b0 b8 b6 1e bc 4a 79 86 bb 1f 1e ee 3b a2 77 01 3c
       -0.009687118 -0.0041038143 0.0072667743 0.007902058
0002c0 2f f5 64 b9 54 04 1d bc fa 03 18 bb 0f 48 3f 3c
       -0.00021835112 -0.009583551 -0.002319573 0.011674895
0002d0 82 48 04 bb 8e 4a 36 bc 0a 6a 3c 3c 2a 69 69 3c
       -0.002018482 -0.011126174 0.011499891 0.0142462645
0002e0 0e 13 f6 bb 33 73 ce bb 2b d4 91 3b c0 7b 09 3b
       -0.0075095957 -0.006300354 0.004450341 0.0020978302
0002f0 ab 09 d8 3b da 2f 21 3c 16 c2 55 bb 02 36 f2 bb
       0.0065929494 0.009838069 -0.0032616905 -0.007391692
000300 5a 7c d8 3b 5c 40 2c 3c 45 0d 4f bb b4 c0 e3 bb
       0.0066066207 0.010513391 -0.0031593603 -0.0069504622
000310 c6 83 da 3b 3f 3c ee 3b fe ca f8 b8 cd e9 77 3b
       0.0066685406 0.0072703655 -0.00011863372 0.0037828565
000320 5a 5b 84 ba 57 b2 29 bb fd ee 31 3b 24 4f 0f 3c
       -0.0010098026 -0.0025893652 0.0027150505 0.008746896
000330 25 3d 1b 3b 39 62 a1 bb 50 bd a7 3a 7c f1 e7 3b
       0.0023687568 -0.004925039 0.0012797508 0.0070783477
000340 5d d8 8a 3a 9b 5b 37 bb 67 13 0b 3b 4e 34 9e 3b
       0.0010593046 -0.0027978185 0.0021221281 0.0048280125
000350 7d 09 31 3b 82 72 81 38 dd 43 81 ba 5e bd 2e ba
       0.0027013712 6.172528e-05 -0.0009862144 -0.0006665791
000360 6b ef 32 3b 50 61 94 3b 3d a0 9f ba cf 6d 78 bb
       0.0027303349 0.004528202 -0.0012178492 -0.0037907248
000370 e8 3d 06 3b 21 a3 4b 3b c5 8d f5 ba 6f 24 34 bb
       0.0020483676 0.0031072574 -0.0018734267 -0.0027487536
000380 f1 e7 5d ba a3 04 a1 b9 1e e7 5c b8 7b 91 0b bb
       -0.0008465043 -0.00030711768 -5.2667332e-05 -0.002129643
000390 ac 69 38 bb 8d 74 a6 ba c8 c2 84 ba cc 65 87 bb
       -0.0028139157 -0.001269953 -0.001012885 -0.004132008
0003a0 ca 5e 92 bb 92 97 8f 3a ba 3f 7a 39 a6 63 16 bc
       -0.004466866 0.0010955206 0.00023865598 -0.0091790315
0003b0 c3 58 19 bc 18 ec 1f 3b a8 a7 b5 3b ea ec 0f bc
       -0.009359541 0.0024402197 0.005543668 -0.008784512
0003c0 15 1b 4d bc 58 f0 91 b9 98 56 c2 39 06 ae ca bb
       -0.012518664 -0.00027835625 0.0003706708 -0.006185296
0003d0 5c 12 cd bb 15 ad 4a bb 1c 6f dc ba d0 1e 90 bb
       -0.006258292 -0.003092592 -0.0016817781 -0.0043982044
0003e0 b1 4b da bb 7b f6 9d bb e7 ab d3 b9 88 64 4f bb
       -0.006661855 -0.0048206425 -0.00040373133 -0.0031645615
0003f0 87 e8 16 bc c8 d2 41 bb 61 65 c4 3a ba c8 44 bc
       -0.009210712 -0.0029575098 0.0014983827 -0.012010748

mapping.bias f4 [400]
000000 f9 28 42 3e c3 23 49 be d7 57 28 3e 27 f2 77 be
       0.18960942 -0.19642548 0.16439758 -0.24213468
000010 2a a0 f0 3d f8 62 95 3e 49 d0 82 3e 07 3c be bd
       0.11749299 0.2917707 0.25549534 -0.09288793
000020 87 e8 a4 3b 4f 13 d5 3d 27 23 52 bc d8 41 8c be
       0.005032602 0.104040734 -0.012825764 -0.27393985
000030 64 47 64 bd ff 70 b7 3d 9a c3 73 be a3 e7 51 bd
       -0.055732146 0.08957099 -0.23805085 -0.051246297
000040 df 76 42 3e 0c 99 db 3e a1 24 c6 be 0f d4 85 be
       0.18990658 0.42890203 -0.3869982 -0.2613835
000050 16 9d b6 3e 8a 1f 94 3e a3 da 5f be 6b ca 2a be
       0.35666722 0.28930312 -0.21860747 -0.16678779
000060 88 7e a0 3e 86 5d 4c 3e b4 d4 a8 3e df 18 89 be
       0.31346536 0.19957551 0.3297478 -0.26776788
000070 ca 83 0d 3e 0a 93 98 3e 86 74 c9 bd c6 66 b9 be
       0.13819805 0.29799682 -0.09836678 -0.36211222
000080 af f8 fb bd b8 6d 79 be 2d 02 51 3e 40 2d 4a 3e
       -0.12303292 -0.2435826 0.20410986 0.19743824
000090 9f cd 78 3e 9b 75 b7 bd cc 37 d8 bd 0f d2 b4 3e
       0.24297188 -0.08957978 -0.105575174 0.35316512
0000a0 83 05 ca 3c a4 ba 67 be 67 6e cc bc 09 18 1a bd
       0.024660831 -0.22629791 -0.024954988 -0.037620578
0000b0 1c aa a8 3e c3 97 7a be 2f dc 62 3d f7 cb 90 be
       0.32942283 -0.24471955 0.055385765 -0.28280613
0000c0 be 18 39 3e 2d d9 95 be fe 17 22 3e 70 d1 12 3e
       0.18075845 -0.29267254 0.15829465 0.14337707
0000d0 41 a7 a2 3e c5 59 b8 be 44 ce ca bc 42 f8 98 3e
       0.3176823 -0.3600599 -0.024756558 0.29876906
0000e0 d4 e8 23 3e aa 26 f1 bd 8b 96 04 be ce 87 7b 3e
       0.16006786 -0.11774953 -0.12948053 0.24563524
0000f0 66 d9 a0 bd ee 28 3a be 86 d3 a8 be 9f 98 48 3e
       -0.078539655 -0.18179676 -0.3297388 0.1958947
000100 51 8a 90 bd 56 42 b8 be 79 30 20 3d c3 6e 9e be
       -0.07057632 -0.3598811 0.039108727 -0.3094388
000110 2d 98 c1 3d 09 3e a9 be c7 5a 65 be 71 b7 21 3e
       0.09452853 -0.33055142 -0.2239791 0.15792634
000120 c0 a8 a7 3d 54 ec b5 3e 21 7d 64 bc 87 32 b5 3e
       0.081864834 0.35531867 -0.013945849 0.35390112
000130 c9 68 a3 be 64 fb b4 be c1 8d 76 3d 4b 08 27 be
       -0.31915882 -0.35348046 0.06019378 -0.16311757
000140 f8 a5 75 bd 94 c2 ec bd 9c d3 17 3e c7 da 64 be
       -0.059972733 -0.1156055 0.14826816 -0.22349082
000150 dc 26 a9 bd dd 79 46 be 87 65 94 be 5c cf 35 3e
       -0.08259365 -0.19382425 -0.2898371 0.17754883
000160 59 0f 53 3e 90 92 56 be b1 ac 62 be 1b f3 a4 be
       0.20611323 -0.20954347 -0.22136189 -0.32216725
000170 ab aa ff 3c 62 04 9c be 06 65 64 3e 9c 2e 3a 3e
       0.03120931 -0.30472094 0.22304162 0.18181843
000180 91 48 8b be 9a 00 70 be 37 de c6 be 85 d7 9f bd
       -0.272038 -0.2343773 -0.3884141 -0.07804779
000190 28 f2 5c 3e 9f 25 31 3e e6 3a 7d 3e 7f 15 d4 be
       0.2157675 0.17299508 0.24729499 -0.4142265
0001a0 f1 d2 2a 3e 68 58 5b bd ec 52 bc 3d 62 fa 93 3e
       0.1668203 -0.053551108 0.091955036 0.28901964
0001b0 3c c1 63 be 75 86 63 3e 64 05 3d 3e ca 99 30 bd
       -0.22241682 0.2221926 0.18459088 -0.043115415
0001c0 9f 5d 0e 3e 4e 65 54 be 9c 14 33 3e c4 9b 94 39
       0.13902901 -0.2074177 0.1748833 0.00028344814
0001d0 6c d8 d9 3c 75 71 e1 bc 64 14 30 3c 32 49 78 3e
       0.026592456 -0.02751992 0.010747049 0.24246672
0001e0 29 e8 58 be 8a fb 8e be bd 76 17 3d 36 63 a3 3e
       -0.21182312 -0.27926284 0.036978472 0.3191163
0001f0 6d 45 03 be 63 df 5e be c6 38 50 be 41 cc 4f be
       -0.12819453 -0.21764903 -0.20334157 -0.2029276
000200 3e a2 16 3e e1 3c c2 be ab 95 6f be 2b 5f 0c 3c
       0.14710328 -0.37937072 -0.23396938 0.008567612
000210 8f 0f d6 bd b1 c1 8b be 1f 5a b5 be 0b 12 01 bd
       -0.10452186 -0.27296212 -0.3542032 -0.031511348
000220 8b 6e 2f 3e 96 2f 1d 3e 0f d5 b0 be 8f ea a7 bd
       0.17132013 0.15350184 -0.3453755 -0.081990354
000230 30 d7 b7 be 60 3f 8c be 54 12 6c 3e 1c 0c 63 bd
       -0.35906363 -0.273921 0.23053867 -0.05543147
000240 1b cc 86 be 63 39 cd be dc 7b 73 3e b1 91 8e 3e
       -0.26327595 -0.40082845 0.23777717 0.2784553
000250 77 11 86 3e 17 5c 02 be d4 13 81 3e 82 28 99 be
       0.261852 -0.12730442 0.2521044 -0.29913718
000260 0e 90 be 3e 22 37 20 be cf 2c 94 be 43 e0 10 3e
       0.3721928 -0.15646031 -0.28940436 0.14148049
000270 56 86 6a b9 7e 37 ca 3e 44 b3 13 be a3 49 63 be
       -0.00022366023 0.39495462 -0.14423853 -0.22196059
000280 b2 a8 43 3e d1 59 31 3e 62 14 4d be 1c ad 69 3e
       0.19107321 0.17319418 -0.20027307 0.22819942
000290 36 d3 a0 be ac 29 bf 3e d9 17 a1 3d e8 c1 9c bd
       -0.3141114 0.3733648 0.07865877 -0.07654172
0002a0 c5 14 9a be 70 65 46 3e 74 62 89 be ed f5 8c 3e
       -0.3009397 0.19374633 -0.26832926 0.27531376
0002b0 ab 8c cd bd ed c0 4a 3d 3c de a7 be c7 fc 5c be
       -0.10036596 0.049500395 -0.3278674 -0.21580802
0002c0 5f 51 61 be b8 55 55 3e a4 db 24 be af a9 79 3e
       -0.22003697 0.2083348 -0.16099411 0.24381135
0002d0 1d 57 ab be 8a 73 ad 3e b5 d2 10 be 80 47 90 be
       -0.334649 0.33877212 -0.14142878 -0.2817955
0002e0 60 b4 57 bb 23 18 05 3d 2c 9f 86 be bd 9f ab bd
       -0.0032913908 0.03249372 -0.26293314 -0.08380077
0002f0 5b 62 8e bd d6 de 3f 3e 95 64 83 be 4a af 86 3e
       -0.069523536 0.18737349 -0.25662675 0.2630561
000300 49 19 5d be 80 48 5f be 33 00 6b 3e 0a 48 0d 3c
       -0.21591677 -0.21805 0.22949295 0.0086231325
000310 d7 c9 ba be 0c 1f da 3e b3 8d 04 be f9 66 ec 3c
       -0.36482117 0.42601812 -0.12944679 0.028857695
000320 fa e9 10 be c4 83 84 be e5 4d 05 3c cf f3 88 be
       -0.14151755 -0.2588178 0.008136247 -0.2674851
000330 6a 06 19 be 8b 02 c1 be bb 14 27 3e d1 2d 42 be
       -0.14943853 -0.37697253 0.16316502 -0.1896279
000340 cf 09 ac be 7f e3 e8 bd 0e 79 91 3e 57 c6 97 be
       -0.33601233 -0.113715164 0.2841267 -0.2964351
000350 17 f7 d4 bd 5d 19 23 be ee c1 c9 bb 52 0a 1d 3d
       -0.10398691 -0.15927644 -0.0061571514 0.03833992
000360 44 8d 97 bd 6b 64 c2 3e 5c e6 bc 3e c2 a8 95 3e
       -0.07399991 0.37967238 0.368945 0.29230314
000370 b4 18 0d 3e 4c 51 a4 bd ce 53 64 be e3 5f 66 3b
       0.13778955 -0.08023319 -0.22297594 0.0035152368
000380 b6 bd 82 be a8 2f d2 3e 8a ce 89 3e 4a 35 83 be
       -0.25535363 0.41051984 0.2691539 -0.25626594
000390 e1 cc 84 be 58 7c 21 be ab 48 88 3e 45 df 6e 3d
       -0.2593756 -0.1577009 0.2661794 0.058318395
0003a0 9d d3 88 be fd 8c 4f be 40 a7 85 3e 8c 2f 9e 3e
       -0.26723948 -0.20268627 0.26104164 0.3089565
0003b0 72 b2 ff 3c 65 8f af bd 30 a9 95 3e f9 2f ab bd
       0.031213019 -0.08572272 0.29230642 -0.083587594
0003c0 95 17 be 3e c5 e0 b6 be 41 11 ae bd 21 f1 ca 3e
       0.37127367 -0.3571836 -0.08499385 0.39637092
0003d0 6c e2 ba 3e fe ba b5 be 11 12 ad be e6 cc 30 3e
       0.3650087 -0.35494226 -0.33802846 0.17265663
0003e0 89 51 2e be 09 eb d4 3d 7d 6a a0 3e 98 3c 97 bd
       -0.1702329 0.10396392 0.31331244 -0.07384604
0003f0 ed 26 2e 3d 09 a4 92 3e 72 39 57 bd 8c 69 a3 3c
       0.04251759 0.28640774 -0.05254502 0.01994779

predictor.0.weight f4 [104, 199]
000000 37 2e 91 bd e5 d5 bd 3c 22 97 66 bd c1 4e aa 3d
       -0.07088893 0.023173282 -0.056296475 0.08315802
000010 bf fe 59 bb ca 7b 32 3d b7 34 37 3c 05 ff 59 bd
       -0.0033263413 0.043575086 0.011182002 -0.05322172
000020 85 1d 37 3d 15 96 6a bd bf f1 e5 3b 31 30 d8 bc
       0.044705886 -0.057272036 0.007017344 -0.026390167
000030 29 c8 c6 bd 20 66 a0 bc 6c 86 be bc 43 12 ed 3c
       -0.09706146 -0.019579947 -0.023257457 0.028939372
000040 f1 d3 89 bd d8 1c 46 3c 01 0c 09 bc 02 06 1e bc
       -0.06729878 0.012091838 -0.008364678 -0.009644987
000050 04 09 04 3d 4a d5 4a 3d 3c a7 d5 3d 83 d4 9f bd
       0.03223516 0.049519815 0.10432288 -0.07804205
000060 ca c8 f6 bb 91 90 ab bd dc 50 9d 3b 4d 25 f4 bb
       -0.00753126 -0.08377183 0.004800899 -0.0074507357
000070 10 d5 31 3d 68 57 1a 3d 65 61 b9 3c 14 cb f3 3b
       0.043416083 0.037681013 0.02262945 0.0074399803
000080 50 9f d0 bc a6 8d 98 bd 68 af 12 3c a6 86 3e 3d
       -0.025466591 -0.07448892 0.008952953 0.04651513
000090 3a 82 23 3d 43 ed ec bc 82 0e 7b 3c 75 5e 75 bb
       0.039919116 -0.028921729 0.015323283 -0.0037440334
0000a0 0b 20 19 bb 42 56 06 3d ef 45 fa bc b0 68 b2 3d
       -0.0023365046 0.032797106 -0.030550925 0.08711374
0000b0 e5 b6 1e bd 99 bf 6f 3d c9 e0 55 bd 64 8f 0f bd
       -0.03874864 0.05853233 -0.052216325 -0.035048857
0000c0 e0 18 37 3d 63 e6 75 bd c7 f0 f6 3b 88 5f 0a bd
       0.044701457 -0.060034167 0.007536027 -0.033782512
0000d0 b6 c2 7e 3c 60 d2 0e 3c c9 5d 69 bd fc 73 7b bc
       0.015549352 0.0087171495 -0.056974206 -0.015347477
0000e0 2f b0 55 bd e0 5f 5a 3d 3b e9 90 bd 0d fe 36 bd
       -0.052169975 0.05331409 -0.07075735 -0.044675875
0000f0 a4 e4 2a bd bd f7 6d 3d dd 01 5b 3d a1 5e 45 bd
       -0.041721955 0.05809759 0.053468574 -0.04818595
000100 1c 01 47 3d be 82 29 3d e6 8d 4e bd 2e 37 4c bd
       0.048585042 0.04138445 -0.050428294 -0.04985731
000110 21 8d a8 bd 9e 7a 67 3d 00 a9 c1 3b 8f e1 0f bc
       -0.08230043 0.05651342 0.005910039 -0.008781805
000120 39 fa df 3b ac 71 7c bd 48 45 15 3c c0 26 93 bc
       0.006835249 -0.061631843 0.009110756 -0.017962813
000130 56 0a 8c bc 1b 31 87 bc 36 2b 9e 3d ab 8f b7 3c
       -0.017094772 -0.016502907 0.077230856 0.022407373
000140 93 fb 08 3c 93 37 f7 3c 92 55 c7 3b 93 c2 6c bb
       0.008360761 0.030177867 0.006083199 -0.0036126717
000150 0f 93 31 bd f9 d4 e0 bb ea 62 1b 3c b5 8a ba 3b
       -0.043353137 -0.006861326 0.009484032 0.0056928047
000160 02 90 70 3b d5 a3 0f 3d 09 02 8f 3c 62 c1 ce bc
       0.003670693 0.03506835 0.017457025 -0.025238696
000170 7c a0 fc 3c c5 95 94 bd 59 80 77 bd b8 a0 41 bd
       0.030838244 -0.07255129 -0.060425136 -0.047272414
000180 68 53 16 bc 20 6e 0a bd 31 8b a1 bd 28 1a 2c bd
       -0.009175159 -0.03379643 -0.07887877 -0.042017132
000190 30 57 c5 3c 12 18 17 bd 8d 0a e4 3d 31 55 74 bc
       0.024089426 -0.03688819 0.11134825 -0.014912889
0001a0 15 e9 ee 3d 31 fe 5d 3c e1 b2 19 bd fc c4 cb 3c
       0.116655506 0.0135493735 -0.037524108 0.024874203
0001b0 4d 91 18 3d c7 ec 56 bd f6 20 0b bd bd 8d 71 bd
       0.037247945 -0.052471902 -0.03396698 -0.058973063
0001c0 ed 8a b6 3c c6 fe d4 bb f9 40 44 3c e1 f6 90 3b
       0.022283042 -0.006500098 0.011978381 0.0044239615
0001d0 f7 ae ad 3d 57 84 2e 3d 35 2a c0 bc 35 51 2c 3d
       0.084806375 0.042606678 -0.023457626 0.042069633
0001e0 84 f8 02 3d 26 f0 19 3c b2 24 27 bd 99 a2 4a 3d
       0.031975284 0.009395635 -0.04080648 0.04947147
0001f0 a6 28 56 bd 33 17 8b 3d 63 18 1e 3c de 09 44 3c
       -0.05228486 0.06791534 0.009649369 0.011965243
000200 ca 1e 77 bd be 91 10 3c d8 c2 c4 bb 0d 70 f9 bc
       -0.060332097 0.00882381 -0.0060046725 -0.030448938
000210 ec a1 31 bb 25 60 2b bd 88 15 dd bc 93 d5 b3 3c
       -0.002710457 -0.041839737 -0.026987806 0.021952426
000220 73 a2 83 bb bd 9f 8f bb 40 ee 73 bc 86 3e 3e 3c
       -0.004017168 -0.004383056 -0.014888346 0.011611586
000230 1d f1 56 3d 3f bf 8a bd c2 fb 37 3b d4 b5 b6 bb
       0.052476037 -0.067747585 0.0028073643 -0.005575875
000240 c7 a7 7a 3d 6f 63 92 bd 76 d8 62 bc ea b3 85 3c
       0.06119516 -0.07147872 -0.013845554 0.016321141
000250 df c6 dc bc 7c 7a ef bc ed 40 ac bc e3 cd cf bb
       -0.026950298 -0.02923321 -0.021027053 -0.0063416823
000260 4c e6 3f 3d 64 bb de bc f7 28 33 bd 98 9d 1d bd
       0.046850488 -0.027188964 -0.04374024 -0.03848037
000270 4a 1b 2c bc 29 3e b3 bd 50 07 37 3d 6d a3 c9 3c
       -0.010504553 -0.087520905 0.044684708 0.02461406
000280 ac 2c 53 bd ef 77 db bd 3a 73 24 bd ff 3e 38 3b
       -0.051556274 -0.10716235 -0.04014895 0.002811372
000290 f1 c3 e8 bc b6 83 02 3d 46 96 58 bc a1 15 0e bd
       -0.028413745 0.03186389 -0.013219422 -0.034688596
0002a0 8a 2a b0 b9 a1 08 6b 3d 95 a2 ca bd 4b 72 5c bd
       -0.0003360103 0.057381276 -0.09894291 -0.053819936
0002b0 75 e3 55 bd 9b 90 6d bc 91 81 16 bd 46 41 cf bd
       -0.052218873 -0.014499809 -0.036744658 -0.10119872
0002c0 6c 6e 4b 3d 46 7a a3 bb d8 9b 89 3c f6 54 08 3d
       0.049665853 -0.0049889414 0.016797945 0.03328415
0002d0 92 cd c3 bc 24 9a 4f bd c8 59 fd 3b b9 76 8f 3d
       -0.023901735 -0.05068411 0.00773165 0.070050664
0002e0 f7 b6 43 3c ee 6f 1d bd 1c 71 77 3c b9 1a 0e 3d
       0.011945478 -0.038436823 0.015102651 0.034693453
0002f0 f0 a0 ac bd 41 ce 40 3d d1 49 c8 bc dc 6d f4 bd
       -0.08429134 0.0470717 -0.02444926 -0.119350165
000300 8a 94 87 3d 49 78 fd bd ea 5e da 3d c3 7a 9c bc
       0.066201285 -0.12376458 0.10662635 -0.019101506
000310 8f fe 9c 3e b7 0c 5f be e0 9d 06 3d 24 af 19 bd
       0.30662963 -0.21782194 0.032865405 -0.037520543
000320 98 16 25 3d 98 bc 7b 3b 96 23 10 bc 3a bb 93 bc
       0.04030475 0.0038411971 -0.008797547 -0.018033613
000330 68 ca af bd f8 c3 3a bd d2 f5 6c bd 9d 3a 30 bb
       -0.08583528 -0.045597047 -0.05785162 -0.0026890405
000340 82 83 76 bc 5d f2 fe 3c 32 80 b4 bc c8 1f 10 3a
       -0.015046002 0.031121427 -0.022033785 0.00054979
000350 7e 9a 41 3c 31 70 19 bc c5 64 da 3c 51 0a c1 bc
       0.011816619 -0.009365127 0.026659379 -0.02356449
000360 d1 f8 1c bd e2 db 31 3d 72 78 22 bd 80 ff a8 bc
       -0.038323227 0.043422587 -0.039665647 -0.020629644
000370 3e 3d 1d bd d0 82 26 bd 12 ee 80 bd fa b6 a3 bd
       -0.038388483 -0.040652096 -0.06295408 -0.079938844
000380 f1 64 c7 bc 0a 5d 08 bd 82 68 3e 3b 8b 8e cb 3d
       -0.024340125 -0.033291854 0.002905399 0.09939297
000390 96 21 c3 bb b7 ce 69 3c 19 45 b0 bb 9d 53 14 bd
       -0.0059549315 0.014270476 -0.005379331 -0.036212552
0003a0 f2 88 12 bd f8 5c 45 3c e2 25 0d 3d 41 34 28 bb
       -0.035775132 0.012046091 0.034459956 -0.0025665911
0003b0 54 40 03 bd 59 4b 8d bc 97 52 fb bb 13 2f 03 3b
       -0.03204377 -0.017247843 -0.0076697576 0.0020017072
0003c0 db e2 c7 3c 8c 0f 3d bc 5a 4e 80 bd 8a 7a a1 bb
       0.024400165 -0.011539351 -0.062649444 -0.004927938
0003d0 71 37 7d 3c c8 2f 9c bc cf 88 c9 bc 1f 84 74 3d
       0.015455113 -0.019065753 -0.024601368 0.059696313
0003e0 2f c5 39 3d 75 d6 a5 bd b1 6b 92 bc 23 30 45 bc
       0.045354065 -0.08097545 -0.017873617 -0.0120354025
0003f0 1d 60 02 bd cb f1 25 bc 28 4a 38 3d e5 4d 5c bc
       -0.031829942 -0.010128449 0.044992596 -0.013446306

predictor.0.bias f4 [104]
000000 07 0e 58 bd 02 68 b5 3d 80 ee 8c bc 0a f4 b1 3d
       -0.052747753 0.088577285 -0.01720357 0.08689125
000010 e9 b9 1b bd 54 b0 f3 bc 9f 39 ce 3c d5 a2 6a 3e
       -0.038019095 -0.029747166 0.02517396 0.22913678
000020 70 80 af bb 0b f3 e0 bb d6 63 5a bc d5 17 f3 3c
       -0.005355887 -0.0068649105 -0.013329467 0.02967445
000030 03 86 ef 3d fe d2 7a 3d 11 06 a5 3d 06 3d 30 3e
       0.116954826 0.061236374 0.08057798 0.17210779
000040 5d 97 91 3c c6 a0 29 bd 79 6a 98 bd 0d 7a e8 3d
       0.017772371 -0.04141309 -0.07442183 0.11351404
000050 d3 01 38 bd d2 7e bc bd 56 34 b1 bb 2c d7 21 3d
       -0.044923615 -0.092038766 -0.0054078503 0.039511845
000060 73 d0 16 3d 3b f9 39 bd dc c4 7f 3d 0c 60 2d bb
       0.036819886 -0.0454037 0.0624436 -0.0026454953
000070 cd 2f 9e bc 1c 63 3d bd 2f 86 bf 3d f5 03 14 3c
       -0.019309903 -0.046237096 0.09351765 0.009034147
000080 e5 0d c6 3d 81 6c 3d 3c e0 a2 d1 3b c1 17 a6 3c
       0.09670619 0.011561514 0.00639759 0.020274999
000090 fc 2e 05 be 84 3a 96 3d 38 96 6a bd 4b 23 73 3d
       -0.13006204 0.0733538 -0.057272166 0.05935983
0000a0 b4 96 0e bd 1c ad 87 bc ea 02 db 3c 8e ad e3 bb
       -0.03481169 -0.016562037 0.026734788 -0.0069481796
0000b0 70 79 00 bd 9f 96 25 bd 21 e9 0d 3c 73 1e 53 3b
       -0.03136581 -0.040426847 0.008661539 0.0032214194
0000c0 c1 5b 16 3e 8f 85 13 bd 96 c8 b4 3c a9 e8 ad bd
       0.14683439 -0.036016043 0.022068303 -0.08491642
0000d0 b8 49 40 bd 1a f2 9e 3c 25 b6 1c 3d af dc c7 3d
       -0.046945304 0.019402552 0.038259644 0.09758889
0000e0 10 a9 8c 3c 4d a2 dc 3b bc a7 de bd 27 c3 bf 3d
       0.017170459 0.006733215 -0.108718365 0.09363394
0000f0 04 26 d2 bc e2 03 ba 3d 76 1a 73 bd b8 c1 84 bd
       -0.025652893 0.09082772 -0.059351407 -0.064822614
000100 61 55 07 bd 29 0b 1a 3c 5f 86 f6 bc 15 07 12 3d
       -0.033040408 0.009402075 -0.03009337 0.035651285
000110 fd 20 7c 3d b5 11 8b 3c cb 00 ea 3d 15 8f 4e 3d
       0.061554898 0.016976217 0.114259325 0.050429422
000120 06 4a 74 3c 90 45 a6 3b 92 81 2e bd f2 fd c7 3c
       0.014910227 0.0050742105 -0.042604037 0.024413083
000130 b1 20 45 bd 78 7a dc bc 5a dc 90 3d 11 dc 03 bd
       -0.04812688 -0.026913866 0.07073279 -0.032192294
000140 b6 7a fb bc 11 c8 a9 3d 6c 56 6c bd 0c 9d d5 bb
       -0.030698162 0.08290113 -0.057699606 -0.0065189656
000150 be 85 b7 3d 0c 3a d7 bd ea 72 74 3d e7 b3 91 3c
       0.08961056 -0.105091184 0.059679903 0.01778598
000160 28 1b 2d ba 95 30 49 3a 96 13 8f bc a7 89 8f bc
       -0.0006603473 0.0007674781 -0.017465394 -0.017521692
000170 75 4a b9 3d fc 6e 10 3d da df 49 3d e6 aa b3 bd
       0.09047405 0.035262093 0.049285747 -0.08772831
000180 3e 13 e4 3c 89 a3 54 3b 67 c6 38 3c 9e 6e 23 bd
       0.027841207 0.0032446107 0.011277772 -0.039900415
000190 35 58 fc 3d 2e 3e 56 bd e1 0d 07 3d 0a 80 4d bd
       0.12321512 -0.052305393 0.03297222 -0.050170936

predictor.2.weight f4 [8, 104]
000000 58 20 ad 3c e6 79 9c 3e 31 11 94 bd a0 73 69 be
       0.021133587 0.3056175 -0.072298415 -0.22798014
000010 3f 8c 8d 3d 0a d1 49 bd e7 5e 49 bc a5 2e 9a 3d
       0.069115154 -0.04927162 -0.012290693 0.07528428
000020 e3 d0 b3 3d 08 67 c0 3d 40 5b b3 bd b7 70 63 bb
       0.08780076 0.09394652 -0.08757639 -0.0034704634
000030 1c b2 1b bd 7d 53 d8 3d b3 c1 96 3d 37 eb cf 3e
       -0.038011655 0.10562799 0.07361164 0.40609142
000040 66 db c6 bd 5b 61 c4 3c c8 b7 11 3f 9f b1 31 3d
       -0.09709816 0.023972204 0.5692105 0.043382283
000050 07 bd dc bd fb 1d 89 3d 7d 16 6d bd 8f fb cd bc
       -0.107782416 0.066951714 -0.057882775 -0.025144367
000060 d9 ca 0d be 09 d4 64 3d fd 37 14 bd b9 40 81 3a
       -0.13846911 0.055866275 -0.036186207 0.0009861208
000070 41 69 a0 bd 13 f8 52 bd 3f a0 57 3d 58 76 6f bc
       -0.078325756 -0.051506113 0.052643057 -0.014615618
000080 e3 0e 84 3b 0e 5a 37 bc 3c 0f b5 3d 38 b0 d0 3a
       0.004030095 -0.011190904 0.08840796 0.0015921658
000090 50 9d 19 3d 1d ec 45 bd 6e 82 e6 3c 5b d6 0b bf
       0.03750354 -0.04832088 0.028138366 -0.54623955
0000a0 37 19 70 3d 94 11 b2 3d 41 d5 02 bd bd db bd bd
       0.058617797 0.08694759 -0.031941656 -0.092704274
0000b0 1b 5b fa 3e cd 5e 38 3d e7 cc 73 3b c8 9b ba bd
       0.48897633 0.045012284 0.0037200989 -0.09111744
0000c0 36 a3 41 3e 8f 67 e8 bc 61 22 38 3e f9 24 82 bd
       0.18909916 -0.028369693 0.17981865 -0.06354708
0000d0 50 05 11 3d 36 ba 01 3e f5 02 9a 3b 08 e2 e4 3c
       0.035405457 0.1266869 0.0047000595 0.027939811
0000e0 da 16 cb bd 6b 78 44 bd 34 d1 4f bd 3f 2a b7 ba
       -0.09916468 -0.047966402 -0.05073662 -0.0013974382
0000f0 7b d9 3f 3d 90 31 26 3c 92 a3 49 bd e7 ef 0d bf
       0.046838265 0.010143653 -0.04922826 -0.55444187
000100 8e 5d c9 bd 27 f0 c9 bc 47 5f 62 bd 60 fd c8 bd
       -0.09832297 -0.024650646 -0.055266645 -0.098139524
000110 9b d7 ad 3d 8a 6e 96 bd e2 2a 96 3f bb 42 ca bc
       0.08488389 -0.073453024 1.1731837 -0.024690023
000120 23 0e 41 be 09 9e ee 3c 9d bf fa bd 82 d9 c5 bd
       -0.18853049 0.029128091 -0.122435786 -0.09660627
000130 b6 c6 86 3c f6 a2 f5 3d df 3d 0c be 87 3c a6 bd
       0.016452175 0.11993973 -0.13695477 -0.081170134
000140 0b dd 24 bc b8 2b b5 bc 45 4a 3a bb c7 70 ba 3d
       -0.010062466 -0.022115573 -0.0028425616 0.09103542
000150 c4 f1 2d 3d 38 c3 27 bc ec 31 9c bd 12 a3 c5 bc
       0.042466894 -0.010239415 -0.07626709 -0.02412561
000160 78 6a f3 3c 04 5d f7 3d a7 05 f4 3b f5 bb c3 bd
       0.029713854 0.12078288 0.007446963 -0.09557334
000170 94 9e 11 bd 38 cd de bc da f2 cb bc 1e 6d 36 3f
       -0.035551623 -0.027197465 -0.024896074 0.7126025
000180 b7 aa 9d 3d 82 75 af bc a9 ee 38 bf 01 66 e4 3d
       0.07698577 -0.021418337 -0.72239166 0.11152268
000190 ba 3d bb 3d da 54 c6 3d 57 8f a0 3d 01 29 89 3c
       0.09142633 0.09684153 0.0783984 0.016743185
0001a0 71 8f e7 3d c0 f1 da 3e 80 72 b6 bd d1 0c ce be
       0.11306656 0.42762566 -0.08908558 -0.40244153
0001b0 b3 2e 78 3d de 3e cf bd ea 10 ca bd 48 6a 8b 3e
       0.06059141 -0.10119413 -0.09866507 0.27229524
0001c0 c8 3a 1f 3d cb 31 86 3d 3a b1 5f bd 36 a7 ae bd
       0.038874418 0.06552466 -0.054612376 -0.08527987
0001d0 b8 ce 1a 3d 93 e4 a6 3d e9 cf 68 3c 40 fd 35 3f
       0.0377948 0.08149066 0.014209726 0.71089554
0001e0 99 bc b3 bc 85 d5 9d bd b2 54 8d 3f d3 5d cf 3d
       -0.021940516 -0.07706741 1.1041472 0.101253174
0001f0 b9 9e c6 bd 05 f4 2d 3e 7b 63 b2 bd 6d d1 16 bd
       -0.09698243 0.16987617 -0.08710381 -0.036820818
000200 45 98 87 be 9c e0 f0 3d 90 70 d3 3b bb 95 da 3d
       -0.2648336 0.11761591 0.0064526275 0.1067309
000210 ef 46 64 ba 35 04 39 3d b8 f0 63 3d d5 6e fa bd
       -0.00087080797 0.045170028 0.05564949 -0.12228171
000220 aa 25 cd 3d 7e 69 4b bd 6a 38 0f 3e 9e 1b ae bc
       0.100169495 -0.049661152 0.13986364 -0.021253403
000230 a4 52 06 3e 11 3d 9c bd f8 09 ee bd 0e 66 60 bf
       0.13117462 -0.07628835 -0.11622995 -0.87655723
000240 c8 ec 98 3d fb 08 e2 bb c1 18 b4 bd cb df d2 bc
       0.074670374 -0.006898043 -0.08793784 -0.025741478
000250 bd 52 56 3f f6 3b bd 39 b6 0e 95 3c 69 5d 62 bd
       0.8372 0.00036093564 0.018195491 -0.055264864
000260 c8 58 b4 3e c4 8c c0 bc 40 23 b6 3d fe f7 98 3d
       0.35223985 -0.023504622 0.08893442 0.07469176
000270 f9 62 b0 3d 46 d0 03 3e 55 66 02 3e 7a ac 68 3d
       0.086126275 0.12872419 0.12734349 0.05680511
000280 3b 9e a4 bc d2 90 c0 bd 79 d3 67 be 0c 9a 01 3c
       -0.020094981 -0.09402622 -0.22639264 0.007910263
000290 61 64 04 bc b8 af 50 bd 6d 42 eb 3c cf 05 70 bf
       -0.008080573 -0.05094883 0.028718198 -0.93758863
0002a0 ce dc 53 be 0c 04 c1 bc a9 78 84 bc cc d7 88 be
       -0.20689699 -0.0235615 -0.016170816 -0.2672714
0002b0 5d b6 0d bd 8a 20 ea bb 46 a0 09 40 36 48 54 bd
       -0.034597743 -0.0071449922 2.1504073 -0.05182668
0002c0 63 dc 6d be ab b9 02 3e 30 7a ab be 78 95 a4 bd
       -0.23228602 0.12766139 -0.3349166 -0.080363214
0002d0 c2 dc 87 bc 5c 9a 86 3e bb 5b e0 be a5 6c dc bc
       -0.016584758 0.26289642 -0.43819985 -0.026907274
0002e0 d1 3c a3 bb 84 c7 45 3c b6 d3 af 3d 48 b7 cb 3d
       -0.004981615 0.012071494 0.085853025 0.099470675
0002f0 8d 29 c7 3d 75 c4 2d be 63 c6 ef bd 10 8f d5 bd
       0.09724722 -0.16969474 -0.11707761 -0.10427678
000300 b8 06 e4 3c 2f 5d d0 3d cc d1 74 3c ed e8 bc bd
       0.027835235 0.10174023 0.014942598 -0.092241146
000310 fe 09 5d bd f9 09 c4 bc 43 4d 0b 3d 0d 19 8c 3f
       -0.053964607 -0.023930537 0.03400923 1.0945145
000320 8f c8 a6 3d 6e b1 90 3d 15 3e a6 bf 24 29 14 3e
       0.08143722 0.07065092 -1.2987696 0.14468819
000330 c5 b2 8e 3d 74 a5 f7 3d 91 b8 b9 3d 58 9b a1 bd
       0.06967691 0.120921046 0.090684064 -0.078909576
000340 7b 23 d1 3d 5c f8 00 3f 40 ff 87 bd ca 45 13 bf
       0.102118455 0.50378966 -0.06640482 -0.57528365
000350 48 2a 24 3e 47 9a 76 bd 75 86 15 3d 12 f3 ae 3e
       0.16031754 -0.060205724 0.03650518 0.34169823
000360 b2 03 39 bd 61 3b da 3d fd 63 1d be 80 c2 1b 3b
       -0.04516954 0.10655857 -0.15370174 0.0023767054
000370 ad 82 d2 3d 11 0a 12 3e 13 f5 07 3e 97 21 5a 3f
       0.10278831 0.14261653 0.13277082 0.85207504
000380 90 89 c5 bd 07 4a 8a bd 68 d7 ad 3f 7b 69 92 bc
       -0.096453786 -0.06752401 1.3581362 -0.017872563
000390 c2 4f ba 3c 69 a5 70 3e 52 89 05 be a0 37 c7 bd
       0.02274311 0.23500599 -0.13040665 -0.097274065
0003a0 29 dc a9 be ec 9f 7e 3e 4c 0d 73 3d 91 33 08 3d
       -0.3317578 0.24865693 0.059338853 0.033252303
0003b0 b4 c0 44 bd 74 9a 99 bd 29 33 c7 bb 0b c2 06 be
       -0.04803534 -0.07500163 -0.006079097 -0.13159959
0003c0 44 1f cb 3c d7 26 a8 bd 4b 71 16 3e e0 a1 10 3e
       0.024795182 -0.08210533 0.14691655 0.1412425
0003d0 a9 9e 61 3e ec c3 93 3c f4 ff 1e bd 58 5f 88 bf
       0.2203318 0.018037759 -0.038818315 -1.0654097
0003e0 e7 ef b2 3d 02 fd d5 bd fe cd dc bd 7c 58 94 bd
       0.08737164 -0.10448648 -0.107814774 -0.072434396
0003f0 a5 7b 8d 3f 45 bc 00 be 33 5f e3 bd 85 ab c4 bd
       1.1053358 -0.12571819 -0.11102142 -0.09603027

predictor.2.bias f4 [8]
000000 2b 4a 1c 3d 3b c0 76 3d 1b 1c 39 3c 3f 52 8b 3d
       0.03815667 0.06024192 0.011298205 0.068027966
000010 18 8c 9e 3b 42 af 49 3d 6c c1 c3 3c 68 e9 f2 bb
       0.004838478 0.049239404 0.023895942 -0.007413078

classifier.0.weight f4 [101, 199]
000000 b7 c0 a7 3d cb 42 53 3e 15 b0 04 bc 47 45 2e bd
       0.08191054 0.20630948 -0.008098622 -0.042546537
000010 47 a0 44 bd e9 68 ce 3d 35 8b ea bd 51 56 c3 bd
       -0.048004415 0.10078604 -0.11452333 -0.09537948
000020 09 03 93 3d 13 b5 1d be 72 36 41 bc f6 dd 00 be
       0.07178313 -0.15401106 -0.011792766 -0.12584671
000030 ab 6d 66 3d 5f 9c 7f be 99 19 48 3d f7 94 b3 bc
       0.05625693 -0.24961995 0.048852537 -0.021921618
000040 e6 21 f1 bc ea a6 d1 bd 41 78 54 3d 02 51 43 be
       -0.02943511 -0.102369145 0.051872496 -0.19073871
000050 ae 68 eb bd 33 97 71 3d ae 1d e7 bd 85 09 5b 3d
       -0.114945754 0.058982085 -0.11284958 0.053475875
000060 f6 e4 0d be a0 94 1b 3d 0d a0 28 be 53 c0 c9 bc
       -0.13856873 0.037983537 -0.16467305 -0.02462784
000070 5b 4f 1c be 93 8a 03 3d 0c d2 76 be 33 71 92 3d
       -0.15264647 0.032114577 -0.24103564 0.07150497
000080 2a e3 7b be 05 f3 bd bc 76 03 af bd d6 c9 dd bd
       -0.24598375 -0.02318717 -0.08545582 -0.10829513
000090 ce 34 5d bd 50 ff c2 ba 8d a1 6b bd 98 0b f2 bc
       -0.054005437 -0.0014877114 -0.057527114 -0.029546544
0000a0 e4 07 21 bd 1b f6 c1 bd c5 c0 f6 3c 5d 12 59 be
       -0.039314166 -0.09470769 0.030121217 -0.21198411
0000b0 8b fd fd 3c 8f 5d 42 be 70 f1 2b bd 88 62 49 be
       0.031004688 -0.18981002 -0.0419783 -0.19666493
0000c0 aa 3b 8c bd b6 92 48 be ab 88 d8 bd 1c 9e 2f bd
       -0.068473175 -0.19587216 -0.10572942 -0.042875394
0000d0 b8 73 45 bd 96 ea aa bd 34 73 9d 3c 30 dd ca 39
       -0.04820606 -0.08345525 0.019219972 0.0003869324
0000e0 40 99 1a bd 44 c0 a1 3d 6c f8 7c be 25 7e dc 3d
       -0.037743807 0.07898 -0.2470414 0.10766248
0000f0 a8 8c 18 be da f0 09 3d a6 06 94 be d7 49 85 3c
       -0.14897406 0.03367696 -0.28911322 0.016270561
000100 c0 b8 2a be ae 36 9c bc e3 e4 f9 bd 99 f4 93 bc
       -0.16672039 -0.019069042 -0.1220186 -0.01806097
000110 68 53 68 bd b2 ae f1 bd f4 f0 02 3d bf 26 07 3d
       -0.056720167 -0.118008986 0.031968072 0.032995936
000120 3b 9e 11 3c 41 d6 0b bc c7 98 9c bc a1 e0 75 bd
       0.008887823 -0.008534969 -0.019115819 -0.060028676
000130 5a 9f ab 3a 3e a9 84 be 76 23 85 3d 74 f4 36 be
       0.0013093755 -0.25910372 0.06500904 -0.17866689
000140 87 2d 2a bd e2 1d 66 be ed 5a 0d 3d 24 5b 59 be
       -0.041547325 -0.22472337 0.03451054 -0.21226174
000150 50 bd 98 bb 13 01 d4 bd 71 cc c0 bd f1 6d dc 3c
       -0.0046612397 -0.103517674 -0.09413994 0.026907893
000160 28 52 4d be a0 4b ae 3d a9 fd 81 be a5 cc b8 3d
       -0.20050871 0.08510518 -0.2538884 0.09023408
000170 c4 fa 98 be aa fb 04 3e 0e 56 83 be 3e 45 82 3c
       -0.2987882 0.12986627 -0.25651592 0.015902158
000180 a9 27 79 be ac 0a 83 bd 7d 1e 32 be 73 ab 6d 3c
       -0.24331535 -0.0639852 -0.17394443 0.014506209
000190 4b 72 1f be 4e 6e 73 bd 9a 48 48 be 59 23 b4 3b
       -0.15570943 -0.059431367 -0.19558945 0.005497378
0001a0 1d 55 ca bd ab eb 31 3d b6 de c0 bd d7 dc 95 bc
       -0.09879515 0.04343764 -0.09417479 -0.018293781
0001b0 e4 d0 11 be b9 a7 c5 bd f1 63 0a 3c 97 e3 cc bc
       -0.14239842 -0.09651131 0.008446679 -0.025010867
0001c0 9d e5 8c bd b3 d6 e2 bd 70 96 2d be 30 c6 a0 3c
       -0.06879733 -0.11076107 -0.16951919 0.019625753
0001d0 dc 54 30 be ed c3 c5 bc dd e0 13 be e7 12 05 3e
       -0.17219871 -0.024141276 -0.14441247 0.12995492
0001e0 0d f8 c2 bd 52 8a 99 bd bc 90 af bd 40 27 e2 bc
       -0.09519968 -0.07497086 -0.08572528 -0.027606606
0001f0 5a 5d 1c be 72 f0 2d bd 9a 9c b4 bb 5a 1b bc bd
       -0.15269986 -0.042465635 -0.0055118324 -0.091849044
000200 a1 76 12 be 69 e9 b0 bd da 15 21 bc 2d 17 b4 bc
       -0.14303066 -0.086382695 -0.00983187 -0.021983707
000210 e1 8b 0a be 38 3a 7e 3d e9 46 ff bd e8 5f 88 bd
       -0.13529922 0.06206724 -0.12464697 -0.06658918
000220 c1 40 5b 3c c7 2e 17 bd 66 6a f8 bd 1b d8 b8 bd
       0.013382138 -0.036909845 -0.12129669 -0.09025594
000230 a6 df 9b bd f7 6e 0c be e6 98 a7 bd e2 2f f2 bd
       -0.07611017 -0.13714205 -0.0818346 -0.11825539
000240 63 d0 24 be 97 cd 31 3d 10 74 21 be fc ac 0d be
       -0.16095118 0.043408956 -0.1576693 -0.1383552
000250 0d a0 15 be fe a7 21 3d c1 72 ec bd 39 22 84 bd
       -0.14611836 0.03946685 -0.11545325 -0.0645184
000260 79 38 37 bd 0f 10 3e bd cd 6e 94 bd b0 4e 3f 3d
       -0.04473159 -0.046402033 -0.07247696 0.0467059
000270 73 ca 43 be e7 4d ee 3c de 12 81 bc 92 ac 1d bd
       -0.19120197 0.029089881 -0.015756067 -0.038494654
000280 85 2c 35 be ee aa 28 be bd 12 95 bd d1 62 64 bd
       -0.17692764 -0.16471455 -0.07278965 -0.0557583
000290 c8 54 cd bd 77 cb 9f bd 7b c6 0e be a3 7f ba bd
       -0.10025936 -0.0780248 -0.13942902 -0.09106376
0002a0 b5 f7 12 bd da ac 1d be e6 d4 ed 3b 43 d0 9c bd
       -0.035880763 -0.15397969 0.0072580455 -0.0765691
0002b0 63 7d 90 bd 59 bf cf bc d7 0e f0 bd b3 7e c8 3c
       -0.070551656 -0.025359796 -0.117215805 0.024474477
0002c0 3c fd 24 be 82 7f ec 3c af 92 cb bd a2 a3 0e 3e
       -0.16112226 0.028869394 -0.09940087 0.13929608
0002d0 04 8a 47 be f9 a3 a7 3d 3d 15 4e be 9c a4 7c 3d
       -0.19486243 0.08185572 -0.2012529 0.06168042
0002e0 ca 74 41 be c5 68 a7 3d a3 ef 05 be 8a 2a 93 3d
       -0.18892208 0.0817428 -0.13079695 0.07185848
0002f0 42 30 01 be 0d a8 03 3d 37 c1 5c be be 78 bd bc
       -0.12616065 0.032142688 -0.2155808 -0.023128863
000300 45 4e df bd 96 f8 e7 bb 58 2a 07 be 33 55 22 3e
       -0.109036006 -0.0070791943 -0.13199747 0.15852813
000310 4e 4d 4b be e7 de c3 3d 5f cd 69 3d 48 21 35 3b
       -0.19853708 0.095639996 0.057080623 0.0027638245
000320 00 3e 26 3e fd 5b e5 bd 95 62 a7 bb 0f d3 2b be
       0.16234589 -0.11199186 -0.0051081874 -0.16779731
000330 8c 19 d3 3d 04 a5 3e be 9b 3c a9 3d af aa 86 be
       0.10307607 -0.18617636 0.08263513 -0.26302096
000340 8d b7 b0 3d 8b b2 a7 be ec 21 f1 3c d1 66 24 be
       0.086287595 -0.32753405 0.02943512 -0.16054846
000350 0f 1e 4d 3d 85 9d 55 bb 56 08 b7 bd 1d 8e 17 3d
       0.050077494 -0.003259511 -0.08937137 0.037000764
000360 97 cd 84 bd 47 b6 7c bd 97 3d f9 bd c0 76 e5 bc
       -0.06484526 -0.06169727 -0.121699505 -0.028010726
000370 1d 21 60 bd 4d c1 3a bc 4c a9 69 bd 9a 4e 93 bd
       -0.05471908 -0.011398626 -0.05704622 -0.071927264
000380 a9 df 5e bd 5b e5 b1 3d 18 8f 81 bd e0 38 ca 3d
       -0.054412518 0.08686324 -0.06326121 0.09874129
000390 a1 ef 96 bc f6 b9 df 3c af aa 03 bc 91 bf fe 3d
       -0.01842481 0.027310353 -0.0080363 0.12438882
0003a0 b3 45 cc bd 67 da 9d 3d 70 c5 59 bd 3e 07 06 3d
       -0.099742316 0.077076726 -0.053166807 0.03272175
0003b0 63 64 07 be e3 32 12 3c 69 2a 2a be 45 37 28 3d
       -0.13221888 0.008923265 -0.1661774 0.041068334
0003c0 db e1 23 be 05 6c e6 3c c2 c9 1f be f1 3b 4f bd
       -0.16004126 0.02812768 -0.15604308 -0.050594274
0003d0 a0 0b 31 be 26 5e 27 3d 12 77 cb bd b5 41 4d bd
       -0.17289591 0.04086127 -0.0993482 -0.05011149
0003e0 19 af 9b bc 60 97 82 bd 23 bb 24 bd b7 8c 45 be
       -0.019004392 -0.06376529 -0.04021753 -0.1929196
0003f0 b4 e9 89 bd 21 5b ad bc 70 29 a3 bd 48 50 08 be
       -0.067340285 -0.021161618 -0.07966888 -0.13311875

classifier.0.bias f4 [101]
000000 ea 90 82 3f 97 23 74 3f 95 3c 2a bf f9 7a 43 bf
       1.0200474 0.95366806 -0.6649869 -0.76359516
000010 2e 28 3b bf ad 26 42 3f 0b 3e 45 bf 90 31 44 bf
       -0.73108184 0.75840265 -0.77047795 -0.76638126
000020 a9 d3 2e bf 7c 1a 5a 3f a0 50 57 3f 7f 8f 56 bf
       -0.6829172 0.8519666 0.841074 -0.8381271
000030 d1 c1 42 bf 35 87 4c bf e5 6b 4b bf 73 8e 23 bf
       -0.7607699 -0.7989381 -0.7946151 -0.63889235
000040 cb 5a 36 bf d1 5a 33 bf cc 4e 73 3f 25 0a 69 bf
       -0.7123229 -0.7006045 0.9504211 -0.91031104
000050 05 c5 71 3f 31 95 60 3f b7 0c 35 bf 41 f8 5b 3f
       0.9444125 0.8772765 -0.70722526 0.8592568
000060 ba 9e 4b bf ba c8 5e 3f 49 0f 47 3f 64 3e 5a 3f
       -0.7953907 0.87025034 0.777577 0.8525145
000070 49 92 40 bf 85 33 4c bf de 66 58 bf dd 8e 5d 3f
       -0.75223213 -0.7976611 -0.8453196 0.8654612
000080 3c 5e 44 3f c9 2b 49 bf df f2 42 bf 0d 20 35 bf
       0.7670629 -0.78582436 -0.7615184 -0.7075203
000090 2b db 62 3f 83 21 3d bf 04 6f 45 bf 7e cc 36 bf
       0.88615674 -0.7387926 -0.7712252 -0.7140578
0000a0 45 28 5f bf 09 7c 33 bf ba 9c 5d bf ef 25 6c 3f
       -0.8717082 -0.7011114 -0.8656727 0.9224538
0000b0 cf 24 71 3f 67 7c 96 3f f6 10 56 bf a5 28 36 bf
       0.9419679 1.1756715 -0.8361963 -0.7115577
0000c0 d7 22 38 bf d4 28 2f bf 2f 91 49 3f 8e 0e 59 3f
       -0.7192816 -0.68421674 0.7873716 0.84787834
0000d0 16 1f 56 3f a9 8e 73 3f 74 10 45 bf 3e f9 63 bf
       0.83641183 0.9513956 -0.7697823 -0.8905219
0000e0 5d 21 55 bf 91 67 3d bf 27 0c 61 3f 9f 85 3b bf
       -0.83254033 -0.73986155 0.8790917 -0.73250765
0000f0 b2 1b 44 3f c0 4b 61 3f a8 e5 4d 3f 21 f3 5d 3f
       0.7660476 0.8800621 0.8042855 0.8669911
000100 07 f4 62 3f 9d 8f 60 3f bd c5 42 3f 1d 93 3f 3f
       0.88653606 0.87719136 0.76082975 0.7483385
000110 a2 4f 5f 3f 4d b6 53 3f e1 86 29 bf a6 81 50 bf
       0.87230885 0.82700044 -0.66221434 -0.8144783
000120 d3 c7 4a bf e5 f2 41 bf e0 4e 3d 3f fd 3e 45 3f
       -0.7921116 -0.7576125 0.7394848 0.7704924
000130 94 d7 78 bf 57 b3 3e bf 6b 38 51 bf a0 a7 4a 3f
       -0.97203946 -0.744924 -0.8172671 0.79162025
000140 22 fd 64 3f 5c 02 5c 3f 1e 3e 5a 3f 3b b1 68 3f
       0.8944875 0.859411 0.85251033 0.9089543
000150 8e fb 44 bf 94 c6 37 bf 9e 65 43 bf 50 66 40 bf
       -0.7694634 -0.7178738 -0.7632693 -0.75156116
000160 85 d9 3a bf a3 d0 6e 3f 20 b0 83 3f 9a ff 5b bf
       -0.7298816 0.93287104 1.0288124 -0.8593689
000170 3f d8 4b 3f 3a f2 49 3f 0e 63 66 bf a0 a1 36 bf
       0.7962684 0.78885233 -0.89994895 -0.7134037
000180 86 cb 78 3f 40 77 67 3f 30 a7 6d 3f 11 6f 46 bf
       0.9718555 0.90416336 0.9283323 -0.77513224
000190 4f 51 33 3f
       0.7004594
