Trained_Models_DMCDD/0/ConvMLP_200.pth (torch, 163447 bytes, 5 tensors)

encoder.0.weight f4 [4, 8, 3]
-0.10774541 -0.15940216 -0.09094185 0.026226217 0.052746575 -0.060142167 -0.03688585 -0.088074595
-0.084370315 -0.027258039 -0.09495374 0.08148796 0.05745247 0.01871251 0.088641904 -0.11725323
-0.13939333 -0.009318461 -0.19296601 0.06879516 0.15490793 -0.017676994 -0.07619734 -0.074168354
-0.11484343 -0.10377241 0.029164772 0.11084505 0.1474256 -0.06499808 -0.0011727877 0.20166059
-0.24882385 0.10833269 0.06600606 0.013518678 0.05449394 0.07404228 -0.08558176 -0.049376566
-0.07755078 0.10992467 -0.051276684 -0.26948494 0.22864857 -0.09459112 -0.061727125 -0.012443973
-0.07630371 -0.11187585 -0.090014525 -0.083844535 -0.13023002 -0.1716774 -0.17011327 -0.123304985
-0.024517503 0.0017058213 -0.1938956 0.0019231971 -0.020853622 -0.09443497 0.11040622 -0.03421996
0.0071887565 0.058082726 -0.14107719 0.10827952 0.115045086 -0.08578739 -0.05804814 0.02715212
-0.048775632 -0.025388971 0.027305502 -0.0014965119 0.005508496 -0.09874484 -0.049710162 0.021460917
-0.097683415 0.09178639 0.06549471 -0.16519676 -0.012673907 -0.0137781175 -0.033668336 0.06405735
0.0670966 0.1070243 0.022204198 -0.04415218 0.06131085 -0.089291014 -0.0808632 0.19843182
00000000: a0a9 dcbd 523a 23be b83f babd 5dd8 d63c
00000010: cb0c 583d a257 76bd 9e15 17bd 7460 b4bd
00000020: 58ca acbd 404c dfbc 1b77 c2bd 29e3 a63d
00000030: 4853 6b3d fa4a 993c e389 b53d 7622 f0bd
00000040: 20bd 0ebe 75ac 18bc e298 45be 7ae4 8c3d
00000050: 2fa0 1e3e 58cf 90bc 5a0d 9cbd 94e5 97bd
00000060: 0833 ebbd a186 d4bd f6ea ee3c bb02 e33d
00000070: bdf6 163e b71d 85bd 3ab8 99ba 1d80 4e3e
00000080: aecb 7ebe 88dd dd3d 2f2e 873d 727d 5d3c
00000090: 0a35 5f3d 7ba3 973d 7d45 afbd 153f 4abd
000000a0: f1d2 9ebd 2f20 e13d 8007 52bd eef9 89be
000000b0: da22 6a3e fdb8 c1bd 95d5 7cbd cee1 4bbc
000000c0: 1f45 9cbd 2a1f e5bd 8959 b8bd afb6 abbd
000000d0: 055b 05be 33cc 2fbe 2c32 2ebe 5387 fcbd
000000e0: eed8 c8bc dd95 df3a 918c 46be c913 fc3a
000000f0: 37d5 aabc 1f67 c1bd a81c e23d 3b2a 0cbd
00000100: a98f eb3b 27e8 6d3d 8a76 10be a7c1 dd3d
00000110: c29c eb3d 4db1 afbd e3c3 6dbd 1f6e de3c
00000120: f5c8 47bd 88fc cfbc caaf df3c 9b26 c4ba
00000130: 9d80 b43b bc3a cabd e29c 4bbd cece af3c
00000140: 3e0e c8bd 81fa bb3d 1722 863d 5729 29be
00000150: 38a6 4fbc 9dbd 61bc cfe7 09bd 8030 833d
00000160: f169 893d 8e2f db3d 94e5 b53c ebd8 34bd
00000170: 1621 7b3d 35de b6bd 9b9b a5bd b631 4b3e

encoder.0.bias f4 [4]
-0.022765493 -0.17565459 -0.0333761 0.032408953
00000000: b37e babc ccde 33be 61b5 08bd 40bf 043d

encoder.2.weight f4 [1, 4, 3]
-0.00021896168 -0.00035150466 0.004816758 0.017131548 -0.006282323 -0.028879689 0.0001349232 0.00022497297
-0.0032806017 -0.0012474253 -0.00031733187 0.0012117523
00000000: 1499 65b9 284a b8b9 e5d5 9d3b 7657 8c3c
00000010: f2db cdbb 1995 ecbc 2c7a 0d39 b9e6 6b39
00000020: 5dff 56bb a680 a3ba 905f a6b9 a9d3 9e3a

mapping.weight f4 [200, 200]
0.02638013 -0.03389394 0.06471149 0.0045921803 -0.049227227 0.031074993 0.03860321 0.055955656
-0.059298586 0.012690194 0.0048842803 0.047147878 -0.018276509 0.061616056 0.018030502 0.0051193163
-0.020940248 -0.013204936 0.02558846 -0.0075379163 -0.062929735 -0.06315785 0.05700978 -0.017616969
0.061790623 -0.050995253 0.017519474 0.038277283 0.048848167 -0.031932883 0.024662353 -0.03583267
0.054881595 -0.044259004 -0.05302901 0.026621856 0.03876844 0.05788996 0.05152619 -0.031830236
-0.008362416 -0.0372957 -0.021912873 0.030513383 -0.022511814 0.0319497 0.057737507 0.030383147
-0.06796926 0.060072713 -0.036919486 -0.020997763 -0.005676724 0.048171185 0.054514058 -0.011528589
-0.04295173 0.017050013 0.06895848 -0.033943083 -0.009236459 0.04744988 0.037883967 0.068766184
0.032183766 -0.02144871 -0.035900418 -0.02176293 0.02814094 0.020012692 0.064646594 -0.035345607
-0.056415386 -0.055087812 0.06978593 0.06799085 -0.03722123 0.035645664 -0.021791205 0.0037747622
-0.035584368 0.05630926 -0.06276455 -0.0141569 -0.036595367 0.06956319 -0.043166474 0.042013556
0.024469838 0.013587423 -0.042789903 0.057074107 -0.014251217 -0.053808656 0.027994774 -0.045026258
0.0020276532 -0.03935506 -0.03592573 0.0107050985 0.031530052 0.0678371 -0.025582809 0.014639482
0.01655335 -0.04825549 -0.06350041 -0.06646456 0.061287187 0.05530552 0.055318348 0.0315637
-0.028349977 0.018288009 -0.06643918 -0.019847441 0.0120122805 0.05134684 0.0128039345 -0.00074110925
-0.0693092 0.027654767 -0.030827824 -0.054569516 -0.0250036 0.0065108314 -0.042957798 0.029837698
0.0015518591 0.029295817 0.011735223 0.00014201552 -0.004792735 -0.04848001 0.0488965 -0.047698822
0.016263649 0.03934066 0.019676134 -0.02372282 0.030595638 0.054064907 0.007872552 0.058916546
-0.044656713 -0.05280912 -0.036598496 0.0058314353 0.0007824749 -0.030302446 0.036535643 0.05305025
-0.015987743 -0.010622811 -0.04718072 0.05989065 -0.04596725 0.009545945 -0.002459094 -0.044727147
-0.035275564 -0.010540076 0.012561657 -0.0057221577 -0.043323472 -0.0329071 -0.021676447 -0.066395916
0.001222916 -0.0662206 0.04528126 -0.028053146 0.016886108 0.035479367 -0.04915329 0.06523896
0.04729043 -0.010062374 -0.02860833 0.0076237395 0.052748404 0.058651693 0.023752674 -0.06769691
-0.054467563 0.03832823 -0.042114973 0.04936713 0.065807454 -0.036245044 0.037866578 0.02680979
-0.045524962 0.015753426 0.0663305 -0.04891412 -0.064447075 -0.010998625 -0.063159384 -0.044213124
-0.048709124 3.593415e-05 0.044896476 0.00018227845 0.06757917 -0.06500532 0.017887734 -0.0300854
-0.02141748 0.0009107739 0.04190866 -0.016397577 0.03287986 -0.039857484 -0.06252137 -0.06688076
-0.038873836 0.022330582 -0.067969576 0.0678447 0.0654367 0.05285611 0.033938773 -0.014648113
0.029651731 0.0592634 -0.008316964 -0.060545705 0.06939674 -0.065329716 -0.027210724 -0.03724636
-0.0074063763 5.1125884e-05 0.029509597 -0.045417786 -0.03981575 0.046893008 0.048399173 0.05160086
0.053725213 -0.022008564 -0.023185588 -0.017237816 0.034525722 0.052313104 -0.061016712 0.017021552
-0.059653446 -0.060517557 -0.024098836 -0.009155247 -0.027530499 0.021136783 0.026828617 0.044695318
00000000: 241b d83c 5fd4 0abd 7587 843d 007a 963b
00000010: 7da2 49bd fc90 fe3c 661e 1e3d c231 653d
00000020: 13e3 72bd 88ea 4f3c 500c a03b 221e 413d
00000030: 9eb8 95bc 1e61 7c3d b4b4 933c f0bf a73b
00000040: e28a abbc 8459 58bc e49e d13c a000 f7bb
00000050: 4ee1 80bd e758 81bd 1683 693d 7651 90bc
00000060: 2a18 7d3d 66e0 50bd 0085 8f3c a4c8 1c3d
00000070: 0415 483d 0ecc 02bd b408 ca3c 47c5 12bd
00000080: 86cb 603d ee48 35bd f234 59bd 1416 da3c
00000090: a8cb 1e3d 061e 6d3d 200d 533d 6c60 02bd
000000a0: 8402 09bc 60c3 18bd a082 b3bc 34f7 f93c
000000b0: b26a b8bc b0dd 023d 2a7e 6c3d 14e6 f83c
000000c0: 7833 8bbd ce0e 763d e338 17bd 8003 acbc
000000d0: d003 babb 264f 453d 224a 5f3d 68e2 3cbc
000000e0: 27ee 2fbd 78ac 8b3c 1b3a 8d3d e707 0bbd
000000f0: 8454 17bc ce5a 423d 382c 1b3d 49d5 8c3d
00000100: 20d3 033d 34b5 afbc 510c 13bd 2c48 b2bc
00000110: d487 e63c a8f1 a33c 6f65 843d 8ec6 10bd
00000120: d213 67bd c2a3 61bd edeb 8e3d c93e 8b3d
00000130: 4a75 18bd 3001 123d 7883 b2bc 0062 773b
00000140: eac0 11bd 8aa4 663d b38a 80bd 58f2 67bc
00000150: 06e5 15bd 2577 8e3d 54cf 30bd 6816 2c3d
00000160: f874 c83c c89d 5e3c 7744 2fbd 8ac6 693d
00000170: f07d 69bc 7766 5cbd 4c55 e53c 746d 38bd
00000180: 60e2 043b c532 21bd dc26 13bd 7064 2f3c
00000190: a825 013d 2dee 8a3d 0a93 d1bc 70da 6f3c
000001a0: e49a 873c 8ca7 45bd 810c 82bd 921e 88bd
000001b0: 4608 7b3d 0a88 623d 7e95 623d f048 013d
000001c0: 363e e8bc bcd0 953c 4411 88bd 1a97 a2bc
000001d0: 28cf 443c 1051 523d 98c7 513c 0047 42ba
000001e0: fbf1 8dbd 408c e23c a28a fcbc 4984 5fbd
000001f0: 5ad4 ccbc d058 d53b 84f4 2fbd 306e f43c
00000200: c067 cb3a c8fd ef3c 1845 403c 00ea 1439
00000210: 600c 9dbb fa92 46bd b247 483d d75f 43bd
00000220: 583b 853c ac23 213d d82f a13c 5c56 c2bc
00000230: b4a3 fa3c 2a73 5d3d e0fb 003c 7a52 713d
00000240: f5e9 36bd 604e 58bd 4ee8 15bd a015 bf3b
00000250: 001f 4d3a d63c f8bc 66a6 153d 384b 593d
00000260: baf8 82bc 4c0b 2ebc 9240 41bd e64f 753d
00000270: 2848 3cbd 9866 1c3c c028 21bb d033 37bd
00000280: 1c7d 10bd 48b0 2cbc 68cf 4d3c f080 bbbb
00000290: f473 31bd 98c9 06bd ce92 b1bc 95fa 87bd
000002a0: 404a a03a aa9e 87bd d878 393d b6cf e5bc
000002b0: bc54 8a3c d052 113d f654 49bd 019c 853d
000002c0: 9cb3 413d a8dc 24bc 045c eabc 90d0 f93b
000002d0: b60e 583d c23c 703d f894 c23c ada4 8abd
000002e0: 6119 5fbd 10fe 1c3d c080 2cbd 3035 4a3d
000002f0: 0fc6 863d af75 14bd fc19 1b3d 34a0 db3c
00000300: 6278 3abd 540d 813c 49d8 873d 2c5a 48bd
00000310: d4fc 83bd 9433 34bc b559 81bd d218 35bd
00000320: 3883 47bd 00b8 1638 5ee5 373d 0022 3f39
00000330: f366 8a3d 8221 85bd 4c89 923c a875 f6bc
00000340: b673 afbc 00c1 6e3a 6aa8 2b3d 3654 86bc
00000350: 08ad 063d 9a41 23bd 340b 80bd c8f8 88bd
00000360: 2c3a 1fbd a0ee b63c a233 8bbd 29f2 8a3d
00000370: ad03 863d a67f 583d 6203 0b3d a4fe 6fbc
00000380: 30e8 f23c 2ebe 723d e043 08bc c6fe 77bd
00000390: e11f 8e3d 96cb 85bd 06e9 debc a48f 18bd
000003a0: 30b1 f2bb 0070 5638 1cbe f13c 0008 3abd
000003b0: d715 23bd e212 403d 363e 463d 6c5b 533d
000003c0: f80e 5c3d 4e4b b4bc b4ef bdbc 5236 8dbc
000003d0: d86a 0d3d 4446 563d a9ec 79bd c870 8b3c
000003e0: 2c57 74bd 42e1 77bd ec6a c5bc e4ff 15bc
000003f0: a487 e1bc 0c27 ad3c b0c7 db3c 7012 373d

mapping.bias f4 [200]
0.008372791 -0.042188644 0.00951913 -0.050836384 0.009915404 -0.01801965 0.004995063 -0.068302624
-0.03138332 0.07028232 -0.011258662 -0.018688302 0.036041595 -0.029435478 -0.054327738 0.011097737
-0.019678306 -0.06582795 -0.0058359504 -0.054562327 0.062473886 0.023893856 -0.03096794 -0.04861688
-0.02402825 -0.05049788 -0.020407472 -0.0007016286 -0.030914143 -0.045270085 -0.023760311 0.024952114
0.029059626 0.06006015 -0.027190343 0.0020684674 -0.0021369308 -0.06962641 -0.044633355 -0.049683772
0.060216017 -0.016917747 -0.058360852 0.021078773 -0.037933066 0.0071415976 -0.04073283 -0.003296584
-0.029413376 -0.03533022 0.026775777 0.0027969107 0.031551994 0.037336417 0.019646347 0.04814285
0.055383973 0.023524605 -0.037299693 0.06854566 -0.0013738871 0.06088782 -0.04127676 0.03973057
-0.031444106 -0.05905368 -0.0025871992 -0.041224085 0.022689924 -0.06166082 0.011171721 -0.0033053756
-0.055050634 -0.024899036 0.05943858 -0.052434705 -0.031433474 0.04702308 0.03559894 0.027345575
-0.06717985 0.0011947975 -0.011048425 0.01977387 0.05940648 0.027782775 -0.05455468 -0.015863739
-0.05132952 -0.058722153 0.05241034 -0.02217345 0.028466232 -0.064377934 0.031430505 -0.065386765
-0.0057328567 0.06692893 0.053511083 -0.067341015 0.014222786 -0.03985641 0.0023638085 0.0073686913
0.035224147 -0.06170185 -0.007771559 -0.028015383 -0.02902539 -0.011450727 -0.011184089 0.04490616
0.0122009665 0.05502058 -0.018731933 -0.018881544 -0.009484448 -0.037853476 0.05410161 -0.045884248
-0.04087598 -0.009570092 -0.039528534 -2.4817884e-05 -0.011105578 -0.020562235 0.034052245 0.030599229
0.031536207 0.017978087 0.047855265 -0.021961711 0.066899605 -0.01983327 0.025157087 0.011802442
-0.0071869493 -0.062092382 -0.06390047 0.0011208355 0.015867837 -0.0014701933 0.011407837 -0.00114429
0.030035235 -0.026512105 -0.0037432835 0.049862646 -0.01886981 0.036530428 0.006575927 -0.0006179586
-0.050037414 -0.04792514 0.0014909059 -0.031252295 -0.020582989 0.06698383 -0.012888119 0.051336676
0.06835384 -0.025636427 -0.04022771 -0.06568979 -0.037486773 -0.030449152 0.02962982 -0.04717255
-0.05019602 0.031229429 -0.030100185 -0.021263987 0.01823628 0.061404116 -0.042341147 0.01584033
-0.062117353 -0.045612082 -0.017824907 0.042483546 -0.062933736 0.01806926 -0.06470268 0.006359756
0.009879775 -0.047516257 -0.029397067 0.00681065 0.022632934 -0.014490854 0.026878506 0.057969652
-0.05074575 0.0673246 -0.032619286 0.05610328 0.051317766 -0.02576711 0.06541056 -0.028893217
00000000: 082e 093c 00ce 2cbd 20f6 1b3c d039 50bd
00000010: 3874 223c f29d 93bc a0ad a33b 3fe2 8bbd
00000020: cc8b 00bd 2df0 8f3d 4076 38bc 3618 99bc
00000030: 5aa0 133d ac22 f1bc c386 5ebd 48d3 353c
00000040: 6634 a1bc ced0 86bd 803b bfbb bf7c 5fbd
00000050: 9ee4 7f3d 0cbd c33c 7ab0 fdbc 7e22 47bd
00000060: e4d6 c4bc ddd6 4ebd 922d a7bc 80ed 37ba
00000070: a83f fdbc 206d 39bd fca4 c2bc 6068 cc3c
00000080: 740e ee3c a201 763d 48be debc 208f 073b
00000090: c00b 0cbb 4b98 8ebd 77d1 36bd 3681 4bbd
000000a0: 12a5 763d 1697 8abc ca0b 6fbd 64ad ac3c
000000b0: b45f 1bbd 1004 ea3b 78d7 26bd 800b 58bb
000000c0: 52f4 f0bc 6cb6 10bd e058 db3c 604c 373b
000000d0: aa3c 013d 12ee 183d 60f1 a03c 7031 453d
000000e0: 4eda 623d acb6 c03c 90c7 18bd ab61 8c3d
000000f0: 0014 b4ba 8265 793d d211 29bd 86bc 223d
00000100: 89cb 00bd 46e2 71bd 008e 29bb 96da 28bd
00000110: 38e0 b93c 0e90 7cbd 9809 373c 009f 58bb
00000120: c67c 61bd 10f9 cbbc de75 733d c6c5 56bd
00000130: 63c0 00bd 469b 403d 32d0 113d d403 e03c
00000140: 9795 89bd c09a 9c3a 7404 35bc d0fc a13c
00000150: 3654 733d b498 e33c ba74 5fbd acf4 81bc
00000160: e73e 52bd a486 70bd 3aac 563d 18a5 b5bc
00000170: 0432 e93c 94d8 83bd 46bd 003d 7fe9 85bd
00000180: b0da bbbb 0912 893d 702e 5b3d 16ea 89bd
00000190: b006 693c 7a40 23bd 20ea 1a3b 1075 f13b
000001a0: 3247 103d 14bb 7cbd 90a8 febb 8480 e5bc
000001b0: a8c6 edbc d49b 3bbc 783d 37bc 86ef 373d
000001c0: 90e6 473c 425d 613d b673 99bc 78ad 9abc
000001d0: a864 1bbc 3f0c 1bbd a699 5d3d 1ff1 3bbd
000001e0: 926d 27bd e0cb 1cbc ace8 21bd 0030 d0b7
000001f0: 2cf4 35bc 2272 a8bc 5e7a 0b3d 3cab fa3c
00000200: 1c2c 013d c846 933c e203 443d 0ce9 b3bc
00000210: a902 893d 6279 a2bc 3c16 ce3c 085f 413c
00000220: 8080 ebbb 9554 7ebd 40de 82bd 00e9 923a
00000230: 44fd 813c 80b3 c0ba f0e7 3a3c 00fc 95ba
00000240: 740c f63c ea2f d9bc e051 75bb c63c 4c3d
00000250: dc94 9abc eea0 153d e07a d73b 80fe 21ba
00000260: 08f4 4cbd 274d 44bd 806a c33a 6802 00bd
00000270: a89d a8bc d12e 893d b028 53bc 6846 523d
00000280: 19fd 8b3d 7c03 d2bc d0c5 24bd 5e88 86bd
00000290: bb8b 19bd 8070 f9bc 3cba f23c 0138 41bd
000002a0: 589a 4dbd dcd4 ff3c aa94 f6bc d031 aebc
000002b0: 4064 953c e282 7b3d e96d 2dbd 94c3 813c
000002c0: c46e 7ebd bcd3 3abd 8a05 92bc 3a03 2e3d
000002d0: 67e3 80bd fc05 943c d782 84bd 8065 d03b
000002e0: c8de 213c 68a0 42bd 1ed2 f0bc e02b df3b
000002f0: b468 b93c 0c6b 6dbc 5030 dc3c 9671 6d3d
00000300: c7da 4fbd 7be1 893d cd9b 05bd 8ecc 653d
00000310: 9432 523d 8c15 d3bc f9f5 853d 78b1 ecbc
